models_backup/actor_700.pth (torch, 529709 bytes, 6 tensors)

l1.weight f4 [400, 26]
0	0xbd8b0af8	-0.067892015
1	0xbe1b9122	-0.15192083
2	0xbe3eb5cf	-0.18624042
3	0x3e29c488	0.16578877
4	0x3e1c053b	0.1523637
5	0x3d1eeceb	0.03880016
6	0x3d86af2c	0.0657638
7	0xbad468f4	-0.0016205595
8	0xbdc1ed40	-0.0946908
9	0x3c260cda	0.0101349
10	0x3dec8c46	0.115501925
11	0xbe6554ae	-0.22395584
12	0xbe7bf383	-0.24604611
13	0x3e211b99	0.15733184
14	0xbe679f9d	-0.22619481
15	0x3e056bcb	0.13029401
16	0x3e13045b	0.1435713
17	0xbe3a7a1c	-0.18210644
18	0x3e133707	0.1437646
19	0x3e6d4c7f	0.23173712
20	0x3ea56138	0.32300735
21	0x3e65706a	0.22406164
22	0xbe06dc6a	-0.13170019
23	0xbe00972f	-0.12557672
24	0x3c90b779	0.017665612
25	0x3e2efa6b	0.17087714
26	0x3e1a1449	0.150468
27	0x3e3f8100	0.18701553
28	0x3d13c384	0.03607513
29	0x3e08ac0d	0.13346882
30	0xbbb76973	-0.0055972873
31	0x3d86d00c	0.065826505
32	0x3e06c323	0.13160376
33	0xbe15c430	-0.14625621
34	0xbde1bffb	-0.110229455
35	0xbe209b0a	-0.15684143
36	0xbe37c6ef	-0.17946981
37	0xbe926bdb	-0.28597912
38	0xbddfc9c9	-0.10927159
39	0xbda7c4b5	-0.08191816
40	0xbe9110b0	-0.28333044
41	0x3d1bb184	0.03801109
42	0xbe094308	-0.13404477
43	0x3db6660f	0.08906185
44	0x3db221a2	0.08697821
45	0xbca912c9	-0.02063884
46	0x3e4252a4	0.18976837
47	0xbe11f751	-0.142545
48	0x3da6fa73	0.08153238
49	0xbe3bec35	-0.18351825
50	0x3e20451d	0.15651365
51	0xbe88b6d4	-0.26701987
52	0x3e1c778f	0.15279983
53	0x3e38ae7d	0.18035312
54	0x3e77c619	0.24196662
55	0xbc9449a3	-0.018101519
56	0xbe0267cc	-0.12734908
57	0x3d979526	0.07401495
58	0x3d552229	0.05203453
59	0x3e100ecb	0.14068143
60	0xbc7bf486	-0.015378123
61	0xbd10bdd7	-0.035337295
62	0xbca5444d	-0.02017417
63	0x3dce8dd3	0.100856446
64	0xbe7a2767	-0.24429093
65	0x3d9f6e26	0.07784681
66	0x3a38d0fe	0.0007050185
67	0xbe7210f5	-0.23639281
68	0xbde4a873	-0.11164942
69	0xbd9ef2bf	-0.07761144
70	0xbe3b6b0e	-0.18302557
71	0x3ddefd31	0.10888136
72	0x3db2449f	0.08704495
73	0xbe01985a	-0.12655774
74	0x3e1e0771	0.15432526
75	0xbd85bfc1	-0.06530715
76	0x3dd2513b	0.102694
77	0x3e15e155	0.14636739
78	0x3dd22bfa	0.10262294
79	0x3dd83787	0.10557466
80	0x3deb5efa	0.11492725
81	0x3e245c57	0.1605085
82	0xbc917506	-0.017755996
83	0x3d24099f	0.040048238
84	0x3da5db0f	0.08098423
85	0x3d0ef647	0.034902837
86	0x3deebdf2	0.11657323
87	0xbd28e95f	-0.041238185
88	0xbd195f5a	-0.03744445
89	0xbe0e5fd3	-0.13903742
90	0x3d911dbe	0.07085751
91	0xbdcb619a	-0.099307254
92	0xbe5f7493	-0.21821813
93	0xbdebad1b	-0.115076266
94	0xbe0dbd8b	-0.13841836
95	0xbd1191ee	-0.03553956
96	0xbe70732c	-0.23481435
97	0x3d2797ac	0.04091613
98	0xbe0262ec	-0.12733048
99	0x3da51e89	0.08062465
100	0x3e1ee005	0.15515144
101	0xbe300703	-0.17190175
102	0x3d93484a	0.071915224
103	0x3e0d160f	0.13777946
104	0x3ce743fe	0.028230663
105	0xbba4fd1e	-0.0050350567
106	0x3dadee33	0.084926985
107	0x3df9bcec	0.12194237
108	0x3bfaf1b8	0.0076582097
109	0xbbefcb34	-0.007317925
110	0x3d41d2a0	0.04732001
111	0x3e8586a6	0.2607929
112	0x3cb9cff7	0.022682173
113	0xbd983df2	-0.0743369
114	0xbe7ac59c	-0.24489444
115	0xbcdf8fe1	-0.027290286
116	0xbe3db78a	-0.18527046
117	0xbe0a7f95	-0.13525231
118	0x3dc4197e	0.09575175
119	0xbd9a4da7	-0.07534342
120	0x3ddd4000	0.10803223
121	0x3de7a9e0	0.11311698
122	0xbca75c4a	-0.020429749
123	0xbc66d021	-0.014087708
124	0xbe2321b4	-0.15930825
125	0x3d50551d	0.05086242
126	0xbe606156	-0.2191213
127	0xbdbbab4a	-0.0916353
128	0x3cdc0daf	0.026861994
129	0xbe9fd978	-0.31220603
130	0x3d0ba2d8	0.034090847
131	0x3e00a517	0.12562977
132	0xbd7533b0	-0.059863746
133	0xbd9b1861	-0.07573009
134	0x3e0e05cb	0.13869397
135	0x3d5659d4	0.05233176
136	0x3dd3d525	0.103433885
137	0xbd23555f	-0.039876338
138	0x3d0f146e	0.034931593
139	0xbbfa82e4	-0.007644998
140	0x3c947eaa	0.018126804
141	0xbe3bed6b	-0.18352287
142	0xbdcb81db	-0.09936877
143	0x3b9b1e95	0.0047338703
144	0xbdf83e70	-0.12121284
145	0xbe036c26	-0.12834224
146	0x3e100ea7	0.1406809
147	0x3e300dbf	0.17192744
148	0x3dc14cec	0.094385
149	0xbd9b056b	-0.07569393
150	0xbdcf38fe	-0.10118292
151	0x3bc7601f	0.0060844566
152	0x3e2d31b6	0.16913494
153	0x3e0f01c9	0.13965525
154	0xbdd5ba55	-0.10435931
155	0xbdb19b24	-0.08672169
156	0xbd43fd9f	-0.047849294
157	0xbd98740c	-0.07444009
158	0x3d572896	0.05252894
159	0xbd06eb7b	-0.032939415
160	0xbe95de31	-0.2927108
161	0xbe475a10	-0.1946795
162	0xbe8f5cff	-0.28000638
163	0xbe85cd8e	-0.26133388
164	0xbe0ab6f0	-0.13546348
165	0x3ddb8477	0.10718625
166	0x3e00fe3c	0.12596983
167	0xbe7b7aeb	-0.24558608
168	0xbe92178d	-0.28533593
169	0x3e2fbd5d	0.1716208
170	0x3cf9a548	0.03047432
171	0xbe0ab259	-0.13544597
172	0x3e5ddd8b	0.21666543
173	0x3e2f94aa	0.17146555
174	0xbd60afbd	-0.054855097
175	0x3e56f281	0.20990945
176	0x3e5fa96e	0.21841976
177	0xbd9864be	-0.0744109
178	0x3c8f5ee2	0.017501298
179	0x3e15abf7	0.1461638
180	0xbb13a806	-0.002253057
181	0x3d61ef66	0.05515995
182	0xbe2a16ee	-0.1661031
183	0xbe048f4a	-0.12945285
184	0x3db83a13	0.08995452
185	0x3cb55ecd	0.022139931
186	0x3e3fec30	0.18742442
187	0x3e63affd	0.22235103
188	0x3e3c2fe1	0.1837764
189	0xbe6cd9c3	-0.23129945
190	0x3de205c9	0.1103626
191	0x3d4f45bc	0.050603613
192	0x3c5f575e	0.01363167
193	0xbd8b07df	-0.06788611
194	0x3dbe6266	0.09296112
195	0x3bfa828f	0.0076449583
196	0xbe15894f	-0.1460316
197	0x3db0fc3d	0.08641861
198	0xbdc8ff86	-0.09814362
199	0xbe0e6e86	-0.13909349
200	0xbe9d4dd9	-0.30723456
201	0xbdea4a32	-0.11439933
202	0x3da3e41f	0.08002495
203	0xbe923367	-0.28554842
204	0xba8c88d3	-0.0010721929
205	0xbea5efd6	-0.32409543
206	0x3e882080	0.26587296
207	0x3df59df6	0.11993019
208	0xbe411a04	-0.1885758
209	0x3e50a860	0.2037673
210	0x3e348dc8	0.1763221
211	0x3e308752	0.1723912
212	0xbddebe60	-0.10876155
213	0x3e24df40	0.16100788
214	0x3c40e9c7	0.011774487
215	0x3e098a12	0.13431576
216	0xbe1e802c	-0.15478581
217	0x3e339cbd	0.1754026
218	0xbda315a0	-0.07963109
219	0xbe3e9a29	-0.18613495
220	0xbe461292	-0.19343022
221	0xbd1847a7	-0.037177708
222	0x3d1e74b6	0.038685523
223	0x3c81ea53	0.015858805
224	0x3d30444b	0.04303388
225	0xbc72e36c	-0.014824729
226	0xbb864c1d	-0.004098429
227	0x3e2ebd9d	0.17064519
228	0x3d9c7a56	0.07640521
229	0xbdab695f	-0.08369707
230	0x3d69c9db	0.05707727
231	0x3e2acd32	0.16679838
232	0x3e4c1100	0.1992836
233	0x3e287aee	0.16453144
234	0xbde0c389	-0.10974795
235	0x3e2d09e7	0.16898309
236	0x3d7fbbe0	0.06243503
237	0x3e15d4a7	0.14631902
238	0xbdef589f	-0.11686825
239	0x3d087960	0.033318877
240	0x3d551f75	0.052031953
241	0x3cf98068	0.030456737
242	0xbe07ec3e	-0.13273713
243	0xbe1faeb3	-0.15593986
244	0xbceb2ee8	-0.02870889
245	0xbe1e75ae	-0.15474579
246	0xbe8c4cb9	-0.27402285
247	0xbe28265a	-0.1642088
248	0xbe82fa4c	-0.25581586
249	0xbde42b08	-0.1114102
250	0x3dc84be8	0.09780103
251	0x3e2be03b	0.16784756
252	0x3e1882ae	0.148936
253	0x3c9c816c	0.019104682
254	0x3cc8534c	0.024453782
255	0x3e10c668	0.14138186

l1.bias f4 [400]
0	0xbdc7cff3	-0.0975646
1	0xbae3b62c	-0.0017373017
2	0xbe4fa4d9	-0.20277728
3	0xbe3445e8	-0.17604792
4	0x3e5b4787	0.21414004
5	0x3e1ecea9	0.15508522
6	0x3e171727	0.14754926
7	0x3bd9d4dd	0.0066476897
8	0x3d146a9d	0.036234487
9	0x3cbcdbf5	0.023054102
10	0xbe08b986	-0.13352022
11	0x3e52da02	0.20590976
12	0xbd9c285c	-0.076248854
13	0x3dc06ae4	0.09395388
14	0xbe2c44ed	-0.16823168
15	0xbdeddae4	-0.11614016
16	0xbdf7c26a	-0.120976284
17	0xbdd79765	-0.10526923
18	0x3d5242e3	0.05133332
19	0xbd8388c2	-0.06422569
20	0xbda80739	-0.082045026
21	0xbe110b85	-0.1416455
22	0x3ddd3ac0	0.10802221
23	0xbe050a86	-0.12992296
24	0xbe24c2f3	-0.16089992
25	0xbd7c6cf9	-0.061627362
26	0xbe22587f	-0.15854071
27	0xbe69963c	-0.22811216
28	0x3e03c7b3	0.12869148
29	0x3e36e449	0.17860521
30	0xbe7b7501	-0.24556352
31	0x3d49fa87	0.049311187
32	0x3dad028b	0.08447751
33	0xbdf009a8	-0.11720592
34	0xbcc0ec5c	-0.023550205
35	0xbe41736c	-0.18891686
36	0xbd1c6be7	-0.03818884
37	0x3daf37f2	0.085555926
38	0x3e86be24	0.2631694
39	0x3df2b65a	0.11851187
40	0xbe34daad	-0.17661543
41	0xbe3b0344	-0.18262964
42	0x3e10ab1a	0.1412777
43	0xbe3ded46	-0.18547544
44	0x3e73d744	0.23812586
45	0xba6fa668	-0.0009141923
46	0xbcb8ae80	-0.022544146
47	0x3d3a6fb2	0.045516677
48	0xbe2c4cb7	-0.1682614
49	0xbe408e20	-0.18804216
50	0x3dfc9e70	0.12334907
51	0x3dffc197	0.12488096
52	0x3e883f60	0.2661085
53	0x3d81668a	0.06318386
54	0xbe11ed9d	-0.14250799
55	0xbd97691a	-0.073930934
56	0xbe17066d	-0.14748545
57	0xbd94bc00	-0.07262421
58	0x3da39766	0.07987861
59	0xbe5bbf8e	-0.21459791
60	0x3d681864	0.056663886
61	0xbda1c906	-0.0789967
62	0xbe02cad3	-0.12772684
63	0xbdb5878e	-0.08863746
64	0xbc69498f	-0.014238729
65	0x3d70c4fb	0.058781605
66	0x3e0804b5	0.13283046
67	0xbba04ffb	-0.004892347
68	0xbe2e6436	-0.17030415
69	0x3cbce2af	0.02305731
70	0xbd948d34	-0.07253495
71	0x3cc33c09	0.023832338
72	0xbd8e94ae	-0.06961952
73	0xbd162902	-0.0366602
74	0x3e10f160	0.14154577
75	0x3da5cddb	0.080959044
76	0xbcf912d8	-0.030404493
77	0xbe15c9df	-0.14627789
78	0x3dc7d9d2	0.09758343
79	0x3e0ba78f	0.13638137
80	0x3e67a157	0.2262014
81	0xbdd958d4	-0.10612646
82	0x3d83dcbd	0.06438587
83	0xbdeabf4e	-0.1146227
84	0xbd8992bd	-0.06717441
85	0xbe430471	-0.19044663
86	0x3ddcca48	0.107807696
87	0xbe41345d	-0.18867631
88	0xbe58c9c0	-0.21170712
89	0xbe0b6bbc	-0.13615316
90	0x3e434736	0.19070134
91	0x3e11b351	0.1422856
92	0x3e8dc7c9	0.27691486
93	0xbe5751db	-0.21027319
94	0x3df3e520	0.119089365
95	0xbdf65bad	-0.120292045
96	0x3e59e941	0.21280386
97	0x3dbf669b	0.09345742
98	0x3cbc208d	0.02296474
99	0x3b9f8a9f	0.00486882
100	0x3da76d7e	0.08175181
101	0xbe2fd63e	-0.1717157
102	0x3d3d66fa	0.046240784
103	0xbde17eeb	-0.11010536
104	0x3de8b5fa	0.11362834
105	0xbda5e2d5	-0.080999054
106	0xbd45e626	-0.04831519
107	0x3e2bb962	0.16769937
108	0xbdc1e72c	-0.09467921
109	0xbe1bd258	-0.15216959
110	0x3b613fd8	0.003437033
111	0xbe41d3a1	-0.18928386
112	0xbd84a889	-0.06477458
113	0xbe27b16b	-0.16376273
114	0xbe328d7a	-0.17436782
115	0x3de19896	0.110154316
116	0xbd638880	-0.0555501
117	0x3dba2e01	0.09090806
118	0x3e56044d	0.20900078
119	0xbd8b6607	-0.068065695
120	0x3d2ee95d	0.04270302
121	0x3d849408	0.06473547
122	0xbdc63c34	-0.096794516
123	0x3e817388	0.25283456
124	0x3d47e4f2	0.048802324
125	0xbd375235	-0.044756133
126	0x3e31b49b	0.17354052
127	0xbcc6bc56	-0.024259727
128	0xbd06c6c9	-0.03290442
129	0x3e1a495b	0.15067045
130	0x3d4d7d99	0.050168607
131	0xbe08256f	-0.1329553
132	0x3d82fea8	0.06396228
133	0x3b9f5b23	0.0048631593
134	0xbc117d85	-0.008880024
135	0x3e064bdf	0.1311488
136	0x3dcff9ea	0.10155089
137	0x3d77e9cf	0.06052571
138	0x3e377e06	0.17919168
139	0xbdb4a7ef	-0.08821093
140	0xbda1940a	-0.07889564
141	0xbd3635cf	-0.04448491
142	0xbc9a250c	-0.018816493
143	0xbe434ae7	-0.19071542
144	0x3df99787	0.12187105
145	0xbc76f146	-0.0150721725
146	0x3e34850e	0.17628881
147	0xbe3943c5	-0.18092258
148	0x3df92fb3	0.12167301
149	0xbde17eab	-0.11010488
150	0xbbdacdd2	-0.0066773677
151	0x3caf031e	0.021363791
152	0xbd592e77	-0.053022828
153	0x3c31889f	0.010835796
154	0x3bbc281e	0.005742087
155	0x3da15ff2	0.07879628
156	0x3e2c83e3	0.16847186
157	0x3e1b733d	0.15180679
158	0x3ddf4863	0.109024785
159	0x3d13e015	0.036102373
160	0xbc07a81d	-0.008279827
161	0x3e37269c	0.17885822
162	0xbc4901da	-0.012268508
163	0xbe11241d	-0.14173932
164	0x3e53d6c2	0.20687392
165	0x3e164648	0.14675248
166	0xbe0b8175	-0.13623603
167	0x3e0811b6	0.13288006
168	0xbe13af84	-0.14422423
169	0x3d989c01	0.074516304
170	0xbe144e6c	-0.1448304
171	0x3e225002	0.15850833
172	0x3daa1af6	0.08305924
173	0x3d9bc862	0.07606579
174	0x3d2deb12	0.04246051
175	0x3e0f57bc	0.13998312
176	0x3df74fe2	0.12075783
177	0xbd85a196	-0.06524961
178	0x3d5a2c6b	0.053265017
179	0x3dde2328	0.10846549
180	0x3e1c722f	0.15277933
181	0xbca4da39	-0.020123588
182	0x3e054403	0.13014226
183	0x3e26a8d8	0.16275346
184	0x3dfa12ba	0.12210603
185	0xbd32b6d3	-0.043631386
186	0x3dc18f1f	0.09451126
187	0xbc064cee	-0.008197052
188	0x3dbc1253	0.091831826
189	0xbd503aa7	-0.050837185
190	0x3d5b2ab8	0.053507537
191	0xbc1eab81	-0.009684444
192	0x3e21a6d0	0.1578629
193	0x3c8c62d8	0.017136976
194	0xbdd16270	-0.102238536
195	0x3d0edb4d	0.03487711
196	0x3dd94fd2	0.10610928
197	0x3e22e4c4	0.1590758
198	0xbc751221	-0.014957936
199	0xbe4cfe24	-0.20018822
200	0xbdffa751	-0.12483085
201	0xbe0a7352	-0.13520554
202	0xbdfd0893	-0.12355151
203	0x3d3d45ae	0.04620903
204	0xbdf72c69	-0.120690174
205	0x3e68bee0	0.22729063
206	0xbe41292d	-0.18863364
207	0xbdaa0582	-0.08301832
208	0xbe3c8fb7	-0.18414198
209	0x3da33755	0.07969538
210	0xbe0f69b0	-0.1400516
211	0x3dbcc620	0.09217477
212	0x3e1c21de	0.15247294
213	0x3dc4dafd	0.09612081
214	0xbd0dd015	-0.03462227
215	0xbd6043f6	-0.054752313
216	0x3e0c6d33	0.13713531
217	0x3c9ca481	0.01912141
218	0xbcc62d2b	-0.02419146
219	0xbdd89b79	-0.10576529
220	0xbdb7b71e	-0.08970474
221	0xbd55f182	-0.052232273
222	0xbe1b3485	-0.15156753
223	0xbc6909f2	-0.014223563
224	0xbde53890	-0.11192429
225	0xbd675224	-0.05647482
226	0x3e169efb	0.14709084
227	0x3b9a9579	0.0047175256
228	0x3db5908d	0.088654615
229	0xbd1e0f58	-0.03858885
230	0x3dbcf0f3	0.09225645
231	0x3c66407e	0.014053462
232	0xbe35c64c	-0.17751426
233	0x3e12b49f	0.14326714
234	0x3d612490	0.05496651
235	0x3e164174	0.14673406
236	0xbd3d5e36	-0.046232425
237	0x3e410cd7	0.18852554
238	0x3dd7c0aa	0.10534795
239	0xbd093cf1	-0.033505384
240	0x3d4b4c73	0.049633455
241	0xbd96f3a8	-0.073706925
242	0xbd85ec98	-0.06539267
243	0x3dbc0ab6	0.091817304
244	0x3d8e6b71	0.069540866
245	0xbe562de9	-0.20915951
246	0xbd1ebc21	-0.038753632
247	0x3e4ac9b0	0.198035
248	0xbe08910d	-0.13336582
249	0xbde643fc	-0.11243436
250	0x3e36c16c	0.17847222
251	0xbdd33721	-0.103132494
252	0xbda40129	-0.08008034
253	0xbde5ec87	-0.11226755
254	0x3d9acdb4	0.07558766
255	0xbe1b5e87	-0.15172778

l2.weight f4 [300, 400]
0	0x3d6a8cfa	0.057263352
1	0xbcc30689	-0.023806827
2	0xbd97508f	-0.07388412
3	0x3d16afa0	0.036788583
4	0xbd968f32	-0.07351531
5	0xbddfd8fc	-0.10930058
6	0x3d06b52e	0.03288763
7	0xbd631381	-0.055438522
8	0xbd9eb1dc	-0.07748768
9	0xbcfb4545	-0.030672679
10	0xbd07fe75	-0.033201654
11	0x3d48e863	0.049049746
12	0x3d34a8fa	0.04410646
13	0xbdbe992c	-0.09306559
14	0x3d446ebf	0.04795718
15	0xbd2ea629	-0.04263893
16	0xbdb074f9	-0.08616061
17	0x3c833367	0.016015721
18	0x3d03c985	0.032174606
19	0x3d84cd34	0.06484452
20	0xbc13a78f	-0.009012117
21	0x3d77d7f5	0.060508687
22	0xbbe6e1d4	-0.007045964
23	0x3d69364a	0.05693654
24	0x3d2a6087	0.041595962
25	0x3d3fac37	0.046795096
26	0x3cd3ce4f	0.025855212
27	0x3bf056a9	0.0073345494
28	0xbd778051	-0.060425106
29	0x3e0e8dc0	0.13921261
30	0xbc1196e0	-0.008886069
31	0xbdfc5cd6	-0.123223945
32	0x3c9f7792	0.019466195
33	0xbd03a8a7	-0.03214326
34	0x3d6825c4	0.05667664
35	0xbd1a277c	-0.03763531
36	0xbd9a6658	-0.07539052
37	0xbd1d6c4e	-0.038433366
38	0xbd43a1f9	-0.04776189
39	0x3d425570	0.04744476
40	0x3e12de9d	0.14342733
41	0x3cb63339	0.022241222
42	0x3cd79577	0.026316388
43	0x3d91ddd8	0.071223915
44	0x3d484b5d	0.048899997
45	0xbda80f66	-0.08206062
46	0x3d43fe22	0.04784978
47	0xbdd2bec3	-0.10290291
48	0x3d4c1494	0.049824312
49	0x3c989dfb	0.018630018
50	0x3ca284ee	0.019838776
51	0xbccef50f	-0.025263337
52	0x3d892ba1	0.06697775
53	0x3c2b34e8	0.010449626
54	0x39fa8a98	0.00047786976
55	0x3e34da1e	0.1766133
56	0xbd370915	-0.044686396
57	0xbd9dd36a	-0.0770634
58	0xbd3ec814	-0.046577528
59	0xbe301bcf	-0.17198108
60	0x3d9816e6	0.074262425
61	0xbd1c044b	-0.03809003
62	0xbe011af9	-0.12607946
63	0xbd544567	-0.051824
64	0x3db7ed96	0.08980863
65	0x3d82f592	0.06394495
66	0x3de6ea82	0.112751976
67	0x3cb92a54	0.022603191
68	0xbc6dbafc	-0.014509913
69	0xbd1dcaba	-0.038523413
70	0x3c74c823	0.014940294
71	0x3d80a451	0.06281341
72	0xbdfc6142	-0.12323238
73	0xbdc0541f	-0.09391045
74	0xbd94a01c	-0.07257101
75	0x3d353af5	0.04424568
76	0xbe3c29dd	-0.18375345
77	0xbdf1286c	-0.11775288
78	0xbd8bfd01	-0.06835366
79	0xbc57bda1	-0.01316777
80	0x3dd4f9a8	0.10399181
81	0x3b1e15a7	0.0024121793
82	0xbc297808	-0.010343559
83	0x3c4b6dc5	0.012416308
84	0x3d0f07ad	0.03491943
85	0x3cffc77f	0.031223057
86	0x3d9f8853	0.07789674
87	0x3d650117	0.055909242
88	0xbc827820	-0.01592642
89	0xbcbc6d3e	-0.02300131
90	0x3d5800a5	0.05273499
91	0x3c0044a0	0.0078288615
92	0xbdb92dab	-0.090419136
93	0x3cf2842d	0.029604042
94	0xbe2937cd	-0.16525193
95	0xbd5c790c	-0.053826377
96	0xbe3c59d5	-0.18393643
97	0x3e09da41	0.13462164
98	0xbd7dd65d	-0.06197201
99	0x3d1c4f7f	0.03816175
100	0xbca2fbf6	-0.019895535
101	0x3da8447e	0.08216189
102	0x3dfecbf9	0.124412484
103	0xbda5547e	-0.08072756
104	0xbcbe83c5	-0.023256192
105	0x3bfbac00	0.007680416
106	0xbcffa256	-0.031205337
107	0xbc0957e1	-0.008382768
108	0x3d7613a3	0.06007732
109	0xbd422bae	-0.047404937
110	0x3c894413	0.016756093
111	0x3ca3b806	0.01998521
112	0xbcd2ec39	-0.025747405
113	0x3dbdbe16	0.09264772
114	0xbdde863d	-0.10865448
115	0x3dd1eae5	0.10249881
116	0x3d922545	0.07136015
117	0x3dc43ff3	0.0958251
118	0x3bea8a2c	0.0071575847
119	0xbde158ae	-0.110032424
120	0x3d85de34	0.065365225
121	0x3c155af9	0.009115928
122	0xbdb1ea8c	-0.086873144
123	0xbde2b94f	-0.11070501
124	0x3d9c7c16	0.07640855
125	0x3c401512	0.011723774
126	0xbd8677a8	-0.06565791
127	0x3d931efa	0.07183643
128	0xbd257a19	-0.040399645
129	0xbd29ace4	-0.041424647
130	0x3e0160ec	0.12634629
131	0xbc8a3199	-0.016869353
132	0x3ccc0815	0.024906198
133	0xbe299f88	-0.16564763
134	0xbddcca02	-0.107807174
135	0x3dbb03ed	0.09131608
136	0x3d9fa061	0.07794262
137	0x3df5903c	0.11990401
138	0x3d1e204e	0.038605027
139	0xbdfa06a0	-0.12208295
140	0xbd297a11	-0.041376177
141	0x3d3c2cc7	0.04594114
142	0xbda7220c	-0.08160791
143	0xbd394222	-0.045229085
144	0x3c15a674	0.009133924
145	0xbdbf0ebf	-0.093289845
146	0xbd28b85f	-0.041191455
147	0x3d27e93d	0.040993918
148	0x3c8c9e49	0.01716532
149	0xbd5b77a3	-0.05358089
150	0xba93be0f	-0.0011271852
151	0xbe12ee2c	-0.14348668
152	0xbdb4cf1a	-0.08828564
153	0x3d147332	0.03624267
154	0x3d7f8ea6	0.0623919
155	0xbe49146f	-0.19636701
156	0xbd89b979	-0.06724829
157	0xbc9ec077	-0.019378884
158	0x3d610c47	0.05494335
159	0x3c7d2a85	0.015452032
160	0xbd2c6e8a	-0.042097606
161	0x3c50f1fc	0.012753006
162	0xbd18d7be	-0.037315123
163	0x3d876f22	0.06612994
164	0x3bf0eafe	0.007352232
165	0x3c18a9dd	0.009317842
166	0xbd0a03c9	-0.033695016
167	0xbda78495	-0.08179585
168	0x3d87e468	0.06635362
169	0xbd5377f1	-0.051628057
170	0x3d64d57f	0.05586767
171	0xb739d890	-1.1077282e-05
172	0x3dded77e	0.108809456
173	0xbe1caaeb	-0.15299575
174	0xbdc3d627	-0.09562331
175	0x3bff4d55	0.007791201
176	0xbc233596	-0.009961506
177	0xbaf55edd	-0.0018720288
178	0xbdba9652	-0.091107026
179	0x3e249f6c	0.1607644
180	0x3d3bcdca	0.045850553
181	0x3d00d01e	0.031448476
182	0xbdcc6760	-0.09980655
183	0xbc92dd41	-0.017927768
184	0x3ca278a8	0.019832924
185	0x3d497773	0.04918618
186	0x3e13bbca	0.14427105
187	0x3cd9322b	0.02651318
188	0xbcc9af29	-0.024619656
189	0xbda14a94	-0.07875553
190	0x3ba44b33	0.0050138473
191	0xbd0a3c94	-0.033749178
192	0xbdddafec	-0.1082457
193	0xbd91b4a9	-0.07114536
194	0xbd80bbc8	-0.062858164
195	0xbe05a6cd	-0.1305191
196	0x3d295220	0.041338086
197	0xbd922587	-0.07136064
198	0xbd593764	-0.05303134
199	0xbc984f20	-0.018592417
200	0x3dca0616	0.09864442
201	0xbd2853a3	-0.041095387
202	0xbde4c1bf	-0.11169767
203	0xbd3afeda	-0.0456532
204	0xbc88e096	-0.016708653
205	0xbcf89391	-0.030343803
206	0x3d487bf7	0.048946347
207	0x3d5f5a7e	0.05452966
208	0xbcd3c70c	-0.025851749
209	0x3d9049ff	0.07045364
210	0xbd9020f0	-0.07037532
211	0xbde768a1	-0.11299253
212	0xbbba4563	-0.005684541
213	0xbde10935	-0.10988084
214	0xbdac1b60	-0.08403659
215	0xbbf55200	-0.007486582
216	0xbca61c31	-0.020277115
217	0x3e7f315e	0.24921176
218	0x3d503a48	0.05083683
219	0x3d97e997	0.074176006
220	0xbdf4814d	-0.11938725
221	0xbe115976	-0.14194283
222	0xbcaca230	-0.02107343
223	0x3ca8bd2c	0.020598017
224	0x3d866370	0.06561935
225	0xbd1f46c2	-0.03888584
226	0xbc6d4dcc	-0.01448388
227	0xb8206196	-3.8237857e-05
228	0xbe37a64f	-0.17934535
229	0x3d86179a	0.065474704
230	0xbdc45e0b	-0.0958825
231	0x3d10313f	0.035203215
232	0xbcc02861	-0.023456754
233	0xbd0c8f81	-0.034316543
234	0xbd1c84c0	-0.038212538
235	0x3db3c6ec	0.08778176
236	0xbd959f90	-0.07305825
237	0x3cf87680	0.030329943
238	0x3d80f774	0.06297198
239	0xbc430f45	-0.011905496
240	0x3dd6fb02	0.10497095
241	0xbd8e3dfd	-0.06945417
242	0x3deb3e0a	0.114864424
243	0xbe23d5c0	-0.15999508
244	0x3b6d2486	0.00361851
245	0xbd8653bf	-0.06558942
246	0x3d9b15d3	0.07572522
247	0x3d5d4988	0.054025203
248	0xbda17e97	-0.07885473
249	0x3d457f2b	0.04821698
250	0x3d2495b7	0.04018184
251	0x3d3bd7f8	0.04586026
252	0x3ca769c9	0.020436184
253	0xbce4b7f4	-0.027919747
254	0x3cc8154f	0.024424223
255	0xbd5564dd	-0.052098144

l2.bias f4 [300]
0	0xbc9ec41a	-0.019380618
1	0xbd03995f	-0.032128688
2	0x3c0f9ba9	0.00876514
3	0xbd6ff533	-0.05858345
4	0x3c55b591	0.013043777
5	0xbd18d2a5	-0.03731026
6	0xbccd10d7	-0.025032444
7	0xbd9d3519	-0.07676143
8	0xbd5419a3	-0.05178226
9	0x3ccd7352	0.025079403
10	0xbdcca470	-0.099923015
11	0x3b9a7441	0.0047135656
12	0xbd6b6e1d	-0.05747806
13	0x3de97601	0.113994606
14	0xbd6cb1e9	-0.057786856
15	0xbd7a3464	-0.06108512
16	0xbd89d530	-0.067301154
17	0xbd6fbe88	-0.058531314
18	0xbcb596f2	-0.022166703
19	0x3c91a112	0.017777
20	0x3d4235a5	0.04741444
21	0x3d0af882	0.0339284
22	0xb93a5536	-0.00017770086
23	0xbda1f0e8	-0.07907277
24	0x3ceb3412	0.028711352
25	0x3c18aced	0.0093185725
26	0xbd83d65f	-0.064373724
27	0x3cd5f1b3	0.026116228
28	0xbd8ee635	-0.06977502
29	0xbc0a5c0d	-0.008444798
30	0xbd70ba0f	-0.05877119
31	0x3de2ba3d	0.110706784
32	0xbd47a612	-0.04874236
33	0xbd750767	-0.059821513
34	0xbcd6b3d8	-0.026208803
35	0xbc9f8edd	-0.019477302
36	0x3ceda7ee	0.02901074
37	0xbd2d907a	-0.04237411
38	0x3d04497a	0.032296635
39	0x3d467cee	0.048458986
40	0x3dd7d9d5	0.10539595
41	0xbc24b8cf	-0.010053827
42	0xbd0fbbfa	-0.035091378
43	0xbc2a3c83	-0.010390404
44	0x3d07c5db	0.033147674
45	0xbc61c57a	-0.013779992
46	0xbc8c8f2f	-0.017158119
47	0x3c770d0a	0.015078792
48	0x3cc04f91	0.02347544
49	0xbd15b5c7	-0.03655031
50	0xbc867acc	-0.016415976
51	0xbca4a034	-0.020095922
52	0x3c967915	0.018368283
53	0xbd4a6917	-0.049416628
54	0xbc922215	-0.017838517
55	0xbd3b3cab	-0.045712154
56	0xbd61ce34	-0.05512829
57	0xbd31bc21	-0.043392304
58	0xbc275d49	-0.010215112
59	0x3c9e3b57	0.019315405
60	0x3c905335	0.017617801
61	0xbd8bfc5f	-0.06835245
62	0xbd8a6e27	-0.06759291
63	0xbc034e2f	-0.008014246
64	0xbb9e7cb4	-0.004836643
65	0xbd54c1c6	-0.05194261
66	0xbd21b04e	-0.039474778
67	0x3cf9efe3	0.030509895
68	0x3cb21951	0.021740587
69	0xbd7f1a77	-0.0622811
70	0xbd2b38d5	-0.041802246
71	0x3d5edef7	0.054411855
72	0xbd5f223d	-0.05447601
73	0x3d073a18	0.033014387
74	0xbda04a69	-0.078266926
75	0xbc6dcae7	-0.014513708
76	0x3d35b88f	0.044365462
77	0x3ce37773	0.027766919
78	0x3bf4f14c	0.007475054
79	0x3c82c5c8	0.01596345
80	0xbd40ea0c	-0.047098204
81	0xbc51e378	-0.01281058
82	0xbd413f48	-0.04717949
83	0xbcd56003	-0.026046759
84	0x3cb7625c	0.022385769
85	0xbd25b196	-0.040452562
86	0xbd9b3de2	-0.075801626
87	0xbde3b23d	-0.11117981
88	0x3dab13fd	0.08353422
89	0x3bdacbca	0.0066771256
90	0x3d9d9d44	0.07696012
91	0x3becab68	0.0072225817
92	0xbd126aee	-0.035746507
93	0xbc41e7fe	-0.011835096
94	0xbcf122b5	-0.029435495
95	0x3d16b8fc	0.03679751
96	0x3d81b973	0.063342
97	0x3d987a1b	0.07445165
98	0x3d908dff	0.070583336
99	0xbaa51009	-0.001259328
100	0xbd6ef9f5	-0.058343846
101	0x3d46e336	0.04855653
102	0xbd2620f3	-0.040558767
103	0xbb714bbd	-0.0036818825
104	0xbcf9fc6f	-0.030515878
105	0xbd2a32d7	-0.04155239
106	0xbca85604	-0.020548828
107	0x3d0ec8d3	0.03485949
108	0xbd3e3de9	-0.04644576
109	0x3ab75585	0.0013987279
110	0xbc9e1b50	-0.019300133
111	0x3bbb9323	0.005724327
112	0xbcb4c3ad	-0.022065962
113	0x3acee93d	0.0015786063
114	0x3d7cc513	0.061711382
115	0x3d63ddc4	0.055631414
116	0xbd550bb5	-0.052013118
117	0xbc4cf4c3	-0.012509528
118	0xbd4615b1	-0.04836053
119	0xbbdcad1a	-0.0067345025
120	0x3d002c7c	0.031292424
121	0xbcc6d6f2	-0.024272416
122	0xbd0aa4fa	-0.03384874
123	0xbd79cf05	-0.060988445
124	0xbc5a61d3	-0.013328987
125	0x3d0e1ebd	0.034697283
126	0x3d504444	0.050846353
127	0xbd104cac	-0.03522937
128	0x3da92f39	0.0826096
129	0xbd3e67b0	-0.046485603
130	0xbd0f4ac0	-0.034983397
131	0xbc733b3e	-0.014845667
132	0x3db07ce6	0.086175725
133	0x3d21d5bc	0.039510474
134	0xbd21b829	-0.03948227
135	0xbd3a38a6	-0.04546418
136	0x3cb2315d	0.021752054
137	0xbcdc6874	-0.026905276
138	0x3b31d3fc	0.002713441
139	0x3c164882	0.009172561
140	0xbdb6462b	-0.08900102
141	0xbdc18c01	-0.09450532
142	0xbd8ee338	-0.06976932
143	0xbc30d809	-0.010793694
144	0x3c60fe0e	0.013732446
145	0xbd8879e6	-0.06663875
146	0x3c742562	0.014901491
147	0xbc604c14	-0.013690013
148	0x3c7d79f4	0.01547097
149	0x3d806a37	0.06270259
150	0xbc9084be	-0.017641421
151	0xbd9c1e14	-0.076229244
152	0x3adc10a9	0.0016789633
153	0x3aac8191	0.0013161172
154	0xbd22b3f0	-0.039722383
155	0xbce4a4a4	-0.027910538
156	0xbd0a8426	-0.033817433
157	0x3b365807	0.0027823464
158	0xbb6b955d	-0.0035947182
159	0xbd3b7782	-0.04576827
160	0xbcb282c4	-0.02179087
161	0xbd5033ec	-0.050830767
162	0xbc46193d	-0.012090978
163	0x3d8fba2a	0.0701793
164	0x3c913043	0.017723208
165	0xbd0a6101	-0.033783916
166	0x3d264d52	0.040601082
167	0x3d7cc9bc	0.061715826
168	0x3bff54f6	0.0077921106
169	0x3c6fe4da	0.014641965
170	0x3b0c46c3	0.0021404482
171	0x3caf4e95	0.021399776
172	0x3d34069e	0.043951623
173	0xbd18f151	-0.037339512
174	0xba16f40a	-0.00057584106
175	0x3c7b187d	0.015325663
176	0xbcf1de14	-0.02952484
177	0x3d68be27	0.05682197
178	0xbd91a669	-0.07111818
179	0xbbc13f95	-0.005897472
180	0x3da7c034	0.08190957
181	0xbb0fca60	-0.0021940693
182	0xbcfc44ff	-0.030794619
183	0xbd180a9e	-0.0371195
184	0x3b1e2fe6	0.0024137436
185	0xbdcc421b	-0.09973546
186	0x3d2a1013	0.041519236
187	0x3c93be05	0.018034944
188	0x3c4047b6	0.011735847
189	0x3d01491d	0.031563867
190	0xbd17277c	-0.03690289
191	0xbd092946	-0.033486627
192	0x3c7534b7	0.0149661815
193	0xbcfcbfe7	-0.030853225
194	0x3cadcc24	0.021215506
195	0xbc9d4db7	-0.019202096
196	0xbd9d0039	-0.07666058
197	0xbda5ddcd	-0.08098946
198	0xbc2e442e	-0.0106363725
199	0xbd1ca355	-0.038241703
200	0xba81e0aa	-0.0009908874
201	0xbccc49dc	-0.024937563
202	0xbd92784d	-0.07151852
203	0x3cdf07a6	0.027225327
204	0xbd3a3561	-0.045461062
205	0xbd161768	-0.036643416
206	0x3d1fbb5f	0.03899705
207	0xbce50063	-0.027954286
208	0xbc33ba12	-0.010969656
209	0xbd1165bd	-0.035497416
210	0x3dabee01	0.08395005
211	0x3c337a68	0.010954477
212	0xbdb8de41	-0.090267666
213	0x3c391f5f	0.011298983
214	0xbc14fd56	-0.009093603
215	0xbbc6b6a9	-0.0060642553
216	0x3d414075	0.04718061
217	0xbc0186ab	-0.0079056425
218	0x3b23442d	0.0024912462
219	0x3a2d7820	0.0006617326
220	0x3b647202	0.0034857993
221	0x3b917eb0	0.004440151
222	0xbd7abbfd	-0.061214436
223	0xbd26fcf8	-0.040768594
224	0xbd4d98eb	-0.050194662
225	0x3c7b5934	0.015341092
226	0x3d167ee1	0.036742095
227	0xbc6287a0	-0.013826281
228	0x3cc515f9	0.024058329
229	0xbc030f82	-0.007999303
230	0xbd92da26	-0.07170515
231	0xbcc8102e	-0.024421778
232	0x3d6a5a74	0.05721517
233	0xbbecd5cb	-0.0072276345
234	0x3c836c1e	0.016042765
235	0xbd2749d3	-0.04084189
236	0xbd813800	-0.06309509
237	0xbd20efc4	-0.03929116
238	0xbcc7c4cb	-0.02438583
239	0x3d7823ff	0.060581204
240	0xbd50a8dc	-0.050942287
241	0x3d0a6d9c	0.033795938
242	0xbd619e3e	-0.055082552
243	0xbd526008	-0.051361114
244	0xbd8dcd46	-0.069239184
245	0x3d66acce	0.056317143
246	0xbc957553	-0.018244421
247	0x3d856522	0.0651343
248	0xbd9164ff	-0.070993416
249	0x3c7a3910	0.015272394
250	0xbacc2189	-0.0015573959
251	0xbd4a0f8a	-0.049331225
252	0xbc86570e	-0.016398933
253	0xbd58da33	-0.052942466
254	0x3c8f588f	0.017498283
255	0x3ce4120d	0.027840639

l3.weight f4 [2, 300]
0	0xbe0b112e	-0.13580772
1	0x3be1b811	0.0068883975
2	0x3cc83f0c	0.024444126
3	0x3d5bc13a	0.053651072
4	0x3df3f0d1	0.119111665
5	0x3d4402f7	0.04785439
6	0x3d5b74fa	0.053578354
7	0x3d3084ac	0.043095276
8	0x3c2b5c5c	0.010459032
9	0xbc0d1ee2	-0.00861332
10	0xbdbd28a9	-0.09236271
11	0x3cf2bf2d	0.029632175
12	0x3e663c3c	0.22483915
13	0x3da1028e	0.078618154
14	0xba0966da	-0.00052414613
15	0xbd6b5c89	-0.057461295
16	0xbdb8d4c0	-0.09024954
17	0x3cb36a71	0.021901341
18	0x3d2b3419	0.04179773
19	0x3d1b8d98	0.03797683
20	0x3df13a66	0.11778717
21	0xbd4e83d1	-0.05041868
22	0xbd24d9e7	-0.04024687
23	0xbc4adaa8	-0.012381233
24	0xbded142a	-0.115761116
25	0x3d2562ea	0.040377535
26	0xbcd24570	-0.025667876
27	0x3d9ca04a	0.0764776
28	0x3cad4ecc	0.021155737
29	0xbc20a5ef	-0.009805187
30	0xbd8a6628	-0.06757766
31	0x3db0f13b	0.08639761
32	0x3acd6dab	0.0015672942
33	0xbd0dac95	-0.034588415
34	0x3c4a0927	0.012331284
35	0xbc168350	-0.009186581
36	0xbd12b621	-0.035818223
37	0x3eb8adca	0.3607009
38	0x3da99dd9	0.0828206
39	0xbd085b7c	-0.03329037
40	0x3dc7e538	0.09760517
41	0x3d6fe2ce	0.058565907
42	0x3d200601	0.039068226
43	0x3c1d3b59	0.009596669
44	0x3d31b9a6	0.04338994
45	0xbcb45328	-0.022012308
46	0x3ec69a8f	0.38789794
47	0xba09963b	-0.00052485213
48	0x3d84d10a	0.064851835
49	0x3d8fe4c5	0.07026056
50	0x3ca4a37a	0.020097483
51	0x3bcb9f07	0.006214026
52	0xbd1683f6	-0.03674694
53	0x3c5bbca0	0.013411671
54	0xbd24cea2	-0.040236123
55	0x3c17ae38	0.009257846
56	0x3d2ef689	0.042715583
57	0xbca385e3	-0.019961303
58	0x3d05e4f5	0.032689054
59	0x3c00c1b7	0.007858685
60	0xbe1a2963	-0.1505485
61	0xbc944810	-0.018100768
62	0x3e2df54d	0.16988106
63	0xbdbee4d1	-0.09320987
64	0xbcb1cca2	-0.021704022
65	0x3c3364a4	0.010949288
66	0x3c398e84	0.011325482
67	0x3c211645	0.00983197
68	0x3c24f85b	0.010068978
69	0x3ca63d23	0.020292824
70	0x3d0ded23	0.03464998
71	0xbd9db9ad	-0.077014305
72	0x3ceb5c0d	0.028730417
73	0x3c99c213	0.0187693
74	0xbd892339	-0.06696171
75	0x3b6ade25	0.0035837975
76	0x3f1d69d8	0.6148963
77	0x3df0bafc	0.117544144
78	0xbddf5ed7	-0.10906761
79	0xbe751cf0	-0.2393682
80	0xbd44120d	-0.047868777
81	0x3bf4a7e2	0.0074663023
82	0xbd807008	-0.06271368
83	0x3c81f835	0.015865425
84	0x3cc90709	0.024539487
85	0xbd3d7664	-0.046255484
86	0x3f4676dc	0.77525115
87	0x3f5c5040	0.8605995
88	0x3e01511b	0.12628596
89	0x3e32a62d	0.17446204
90	0x3e990d1a	0.29892808
91	0xbba4e0ea	-0.0050316947
92	0x3c6cc1e3	0.014450523
93	0x3bf96425	0.007610815
94	0x3c7a4570	0.015275344
95	0x3de0cc75	0.10976497
96	0xbb5bcc3f	-0.0033538488
97	0xbc5d1e79	-0.013496035
98	0x3c84eb55	0.016225496
99	0xbd0eba1e	-0.034845464
100	0xbc7bc333	-0.015366363
101	0x3dfbf62e	0.123028144
102	0xbd48e4d3	-0.04904635
103	0x3e92ab81	0.28646472
104	0x3c98b44a	0.018640656
105	0xbced4356	-0.028962772
106	0xbcf109c5	-0.029423604
107	0x3a9880f0	0.0011635106
108	0xbd221c8f	-0.039578017
109	0x3c453606	0.012036806
110	0xbe7d315f	-0.24725865
111	0xbca30e67	-0.019904329
112	0xbd82c822	-0.063858286
113	0xbd0911f4	-0.033464387
114	0x3de237d8	0.110458076
115	0x3da8e4b3	0.08246746
116	0x3ce838b9	0.02834736
117	0xbce2063f	-0.027590869
118	0x3d01a46f	0.031650957
119	0xbc244dc2	-0.0100283045
120	0x3e67f048	0.22650254
121	0x3cce01b3	0.025147295
122	0xbd90c472	-0.07068719
123	0xbca8ffdb	-0.020629814
124	0xbdeab1ed	-0.11459718
125	0xbe039f21	-0.12853672
126	0xbcfb211a	-0.030655432
127	0x3dd1798a	0.1022826
128	0x3dbb2a6a	0.09138949
129	0xbd4a7367	-0.049426463
130	0x3bb9aa61	0.0056660627
131	0xbd2d0e35	-0.042249877
132	0x3df1cb3c	0.11806342
133	0xbd582290	-0.052767336
134	0x3d9281b0	0.07153642
135	0xbcbc9aaf	-0.023022978
136	0xbe6e0c25	-0.2324682
137	0xbd04fa7a	-0.032465436
138	0x3d180ab2	0.037119575
139	0x3f53e17e	0.8276595
140	0xbd85e1e7	-0.06537228
141	0xbceb256d	-0.02870437
142	0xbd0ec79e	-0.03485834
143	0xbcfc0ce5	-0.030767867
144	0x3cf2eb63	0.029653257
145	0x3b1be79d	0.0023789175
146	0xbd22f56a	-0.039784826
147	0x3f3ae8d0	0.73011494
148	0xbdba2200	-0.09088516
149	0x3dc6f061	0.097138174
150	0xbe3fe815	-0.18740876
151	0x3ba503d3	0.0050358563
152	0xbc4abda9	-0.01237432
153	0x3d0e07eb	0.03467552
154	0x3ccfb926	0.02535684
155	0x3e40208d	0.18762417
156	0xbc49f01e	-0.012325315
157	0xbe528358	-0.20557916
158	0x3d3864c6	0.04501798
159	0x3d1d12b3	0.03834791
160	0xbd41988b	-0.047264617
161	0x3d3d078c	0.046149775
162	0xbc7f5890	-0.01558508
163	0x3dd69e60	0.104794264
164	0x3df12c30	0.11776006
165	0x3d3a32b8	0.045458525
166	0x3bd55ea6	0.006511527
167	0x3e0b1467	0.13582002
168	0x3d010ed3	0.031508278
169	0x3c09e75b	0.008416976
170	0xbdffad82	-0.12484266
171	0x3ca2edaa	0.019888718
172	0x3dd8835a	0.10571928
173	0x3bfbbb34	0.0076822285
174	0xba33de16	-0.00068614015
175	0xbc8e2589	-0.017351883
176	0xbd51fff4	-0.051269487
177	0xbd5fe38d	-0.05466037
178	0x3f0930f2	0.5359031
179	0x3ce89fa0	0.028396428
180	0x3d8b9a26	0.06816511
181	0xbdd5e308	-0.104436934
182	0x3c5e49ba	0.0135673825
183	0x3a6e2b6d	0.00090854504
184	0xbe26c113	-0.1628459
185	0xbd1450d7	-0.036209907
186	0x3bc19760	0.005907938
187	0x3c94e345	0.018174777
188	0xbdc9bf84	-0.09850982
189	0xbc47b226	-0.01218847
190	0x3c2eb205	0.01066256
191	0xbcb4d289	-0.022073047
192	0xbdbfe355	-0.09369532
193	0xbd0dacf8	-0.034588784
194	0x3d637caa	0.05553881
195	0x3c6f4ecc	0.014606189
196	0xbd1edfbf	-0.0387876
197	0xbd0a4a4e	-0.03376227
198	0x388165be	6.17015e-05
199	0x3db7412a	0.08947976
200	0xbad423ee	-0.0016185024
201	0xbd55c644	-0.052191034
202	0x3c172889	0.009225973
203	0x3d9e35de	0.07725118
204	0x3c9d14b8	0.019174919
205	0xbc20c749	-0.009813138
206	0xbaeb10cf	-0.0017934086
207	0xbd2a6915	-0.04160412
208	0xbd10de23	-0.035368096
209	0x3ce666aa	0.028125126
210	0x3deaf175	0.114718355
211	0x3d4af2c5	0.04954793
212	0xbcb04cd3	-0.021521008
213	0x3d5046d6	0.050848804
214	0x3f8e8c05	1.113648
215	0x3edd4b75	0.43221632
216	0x3ddce969	0.10786707
217	0x3c1e4ff2	0.009662615
218	0xbcd2da1e	-0.025738772
219	0xbd14530e	-0.03621202
220	0xbe077fa0	-0.13232279
221	0x3ccef49f	0.025263129
222	0xbdbd7425	-0.092506684
223	0x3cba4c8e	0.022741582
224	0xbb4e5ad6	-0.0031487248
225	0x3abadeb7	0.0014257048
226	0x3ca8c910	0.020603687
227	0xbce84d98	-0.028357312
228	0x3d1afdd9	0.037839744
229	0x3e9e0437	0.3086259
230	0x3ecf41e3	0.40479955
231	0x3d14ccd0	0.036328137
232	0xbdcce90d	-0.100053884
233	0x3d3b5305	0.04573347
234	0xbd06ff22	-0.032958157
235	0xbe15b1c6	-0.14618596
236	0xbcabf768	-0.020991996
237	0x3bc4a1f0	0.0060007498
238	0xbc11585b	-0.008871163
239	0x3e2e857e	0.1704311
240	0xbe1b41f9	-0.15161885
241	0xbd629972	-0.055322118
242	0xbcc87731	-0.024470897
243	0x3d388258	0.04504618
244	0x3d5642ac	0.052309677
245	0xbd287e69	-0.04113618
246	0xbbbf928a	-0.0058463262
247	0x3d9d4a10	0.07680142
248	0x3d08ddb6	0.033414565
249	0x3bff5aa5	0.007792788
250	0x3cbe29aa	0.023213226
251	0x3cbd960b	0.023142835
252	0xbd5f8dae	-0.054578476
253	0xbc15d878	-0.009145848
254	0x3f21e18a	0.6323477
255	0xbe84c2ae	-0.2592978

l3.bias f4 [2]
0	0x3daa002d	0.08300815
1	0x3d3f65bf	0.046727892
