models_backup/actor_100.pth (torch, 532909 bytes, 6 tensors)

l1.weight f4 [400, 28]
000000 1d c0 41 bd b7 1a 00 3e 38 ac 36 be 9e cc b0 bd
       -0.047302354 0.12510191 -0.17839134 -0.08632778
000010 1b be cd bb 96 9c fc 3c 64 a3 fa bd 08 e2 0a bd
       -0.006278766 0.030836385 -0.122381955 -0.033906966
000020 f4 15 93 bc 96 00 0f be 75 62 98 bd 0f fd e4 bc
       -0.017954804 -0.13965067 -0.07440654 -0.027952699
000030 64 a6 14 3e 57 6b a8 bd cd 3d 3d 3e 4a 51 13 be
       0.14516598 -0.082235985 0.18480606 -0.14386478
000040 72 a3 d4 3d 9b 00 e4 bd 9f 49 42 3d cd f1 0f 3e
       0.10382737 -0.11132928 0.04743349 0.14057083
000050 46 81 c6 3d 75 6d c0 bd 2e 6f 5d bd ff 1d 85 bd
       0.09692626 -0.09395877 -0.054061107 -0.06499862
000060 10 9f c4 3d 17 a8 f1 bc 95 7a 41 3e b0 6a 1a bd
       0.09600651 -0.029499097 0.18894418 -0.0376994
000070 fe d4 a0 3c 20 cd 20 3d f1 50 c0 3c db f2 45 bd
       0.019632813 0.039258122 0.023476096 -0.04832731
000080 14 0b 3f 3e 05 38 15 bc 6a a4 38 be 0c 45 c2 bd
       0.1865657 -0.009107594 -0.18031469 -0.09485826
000090 94 ab 2e 3e 55 69 3a 3e 9c 94 b8 3d b5 38 0e be
       0.1705764 0.18204243 0.0901272 -0.1388882
0000a0 01 12 fc 3d b3 12 fa bd 24 ca d7 bd d7 6f b2 3d
       0.123081215 -0.12210598 -0.10536602 0.08712738
0000b0 bd ce 6a bd 54 12 27 be b8 f1 54 bc cb 83 e1 bd
       -0.057326067 -0.16315585 -0.012997083 -0.11011466
0000c0 bc 55 1d bd 0b e9 30 3e 5c 75 0e 3e 2d aa af 3d
       -0.03841184 0.17276399 0.13911957 0.0857738
0000d0 cf a8 b7 3d fb 9a 6e 3d 15 f8 1b 3e 5a 89 30 3d
       0.089677446 0.05825327 0.15231355 0.04309974
0000e0 67 65 47 3d 22 c8 d2 3d 73 74 bb bb 9f 26 0b be
       0.04868069 0.102920786 -0.005720669 -0.13588952
0000f0 4e 0e d6 bd 5f 0e 8c bc 82 e6 87 bd 19 31 07 bd
       -0.10451947 -0.017096696 -0.06635763 -0.033005808
000100 93 36 35 3e 57 0c 37 3e a7 72 bc bd 25 81 40 be
       0.176966 0.17875801 -0.09201556 -0.18799265
000110 2e 66 b7 3c f1 95 9e 3d 71 45 e1 bd 7f d0 de 3d
       0.02238759 0.07743443 -0.10999573 0.10879611
000120 6a 57 44 bd b1 73 a5 bc 35 fe 2b 3e de c6 28 be
       -0.047934927 -0.020196768 0.16796191 -0.16482112
000130 89 54 01 be f6 90 a6 3c 17 de 48 bd 99 97 53 bc
       -0.12629904 0.020332795 -0.049039926 -0.012914562
000140 3d 25 08 bd 81 cc ff 3d 58 2f ec 3d 05 e7 c1 3c
       -0.03323864 0.12490178 0.115324676 0.023669729
000150 4a 5e c2 3d a3 97 f9 bd 36 38 3e bd 66 86 2a be
       0.094906405 -0.121871255 -0.046440326 -0.16652831
000160 63 56 3f be 41 ff 35 3e 88 c1 d4 3c 4e 83 b7 3d
       -0.18685298 0.17773153 0.02597119 0.08960591
000170 0a e4 96 bd 52 94 21 be 57 8b 06 3e ab 58 ad bc
       -0.07367714 -0.15779236 0.13139091 -0.021160444
000180 80 3f d7 3d cb 1b 03 3e 52 83 f6 3d a7 1f bb 3d
       0.105101585 0.12803571 0.12036766 0.091368966
000190 57 65 24 be ca 6a 70 3c fe 22 0a 3e 27 f1 56 3d
       -0.16054283 0.014673898 0.13489911 0.052476075
0001a0 3d ce 41 bd 30 0a 0a 3e 1b fc 06 3e a9 ee 9f bd
       -0.047315825 0.13480449 0.13182108 -0.07809193
0001b0 c8 d1 b0 3c 4c f5 2a be 6e f5 63 bd 30 5b 34 3e
       0.021584406 -0.16695136 -0.055653982 0.1761291
0001c0 5b 22 95 3d e8 32 37 be 88 4b 9f bb 55 6b 04 be
       0.072819434 -0.17890513 -0.004861299 -0.12931569
0001d0 41 97 9b 3d 2e d5 04 bc 04 a9 89 3d c6 f9 3f bc
       0.07597209 -0.008107467 0.0672169 -0.0117172655
0001e0 dc 9f f7 bd 6a 4e c1 bd 15 a3 75 3d a8 46 e6 bd
       -0.12091038 -0.094387844 0.05996998 -0.11243945
0001f0 d7 2b 0d 3e fa fa 1b 3e cd 18 35 be 73 e9 b2 3d
       0.13786255 0.15232459 -0.17685242 0.08735933
000200 b1 26 0c be c4 c3 fe 3d df 95 0c be 10 af 3c 3e
       -0.13686635 0.12439683 -0.13729046 0.18426156
000210 19 01 da 3c 9f 67 2d 3d 81 2b 1e 3e 84 29 1f 3c
       0.026611852 0.04233515 0.15446283 0.009714488
000220 a4 5d 2c be 76 45 aa 3d b5 3b eb bd 7f 8f af bd
       -0.16832596 0.0831403 -0.114859976 -0.085722916
000230 1d 72 32 be 9b 0d b5 bd dd 1b 55 bd a7 2a f6 bd
       -0.17426343 -0.08840486 -0.052028526 -0.12019854
000240 05 6c 36 be a0 66 1c bc c0 b4 ef 3c 94 36 15 be
       -0.17814644 -0.009545952 0.029260993 -0.14571601
000250 2a 2e 23 3e 7a f7 ff 3d 32 39 41 3e 3b 2e 41 be
       0.15935579 0.12498374 0.18869475 -0.18865292
000260 d7 54 15 be e0 be e6 bd 60 c3 6c bd 69 83 27 3e
       -0.14583145 -0.11266875 -0.05780351 0.16358723
000270 b2 96 01 bb c3 e8 8f bb f4 27 3e be f4 16 eb bc
       -0.001977366 -0.004391761 -0.18569928 -0.028697468
000280 7e a1 94 3b 18 39 14 3e c3 f2 22 be 45 6e 3c be
       0.004535853 0.14474905 -0.15912919 -0.1840144
000290 be da 99 bd 05 e7 d1 3d c5 d3 12 be 67 c2 39 be
       -0.07512425 0.102491416 -0.14338596 -0.18140565
0002a0 02 97 a2 3d bb 0e cd ba 49 07 0c be d0 11 db 3d
       0.07938959 -0.0015644649 -0.13674654 0.10696757
0002b0 5d a6 34 be 72 2b 0d 3e d8 c9 c8 bb 4c 5a a4 3c
       -0.17641588 0.13786104 -0.0061275773 0.020062588
0002c0 b1 6a c2 3d e6 28 08 bd 63 77 8b 3d 61 ef 18 bd
       0.09493006 -0.03324213 0.068098806 -0.037337665
0002d0 2b 01 20 bd d8 ae 28 3e 5a ea 4a bd 87 43 fd 3d
       -0.039063614 0.16472948 -0.0495399 0.123663954
0002e0 6a 77 f5 bd 86 55 13 3e 3c 15 05 3e 61 08 22 3e
       -0.11985667 0.14388093 0.12996382 0.15823509
0002f0 9e f8 dc bb 56 05 00 3e 9c 8c 00 bd 20 8a 2c 3e
       -0.0067435047 0.12502035 -0.031384096 0.16849566
000300 42 52 3c 3e 58 a1 c1 bd 2f 46 e3 bd 44 04 4e 3d
       0.18390754 -0.09454602 -0.11097371 0.050297037
000310 bb 41 37 bd 71 87 68 3d 9b 95 14 3e d7 e2 77 bd
       -0.04474042 0.056769792 0.14510195 -0.060519066
000320 b9 cf a3 3b e9 a9 f4 bd ff e7 9f bd d7 38 28 3e
       0.0049991277 -0.1194647 -0.078079216 0.16427933
000330 4d 52 40 3e 7e 66 17 3e 7e 4e 32 3e 30 99 33 be
       0.18781395 0.14785191 0.17412755 -0.17538905
000340 62 9c cc 3d ad f6 94 bd 73 e0 1b 3c 74 da 6f 3d
       0.09990765 -0.07273612 0.009513962 0.058557943
000350 26 9c f7 bd 84 96 22 3e 8a ce 3f be 6f 45 8b bd
       -0.1209033 0.1587773 -0.18731132 -0.06800353
000360 ec f4 fb 3d 05 f7 9b 3d da d0 2b be bc 74 6f bd
       0.123025745 0.076154746 -0.1677889 -0.058460936
000370 6e c4 09 3e 6e 63 c3 bd aa 13 16 3e 48 af c2 bd
       0.13453838 -0.09540449 0.14655939 -0.095060885
000380 84 72 16 3e ce 0a a3 3d 58 48 a9 3d 8c 69 d1 3d
       0.14692122 0.07961045 0.082657516 0.102252096
000390 f7 9e 88 bd 11 12 96 bd ed 9a 03 be 46 cc 19 bc
       -0.06670945 -0.07327665 -0.12852068 -0.0093870815
0003a0 3d 83 01 3e 43 71 f7 bd f1 bb c2 bd 76 ec 90 bd
       0.1264772 -0.1208215 -0.09508503 -0.07076351
0003b0 6a cf 87 3d 5c f6 11 be 11 5f 0e be 48 53 29 3e
       0.06631358 -0.14254135 -0.13903452 0.16535676
0003c0 97 b3 9c 3c da 50 06 3e 84 c4 b5 bd 54 53 a5 bd
       0.019128604 0.1311678 -0.08875373 -0.08072534
0003d0 b9 ec b1 3d df fd a6 3d 28 a6 31 be d9 62 c5 bd
       0.086877294 0.08153891 -0.1734854 -0.09637994
0003e0 05 7c ad 3d ab 66 1f 3e 66 ae 6a bc 11 2f 09 3e
       0.084709205 0.15566508 -0.014323806 0.1339686
0003f0 fb 6c 1c be c1 f7 0e 3e 92 d1 c7 bd 3c ff 65 3d
       -0.15275948 0.13961698 -0.09756769 0.056151614

l1.bias f4 [400]
000000 c2 82 29 3e 8e f6 ef bd 89 b7 a8 3d 02 fc ed bd
       0.16553786 -0.117169484 0.082381316 -0.11620332
000010 7c d7 a9 3d de 81 bd bd b0 01 b0 bd b3 27 10 3e
       0.082930535 -0.09253286 -0.08594072 0.14077644
000020 44 e7 d3 bd 1d d2 46 bd ed ae 9c bd 1a d0 04 be
       -0.10346845 -0.048540223 -0.07650552 -0.1297001
000030 28 45 3d 3b 64 b8 f7 bd 2c f0 a2 3d fd fb 0e be
       0.0028880332 -0.120957166 0.079559654 -0.13963313
000040 52 ac 25 3e 23 fc d7 3d 7a 86 19 be 6f a6 2b be
       0.16179016 0.10546138 -0.14992705 -0.16762708
000050 8d 28 78 bc 0f 6b e8 3d a8 49 d4 bd 87 39 83 3c
       -0.015146387 0.11348545 -0.10365611 0.016018642
000060 08 2e 77 3d b5 65 29 3e 55 31 85 bd fc fa 40 be
       0.060346633 0.16542704 -0.0650355 -0.18845743
000070 de 1c 40 3e 18 8a 89 bd f4 95 97 3d 41 7e e0 3d
       0.18761012 -0.067157924 0.07401648 0.10961581
000080 d6 08 f3 3d 35 52 c8 3d 4b ea ea bd 71 4f 14 3e
       0.1186692 0.09781305 -0.11470469 0.1448343
000090 af 77 b2 3c 7f da 0a be 4c db 39 3e 21 5f de bd
       0.021785585 -0.13559912 0.18150061 -0.10857988
0000a0 bb 9a 12 3e e5 2c 33 3e 5a e7 db 3b ad 69 2b bd
       0.14316837 0.17497595 0.006710929 -0.041848827
0000b0 6a 95 d8 3d 1b d5 35 be 1a dc a1 bc 50 1e 18 be
       0.105753735 -0.17757075 -0.019758273 -0.14855313
0000c0 99 cd 13 bd 06 7a c7 3b f9 96 d1 3d 69 22 ed 3d
       -0.036084745 0.0060875444 0.10233874 0.11578829
0000d0 50 f5 f8 bb 6b 96 cf bd 83 fe e4 3d 73 c4 24 be
       -0.007597603 -0.10136112 0.11181357 -0.16090564
0000e0 24 79 f0 3d c7 c8 81 3d 8d 1f 75 3d 30 98 1d 3d
       0.11741856 0.06337123 0.059844542 0.038475215
0000f0 74 f6 86 3d 27 5f c3 bd b7 f3 14 be d1 6f 14 3e
       0.06589976 -0.09539633 -0.14546095 0.1449578
000100 36 b3 19 be 74 1c b1 bd fe c9 37 3e dc 69 83 3c
       -0.1500977 -0.08648005 0.17948148 0.016041689
000110 e6 44 77 3d 00 b9 9c 3d 95 3a 96 bd ad ef a7 bd
       0.06036844 0.076524734 -0.073353924 -0.082000114
000120 90 29 8d bc 02 84 38 3e bb 79 1d be 00 00 06 3e
       -0.017231733 0.18019107 -0.15378468 0.13085938
000130 8f 87 23 3d a4 8c 1e 3e 97 98 42 bd ef 3f 4a 3d
       0.0399242 0.15483338 -0.047508802 0.049377378
000140 fb 2a 3d 3e 04 92 1d 3e cc 7e 6d 3d 36 04 32 3e
       0.18473427 0.15387732 0.05798225 0.17384419
000150 f8 26 1b 3e de 3d a2 3d 8d 79 ba 3d ef 9e a7 bd
       0.15151584 0.079219565 0.09105215 -0.08184611
000160 9a 3f 19 bd cf 87 d0 3d f0 ff 0c be 88 35 23 3e
       -0.03741417 0.101821534 -0.13769507 0.1593839
000170 14 7f e1 bb 27 15 0c be 54 59 3f be 4f 5a ae 3d
       -0.006881604 -0.13679944 -0.1868642 0.08513319
000180 f4 67 49 3d 29 13 0d be 1a b2 1a bd da 6d 26 3e
       0.049171403 -0.1377684 -0.037767507 0.16252843
000190 7e f3 63 bd 13 f2 37 bd 75 ce 83 3d a0 48 1c be
       -0.055652134 -0.044908594 0.06435863 -0.15262079
0001a0 9c b7 05 3e 7a 1f dd bd af ca ca 3d 6e 25 40 bc
       0.13058323 -0.10797019 0.0990194 -0.011727674
0001b0 91 bc 92 3d 6f f4 21 be 70 2a bb 3d ef da a6 bd
       0.071648724 -0.158159 0.09138954 -0.08147227
0001c0 63 1c 11 3e 57 37 28 be 1b 69 a0 3d 77 bd 0e 3e
       0.14170985 -0.1642736 0.07832547 0.13939463
0001d0 0c 30 c7 bd c5 dd 20 be d0 cb 14 be ff a2 c5 3d
       -0.09725961 -0.15709598 -0.14530873 0.0965023
0001e0 d5 5e a9 3d 39 7f 11 3e 43 3c e4 3d 1c 66 3e bc
       0.08270041 0.14208688 0.111443065 -0.011621024
0001f0 97 4a dd 3d 14 06 85 bd 18 d1 34 be 43 1c 35 bd
       0.108052425 -0.064953 -0.17657888 -0.044216406
000200 0e a3 20 3e ed de 0d be 09 c6 40 be e4 55 9a bd
       0.156872 -0.1385457 -0.18825544 -0.075359136
000210 ef 9e b6 3d 72 59 af 3d 23 28 f4 bd bf 12 44 bd
       0.08917033 0.08561982 -0.11921718 -0.04786944
000220 4f 0c 1a 3e 8f 4e f5 bd 97 21 cf 3d 57 f4 08 3d
       0.15043758 -0.119778745 0.10113829 0.033436146
000230 3d 01 3e 3d 56 91 18 3b 7e 7d 00 bc f5 75 0e 3e
       0.0463879 0.0023279986 -0.00784242 0.13912185
000240 04 28 a8 3d 50 43 be bd 1d 8c 85 3d aa 9f a7 bd
       0.082107574 -0.092901826 0.06520865 -0.081847504
000250 f4 7c 40 3e 48 4a d0 3c ed 6a 15 be 43 06 e0 bd
       0.18797666 0.025426045 -0.1459157 -0.10938694
000260 6f 49 ee 3c bf e2 ee 3c 72 e2 ac bd 39 31 2a 3e
       0.02908775 0.029160855 -0.084416285 0.1662034
000270 2e 4f a0 3d 3f 2d 9f bd 5c 0a 76 bd 83 21 7b bd
       0.07827602 -0.07772302 -0.060068473 -0.061311256
000280 04 f3 8d 3a 5c 76 15 bd 04 03 06 3e e2 9a 3b bd
       0.0010829871 -0.03648983 0.13087088 -0.045802005
000290 16 dd ba bd 5f 43 d4 3d 4a 6b 84 bd 68 07 0a be
       -0.091242 0.103644125 -0.06465776 -0.13479388
0002a0 39 00 16 3d 96 33 80 3d 09 5f ec bd e6 5d 39 be
       0.036621306 0.06259839 -0.11541564 -0.18102226
0002b0 56 4e e2 3d 53 30 75 bd de ad ef 3d d1 53 1a be
       0.11050098 -0.05986054 0.117030844 -0.15071036
0002c0 ba c3 e2 bd c4 98 1d 3e fe 95 ae bd f9 c2 cf bb
       -0.11072488 0.15390307 -0.085247025 -0.006340381
0002d0 b8 12 86 3c 90 1d cf 3d ca 3b dc 3d d1 3b f0 bd
       0.016366348 0.101130605 0.10753591 -0.11730159
0002e0 e3 54 ab bb ec 2c e3 3d 89 ba 28 3d 46 84 95 3d
       -0.005228625 0.110925525 0.04119352 0.0730062
0002f0 6e 52 91 bc ac 8c b8 bd 66 b5 24 3e 3e b6 21 be
       -0.0177395 -0.09011206 0.16084823 -0.15792176
000300 c0 4b 19 3e 1e aa 34 3d fa ea f9 bd d3 7a 37 3e
       0.14970303 0.04410755 -0.12203021 0.17917947
000310 4e cf fe bd c8 ae a4 bd c5 30 30 3a 4f a9 33 be
       -0.12441884 -0.080411494 0.00067211344 -0.17545055
000320 45 4c 15 be 3c bc 02 3e ca 4b 84 3d 82 8f 30 be
       -0.14579876 0.12767118 0.06459768 -0.17242244
000330 f0 04 c0 bd 3a fc 07 bd e3 5d b2 bb f1 28 09 be
       -0.09375942 -0.033199526 -0.005443321 -0.13394524
000340 50 af 8d bd d2 60 0d be 2c 9a 0a 3d 06 c5 10 bc
       -0.06918204 -0.13806465 0.033838436 -0.008836037
000350 a4 61 19 3e 5b 2c f1 bc 9d 52 40 be 88 45 2c bd
       0.14978653 -0.029440096 -0.18781514 -0.042058498
000360 ba 1d a8 3d ed a2 38 3e 1b f4 e1 3d 8c 16 aa bc
       0.08208795 0.18030901 0.110328875 -0.020762704
000370 f0 e2 2b 3e 74 22 40 bd 7a 1f c1 3d 5d 26 d9 3d
       0.16785789 -0.046907857 0.09429832 0.1060302
000380 66 74 bc bd 70 aa d2 bd 9b dd 09 be f5 e8 42 bd
       -0.09201889 -0.102864146 -0.13463442 -0.047585446
000390 7d 5d 45 3d 36 c3 1e be 46 c8 28 be c5 1b 69 bc
       0.04818486 -0.15504155 -0.16482648 -0.014227812
0003a0 bf 3b 35 3e f2 e9 0d 3a 38 32 92 3d 12 e7 12 be
       0.17698573 0.0005413584 0.07138485 -0.14345959
0003b0 1a ee 04 bd cf 28 dd ba 97 b4 34 be 2c 16 6a bc
       -0.032453634 -0.0016873124 -0.17647015 -0.014287513
0003c0 de c3 d7 bd dd b3 ae 3d 6a 22 16 3e 98 f8 c5 bc
       -0.105354056 0.085304 0.14661565 -0.02416639
0003d0 3d 95 16 be c7 14 79 bc 17 d6 15 be d5 9a b0 3d
       -0.14705367 -0.015202708 -0.1463245 0.08623282
0003e0 9a f9 1f be 4c 54 37 3e a8 23 92 3d 17 38 a0 3d
       -0.15622559 0.1790325 0.07135707 0.07823198
0003f0 bf 3f e8 3d 8b 60 11 be f7 b3 8b bd a2 9e 3e be
       0.113402836 -0.14196984 -0.06821435 -0.18615201

l2.weight f4 [300, 400]
000000 7a fb be 3c e7 ed 01 3d 2d 25 db bc 0d c4 ea 3c
       0.023313273 0.031721022 -0.026751125 0.028657937
000010 ed 12 91 3c fd 74 9b bc 27 0a 99 bb 2a fd 8f 3c
       0.01770922 -0.018976683 -0.0046703997 0.017576773
000020 2f aa 11 3d 47 d5 d0 3c ed 4a 5c bc 8a 56 ea bc
       0.03556269 0.025492324 -0.013445598 -0.028605718
000030 80 bd f9 bb 8f e2 0f 3d 9a 40 1c 3d 5a 72 e0 3b
       -0.007621467 0.035128172 0.038147546 0.0068495693
000040 75 00 48 bd 7f 6d 0b bd 10 79 dc bc b2 de 1d 3d
       -0.04882856 -0.03403997 -0.026913196 0.038542457
000050 7d 56 a1 3c 33 d3 c8 b8 5a 91 c4 bc ef 85 46 bd
       0.019694561 -9.576082e-05 -0.02399509 -0.048467573
000060 13 4f 10 bc bd 54 dd bc 83 2d d6 bc 08 29 30 bd
       -0.008807915 -0.027017945 -0.026144749 -0.04300788
000070 65 f3 38 3d 22 32 15 bd 37 12 f1 bc 75 69 3e bd
       0.045153994 -0.036424764 -0.02942763 -0.04648729
000080 13 88 58 bc b3 b7 4a 3b 9a 20 22 bb ef 46 13 bd
       -0.013216036 0.0030932247 -0.002473867 -0.03595632
000090 aa f8 01 bd d0 a4 c8 bc 87 fe 3b 3c 77 3a c0 3c
       -0.031731285 -0.024492651 0.011474258 0.023465378
0000a0 80 c9 47 bb 6d 6a b8 3c e8 22 4a 3d 4d 88 64 bc
       -0.0030485094 0.022511685 0.049349695 -0.013948512
0000b0 ed ce 04 3d 50 55 2b bd e0 fd ec 3c 53 df e9 bc
       0.032423902 -0.041829407 0.02892965 -0.028548872
0000c0 90 be e7 3c 43 fd a7 3c 33 1c ef bc 60 b8 c4 3c
       0.02828911 0.020506507 -0.029188251 0.024013698
0000d0 40 af 16 3c e7 fd 16 3b c0 56 dc 3c 53 e0 a2 3c
       0.009197056 0.0023039521 0.026896834 0.019882357
0000e0 93 74 06 bc 7a 85 13 3d 20 59 83 bc d5 2a 37 3d
       -0.008206504 0.036015965 -0.016033709 0.044718582
0000f0 47 35 0f bc f8 06 06 3d 8d 62 a2 bc 33 40 1f 3b
       -0.00874073 0.03272149 -0.019822383 0.002429974
000100 50 12 b5 3c e3 cb bb 3c 4d 7c b0 3b 9a 67 29 3c
       0.022103459 0.02292437 0.0053859116 0.010339642
000110 07 95 44 bd 60 f4 9a bc f7 6b c7 bc 13 de b6 bc
       -0.047993686 -0.018915355 -0.024343474 -0.02232269
000120 f2 09 3b bd 62 0e 17 3d a2 55 45 3d c3 22 2e 3d
       -0.04566378 0.03687895 0.04817737 0.04251362
000130 20 c4 1a bd e8 e5 27 3d cf 52 42 bd c3 51 26 bd
       -0.037784696 0.04099074 -0.047442254 -0.040605318
000140 9a 26 19 bd 27 a3 d7 3c b0 5f 16 bd 00 dc b3 b9
       -0.03739033 0.026322914 -0.03671235 -0.00034305453
000150 97 16 f5 bc 42 3a 1a bd cd 46 a9 bb 15 72 34 3d
       -0.029917998 -0.037653215 -0.005165911 0.04405411
000160 5a ff 1d 3d d2 33 3c bd 17 bf f9 3c 0f ff 18 bd
       0.0385736 -0.045947857 0.030486627 -0.037352618
000170 47 7a 1a bc f0 f7 40 bd fa 97 93 bc 00 4d f7 3b
       -0.009428567 -0.04711145 -0.018016804 0.007547021
000180 e2 7d 44 bd 8d b0 12 3d 00 7a 3a bc d5 66 23 bd
       -0.047971614 0.035812903 -0.011381626 -0.03989299
000190 4d e9 34 3c 40 af 3c 3c b7 b1 0b 3d 40 1e a0 bc
       0.011041951 0.011516392 0.03410503 -0.019545674
0001a0 28 03 41 3d b3 f5 d7 bc 40 13 43 3d 2d 3c 87 bc
       0.04712215 -0.026362276 0.04762578 -0.016508186
0001b0 d0 a8 e4 3c 70 a8 1e 3d 63 fb b9 3c 0d 50 7d 3c
       0.027912527 0.038734853 0.022702878 0.01546098
0001c0 00 55 57 3b 45 cf 03 3d da aa 11 3c 00 6e fa ba
       0.003285706 0.03218009 0.008890832 -0.0019106269
0001d0 c3 bf 34 3d 63 58 db 3c 27 18 f7 3b f8 12 19 bd
       0.04412819 0.026775545 0.007540721 -0.037371606
0001e0 33 51 e1 3c 3b 98 35 bd 73 6e 3a bd e8 be 00 bd
       0.02750454 -0.04433463 -0.04551549 -0.031432062
0001f0 e2 6d 33 3d 20 9d d7 bc 2b c5 40 bd 87 9c 12 bd
       0.043805964 -0.02632004 -0.047063034 -0.035793807
000200 0d da 92 bc 5a 07 c2 bb b7 f1 85 bc f3 a2 2b 3c
       -0.01792624 -0.0059212865 -0.01635061 0.010475862
000210 c7 6d 38 bc cd 7a 3c ba 8b f8 06 bd 6d fa f8 bc
       -0.011256642 -0.00071899296 -0.032951873 -0.03039285
000220 1a b6 c9 bb cd ed 94 3b 0d 4d 09 3d ea 50 08 bd
       -0.0061557414 0.0045449496 0.033520747 -0.03328029
000230 17 ff 9f bc 00 ad aa 3c 00 02 74 ba 97 3b 25 bd
       -0.019530816 0.020834446 -0.00093081594 -0.040340032
000240 87 2a 44 bd bb a5 2e bd c0 43 d1 3b 2d e2 47 3d
       -0.04789212 -0.04263852 0.0063862503 0.048799682
000250 ba ae 9b bc b8 08 05 3d 0a 5b db 3c 22 88 21 3d
       -0.019004215 0.032479018 0.02677681 0.039436467
000260 e5 78 3a 3d 1b 11 3e 3d 28 02 39 3d c5 0e 20 3d
       0.04552545 0.04640303 0.045168072 0.039076585
000270 da 50 20 bc a5 22 49 bd ad 6b 7f 3c 43 3b 23 bd
       -0.0097849015 -0.049105305 0.015589637 -0.03985144
000280 4b 69 14 3d c3 40 f5 bc c2 ed 20 3d 9a 9b c8 bc
       0.036233228 -0.029938107 0.039289244 -0.02448826
000290 a7 18 c2 3c aa f2 b5 3c 6b 86 08 bd 80 fa 83 bb
       0.023693396 0.022210438 -0.033331316 -0.0040276647
0002a0 1d 5a 45 bd c8 f3 0a 3d 23 0a a8 bc cb 15 1a 3d
       -0.04818164 0.033923894 -0.020512646 0.03761844
0002b0 20 43 33 bc e0 68 68 3c ad be 2d bc e7 88 24 bd
       -0.010941297 0.01418516 -0.010604543 -0.040169623
0002c0 05 40 10 3d e7 17 da bb d5 f1 34 3d 6f db 29 3d
       0.035217304 -0.0066556814 0.04417594 0.041469034
0002d0 d8 b4 20 3d 1f f1 2a 3d 03 2b 14 3d 5a 4e 9e 3b
       0.039234966 0.041733857 0.03617383 0.0048311176
0002e0 d2 84 0c bd e3 ff d2 3c 67 eb ba 3b ba 62 a3 3c
       -0.034306355 0.025756782 0.0057043317 0.019944537
0002f0 53 63 c6 bc 9a 54 60 bc ba 64 44 3d b3 33 3a bc
       -0.024217283 -0.013692046 0.047947623 -0.011364865
000300 da 30 32 bd 85 67 27 bd e2 6e 10 3d 1a 87 20 bc
       -0.04350362 -0.04087021 0.035261996 -0.009797836
000310 3d 88 43 bd 00 1f 6f 3c 8d 7f 9f bb b0 26 84 bc
       -0.04773735 0.014594793 -0.0048675 -0.016131729
000320 57 70 13 bd b7 ad ef bc b3 9f 8d bc 2a 7e 45 bd
       -0.035995807 -0.029257638 -0.017288065 -0.048216023
000330 e3 fb fe bc 4d 7f 98 3b af cf 45 bd 1a ed 43 3d
       -0.031125968 0.0046538473 -0.048293766 0.04783354
000340 47 dd f8 bc 4d 3a ec 3b 8b e0 29 3d b5 1d 0d 3d
       -0.03037895 0.0072090984 0.041473906 0.03445216
000350 32 b0 1b 3d ca f8 b3 bc 67 f4 f7 3a 5b f2 28 bd
       0.03800983 -0.021969218 0.0018917442 -0.041246753
000360 d7 53 9c 3c 80 39 49 bb ad 11 76 3c 67 14 c7 3c
       0.019082947 -0.0030704439 0.015018863 0.02430172
000370 53 b6 6f bc 57 5b d6 3c 7f 6d 4b bd eb 8a 22 3d
       -0.014630872 0.026166601 -0.04966497 0.039683264
000380 3a a5 87 bc 88 b2 13 3d 43 ef f2 3c 00 7d c3 3a
       -0.016558278 0.036058933 0.029655105 0.0014914572
000390 90 3c c9 bc ca 9b 84 bc 97 a1 f1 3c 5d 4b d9 bc
       -0.024565011 -0.016187567 0.029495997 -0.026525194
0003a0 9a 7a 2a 3b 63 30 cf 3c 4a 9f f1 3c 87 3c d8 3c
       0.0026013018 0.025291627 0.0294949 0.02639605
0003b0 80 e9 e0 3b 1d 56 8c 3c da 1c c3 3c 07 7e 16 3d
       0.006863773 0.017130906 0.023817468 0.036741283
0003c0 67 da 8b 3c ad 74 2c 3d f3 44 3c bc f7 af ed bc
       0.017071916 0.04210346 -0.011491048 -0.02901457
0003d0 3d 05 10 3d b3 d1 38 3d 8f 5d 0d 3d 38 10 31 3d
       0.035161246 0.04512186 0.034513053 0.043228358
0003e0 9a 53 f3 3a 60 d3 20 3c b0 c0 95 bc 87 c9 f0 bc
       0.0018564344 0.009816021 -0.018280357 -0.02939297
0003f0 c3 63 0e 3d e0 7c 36 3d 53 f1 a1 3c b3 da 8d 3b
       0.03476311 0.044552684 0.019768393 0.0043290495

l2.bias f4 [300]
000000 60 92 47 3c 0b 1e 11 3d 2d 78 14 3d 27 f0 d0 3c
       0.012180895 0.03542904 0.03624742 0.025505139
000010 30 87 35 3d f5 02 15 3d 5a 0f 40 bc 93 5d 7c bc
       0.044318378 0.036379773 -0.01172241 -0.015403169
000020 9b 70 4c bd e7 4b 3a bd c7 64 07 bc 6d 05 05 bd
       -0.049912076 -0.045482542 -0.008263773 -0.032475878
000030 67 c0 48 ba f5 a5 4b 3d a7 0d 5c 3c 95 9c 42 3d
       -0.0007658065 0.049718816 0.013430989 0.04751261
000040 cd 68 f6 3c a5 d7 04 3d a7 28 da bb 33 0f 29 bd
       0.03007927 0.032432217 -0.006657678 -0.04127426
000050 77 52 b4 bc ed f9 0f 3d 87 0b 4f bc cd d1 a5 bc
       -0.022011979 0.035150457 -0.012637026 -0.020241642
000060 6d 43 c2 bc da a5 97 3c 02 51 1b bd 93 03 02 bd
       -0.023713792 0.018511701 -0.037919052 -0.03174169
000070 50 c0 25 bd c3 d4 16 3d 67 a6 67 38 dd a8 88 3c
       -0.040466607 0.036824 5.5229666e-05 0.016682083
000080 6a b2 ce 3c 4b 49 19 bd 3d a8 05 bd b3 51 90 bb
       0.025231559 -0.037423413 -0.032631148 -0.0044042706
000090 5a 47 a7 3c 30 90 e9 3c 3b 70 11 3d cf 92 1f 3d
       0.020419765 0.028511137 0.035507422 0.038958367
0000a0 b5 e1 43 bd 9a 13 c4 3b 43 f7 e3 3c 00 75 c5 ba
       -0.047822673 0.005983782 0.027827865 -0.0015064776
0000b0 c0 6f 79 3c 1d 3c 3f bd 4f 78 4a 3d 73 72 ea 3b
       0.015224397 -0.046688188 0.04943114 0.0071547567
0000c0 05 bf 03 bd a3 b6 28 3d f3 99 27 3c 0a b9 37 3d
       -0.032164592 0.0411898 0.010229575 0.0448542
0000d0 7f f3 28 bd 98 6c 37 3d f3 07 43 3c 8a 55 f5 bc
       -0.04124784 0.044781297 0.011903751 -0.029948015
0000e0 13 ff 13 3d d0 1d 9a bc c8 e4 04 3d 8f d7 44 3d
       0.03613193 -0.018813044 0.032444745 0.048057135
0000f0 0a 2e 98 3c 30 e5 de bc ad 89 16 bc 0d 7a 62 bc
       0.01857664 -0.027208894 -0.009188098 -0.0138230445
000100 20 2d f3 bc 3f 76 30 3d 9a 9d cf 3b dd 0f de bc
       -0.029684603 0.04308152 0.0063359262 -0.027107174
000110 b7 30 1d 3d e2 bb 20 3d cf 0b 4b 3d a7 82 92 3b
       0.038376536 0.03924168 0.04957181 0.0044711414
000120 ab 93 1e 3d 02 1c 23 3d 5b 4b 11 bd ea ac c2 bc
       0.038715046 0.039821632 -0.035472255 -0.023764092
000130 13 8f 46 bd 3b ed 35 bd 3d 6d 33 3d 9a 61 32 bc
       -0.04847629 -0.044415694 0.04380535 -0.010887528
000140 b0 b2 c0 3c 33 63 23 ba 9a 39 19 3d e3 c1 05 3d
       0.023522705 -0.00062327384 0.03740845 0.032655608
000150 cd 67 ed 3c 80 d7 86 3b 9a 85 20 3d 2d bf ab 3c
       0.02898016 0.004115045 0.039189912 0.020965183
000160 7a 9f 3a 3d 4d d4 48 3d a3 c9 0c bd 37 aa 1a 3d
       0.045562245 0.04903059 -0.034371983 0.037759986
000170 10 95 bf 3c 2d 31 07 3c 80 78 16 3b b0 33 02 3d
       0.023386508 0.0082514705 0.0022960007 0.031787574
000180 13 36 38 3c ef d4 1b 3d e3 6f 9d 3c 30 9b 9e bc
       0.011243361 0.038044866 0.01921839 -0.019361109
000190 33 73 cb 39 53 d9 38 3c a7 ca 35 3c e7 96 77 3b
       0.00038805007 0.011282283 0.011095679 0.0037779154
0001a0 07 55 ef 3c 93 57 88 bc 4d db b3 bb bb 0c 22 bd
       0.029215349 -0.016643321 -0.005488789 -0.039562922
0001b0 2d 48 55 bc bd 4c d8 3c 6d ac e3 3c c8 e7 09 bd
       -0.013017696 0.02640378 0.02779218 -0.03366831
0001c0 00 9a 42 3b 9a 4c 22 3c 0d 93 ce 3c 10 d2 08 3d
       0.0029693842 0.009905959 0.025216604 0.033403456
0001d0 e8 4d 48 bd 65 c5 3b 3d ca 6d 49 3d da c9 8e bb
       -0.048902422 0.045842547 0.04917697 -0.0043575587
0001e0 4a dc 85 bc 37 98 17 3d 3a 57 06 bd 33 f2 d6 3c
       -0.016340394 0.037010398 -0.03279803 0.026238536
0001f0 bd 3b ca bc c7 5a ec bc 40 e2 62 3c 25 06 21 bd
       -0.024686689 -0.02885188 0.0138478875 -0.0393125
000200 6d fd bb 3c 6d 57 7e 3c a2 ca 23 bd 9a 2a ed bc
       0.022947991 0.015523774 -0.039988168 -0.028950978
000210 4a d1 e5 bc ad f3 24 bc ed 93 e5 3c 70 82 28 bd
       -0.028053898 -0.010067862 0.028024638 -0.04114002
000220 60 40 13 bc 5d 02 ae bc cd 8f e9 3a e2 db 23 3d
       -0.008987516 -0.021241361 0.0017819345 0.04000462
000230 8a a3 d9 bc 0a d6 ba bc b3 76 c3 3b b2 3e 2d 3d
       -0.02656724 -0.02280714 0.005965078 0.04229612
000240 a7 56 45 3c a2 04 0e 3d 7a 95 fb bc 13 0b 93 3c
       0.012044585 0.034672387 -0.030710924 0.017949617
000250 80 cb a8 bc 80 2b ec 3b b8 d1 09 bd 47 72 b8 bc
       -0.020604849 0.007207334 -0.03364727 -0.02251543
000260 1a f2 83 bc 20 ff 19 3d e2 db 28 3d d3 94 30 bd
       -0.016106654 0.03759682 0.04122532 -0.04311068
000270 a0 b4 4b 3c 92 c1 27 3d 10 40 d5 3c aa 27 48 bd
       0.012433201 0.040956087 0.026031524 -0.04886595
000280 f3 08 98 3c 80 fb 4a 3c b3 fc 78 3c a0 5e 48 3c
       0.018558955 0.012389064 0.015196967 0.012229592
000290 bd 73 41 3d bf 54 27 3d 05 8c 3e 3d 00 f9 0f 3c
       0.047229517 0.040852305 0.04652025 0.008787394
0002a0 67 7f 1e 3b 6a 0c 83 3c 4a 40 a8 3c 1a 7d f7 3b
       0.0024184824 0.01599713 0.020538468 0.007552755
0002b0 c7 e0 13 bd 6a 60 96 3c 27 33 43 bc 73 50 b1 bc
       -0.036103036 0.01835652 -0.011914051 -0.021644806
0002c0 ea 82 91 3c e7 69 a7 bc 77 19 a7 3c 07 5d 37 bc
       0.01776262 -0.02043624 0.020397885 -0.011191613
0002d0 c0 5c e8 3c 47 19 49 bc 1d d6 d7 bc 67 7f 2c 3c
       0.02836454 -0.012274093 -0.026347214 0.010528422
0002e0 b7 63 b1 3c cd 6c 23 bc a0 f9 42 3c 7a 71 1a 3c
       0.021653993 -0.009974671 0.011900336 0.009426469
0002f0 c7 46 b2 3c 40 e2 b4 3b 00 07 b0 ba 00 f9 12 bd
       0.021762265 0.005520135 -0.001342982 -0.035881996
000300 c7 c2 19 3c 5d a9 31 3d fa 5b 03 3d 07 c5 18 bc
       0.009384817 0.043374408 0.032070138 -0.009324319
000310 4d 64 8b 3b fd ac 37 3d b3 0a 83 bb 3f aa 34 bd
       0.0042539 0.04484271 -0.003999078 -0.04410767
000320 c0 d4 1f bd e3 46 d0 3c 37 67 a9 bc e7 04 8c bc
       -0.039021254 0.025424426 -0.0206791 -0.017092181
000330 40 59 9b bb 8a 68 04 bd 43 18 e9 3c b8 71 06 3d
       -0.004740864 -0.03232626 0.028453952 0.032823294
000340 8b 47 37 bd 0d 5a 48 bd e7 5c 29 3d 0a 28 dc bc
       -0.044745963 -0.048914004 0.041348364 -0.02687456
000350 a7 4f 8f bc 43 8e 17 3d 87 18 9d bc cb 60 2e bd
       -0.017494036 0.037000906 -0.019176735 -0.042572778
000360 e7 e6 90 bc d0 bb cc bc 6a b0 2b 3d e0 fb 08 bc
       -0.017688228 -0.0249919 0.04191629 -0.008360833
000370 12 81 4c 3d 65 a1 13 3d b3 71 7d bc b0 1a 36 3d
       0.04992778 0.03604259 -0.015469003 0.044459045
000380 ca ac e9 3c 40 a5 a2 3c 00 d5 74 bb cd ce 5a ba
       0.028524775 0.019854188 -0.0037358403 -0.0008346856
000390 07 a5 87 3c 7a 19 69 bc 9a ca 84 3b 9a 97 55 3a
       0.016558183 -0.0142272655 0.0040524723 0.00081478956
0003a0 75 ec 4b 3d c3 b3 1d bd a0 82 58 bc c0 63 f0 bc
       0.04978605 -0.038501512 -0.013214737 -0.02934444
0003b0 33 c6 05 bc 10 b6 8d bc fa 2f eb 3c d3 a5 6e bc
       -0.00816493 -0.017298728 0.0287094 -0.014565903
0003c0 33 eb d2 39 23 31 9c 3c b3 5e 3c 3c 20 5b b5 bc
       0.00040229558 0.019066399 0.011497187 -0.022138178
0003d0 3a 97 0f bc 00 a8 be 3c 97 35 be 3c 00 cd 23 bc
       -0.008764083 0.023273468 0.023218913 -0.009997606
0003e0 9a 18 18 3d 67 dc 95 ba e2 72 12 3d 87 c5 f7 bc
       0.037132837 -0.0011433483 0.035754092 -0.030245556
0003f0 10 73 27 bd a3 21 1c bd e7 a5 c5 bc 40 e4 93 3c
       -0.040881217 -0.038118016 -0.02412696 0.018053174

l3.weight f4 [2, 300]
000000 a5 f7 b2 bc a9 a5 69 bc 7b f0 2f 3d ec aa b9 bc
       -0.021846602 -0.014260688 0.04295395 -0.02266451
000010 84 a9 6e 3b 25 9e c4 bb 87 ba 82 3c 2c 0a ec 3a
       0.0036416957 -0.0060002976 0.015958084 0.0018008403
000020 45 91 1d bd 3a ae e7 3c 39 3d ec 3c 14 2b 1d 3c
       -0.038468618 0.02828132 0.028837787 0.00959279
000030 dd 98 5b bd 9b 19 01 3c de c0 64 3c 1e 89 1e 3d
       -0.05361258 0.00787964 0.013961999 0.038704984
000040 5a 1e 1c bd b7 c9 3a bd 36 6a 0b 3d b1 c6 7b bb
       -0.038114883 -0.045602527 0.034036838 -0.003841799
000050 f4 81 32 3d 78 08 64 3d 47 23 9a bc 15 bc 05 3d
       0.043580964 0.05567214 -0.01881565 0.032650072
000060 22 f2 4a bb 74 93 e6 3c 08 c3 06 3d 6b 92 21 3d
       -0.0030967076 0.028146483 0.03290084 0.039446276
000070 4d 45 53 3d cc 46 96 3c 07 6a 88 3c c7 b6 b2 3c
       0.051579762 0.018344305 0.01665212 0.02181567
000080 4d e3 ff bc 5a e1 2f bb ea 4a 21 bd 8b be e4 3c
       -0.031236315 -0.00268372 -0.039378084 0.02792289
000090 eb 4d 78 bc e4 b1 9c 3c 33 64 d2 3c 77 d4 90 3c
       -0.015155296 0.019127794 0.025682544 0.017679436
0000a0 c7 08 4f 3d 48 c6 0f bd b6 84 36 bd 99 a6 94 bb
       0.05054548 -0.035101205 -0.044560157 -0.0045364616
0000b0 46 0b fe 3a 41 d9 b5 bb dd 6f 4a bd be c5 38 bd
       0.0019382022 -0.0055495803 -0.049423087 -0.045110457
0000c0 dd 13 0b bd 08 88 b6 3c 48 88 5f 3d 35 71 5a 3d
       -0.03395449 0.022281662 0.054573327 0.05333062
0000d0 df 60 05 bd d1 f2 43 bd bb 33 3d bc c1 6e c1 3b
       -0.032563087 -0.04783899 -0.011547978 0.0059030955
0000e0 5f 31 33 3d 46 ec 4d bd 62 19 30 3c 32 1d 12 3d
       0.043748256 -0.050274156 0.010748239 0.035672374
0000f0 8d 26 16 3d b9 37 22 bd b9 e2 4d 3d aa 14 a1 bb
       0.03665786 -0.039603923 0.050265048 -0.0049157934
000100 d5 8c c2 bc 11 83 b1 3b 76 77 ca 3c f9 84 83 bc
       -0.023748795 0.0054172357 0.024715167 -0.016054617
000110 5b 55 c9 bc db 0d c3 bc c2 27 3b bd f3 52 39 bd
       -0.024576833 -0.023810318 -0.045692213 -0.045245122
000120 ad 30 da 3c 3d c6 ee bc dd ff 1e bd 20 87 83 bb
       0.026634539 -0.029147262 -0.03881823 -0.004013911
000130 d2 8e 11 3c ff d4 ce bc 40 6b 39 bd 42 da 69 3d
       0.008884149 -0.025248049 -0.045268297 0.057092912
000140 2f 11 ca 3c 8b fd 33 bc 35 b1 2f bd 7d 07 30 bc
       0.024666397 -0.010985742 -0.042893607 -0.010743973
000150 3e 26 ac 3c 08 67 6c 3d d7 ac 14 3d 69 20 36 3d
       0.021014329 0.057715446 0.036297645 0.044464502
000160 71 ad 3b bd 48 8c f0 3c a3 2e 67 bd 56 7d 68 bc
       -0.045819703 0.029363766 -0.05644096 -0.014190039
000170 18 59 06 3d 44 e3 f2 3c b6 86 ae 3b 3f 99 ae bb
       0.03279981 0.029649384 0.0053261174 -0.005328327
000180 30 0e fa 3c 0b b6 05 bd 4c c9 14 bc 53 17 f0 ba
       0.030524343 -0.032644313 -0.009081196 -0.0018317498
000190 fc 0b 78 3b af a1 ec bc 1e 4a 18 bd 13 8e 35 bd
       0.003784894 -0.02888569 -0.03718006 -0.044324946
0001a0 a5 5d ff bc 0e f0 4a 3d a4 69 87 bc 25 60 81 bc
       -0.031172583 0.04954534 -0.016529866 -0.015792916
0001b0 c0 98 f0 3c 1d 94 59 bd ef 64 2f 3c b8 91 65 3d
       0.029369712 -0.053119767 0.010705217 0.05604717
0001c0 5a 11 64 3c 98 c7 0a 3b 49 d2 9f 3c 6e 14 2c bd
       0.013920153 0.0021176096 0.019509451 -0.04201167
0001d0 1a 5e fc 3c 43 0d 83 bc 98 0e 5d bd 66 3b fd bc
       0.03080659 -0.015997535 -0.053968996 -0.030912112
0001e0 61 52 64 3d ee 18 73 bb b5 de e8 3c ac db 20 bd
       0.055742625 -0.0037093717 0.028426507 -0.039271995
0001f0 06 98 2c 3d 78 ea 20 bd 4a 53 59 3c 86 93 9c bc
       0.04213717 -0.039286107 0.013264487 -0.019113313
000200 5c b2 54 3d c4 d7 8d 3c ce 66 40 bd d5 09 d6 3c
       0.05192791 0.0173148 -0.046973042 0.026127735
000210 d1 8e 12 3c 4f c0 51 3d ad 50 da bc 62 6f aa bc
       0.008945183 0.05120879 -0.026649797 -0.020805065
000220 23 e0 3d 3d 08 4c de 3a e9 ff 0e bd e7 94 ad 3c
       0.04635633 0.0016959915 -0.034912024 0.021189166
000230 93 73 08 3d 5e 34 8b 3c 08 6e 3c 3d ae f8 e0 3c
       0.033313345 0.016992744 0.04600337 0.02746233
000240 ee 3d 33 3d b3 74 74 bc 65 a4 36 3d 75 89 d5 bc
       0.043760233 -0.014920401 0.044590373 -0.026066521
000250 0d 4d 61 bd 43 8c ab bc de d9 03 bd fe dc 11 3d
       -0.055005122 -0.020940905 -0.032190196 0.035611145
000260 5e 76 1c 3c 9b 26 50 3d 24 cb 96 bb 32 9c b6 bc
       0.009549705 0.050818067 -0.004601853 -0.022291277
000270 98 18 2f bd 77 d8 db 3c 70 ac 12 bd d3 80 06 3c
       -0.042748064 0.026836617 -0.03580898 0.008209425
000280 65 8e 37 3c 03 88 f4 3c 45 9c 42 bd df a6 42 bb
       0.011203383 0.029850012 -0.04751231 -0.0029701514
000290 fa 24 66 bb 32 e6 77 bc 90 22 18 bd 0f 99 8f bc
       -0.0035117255 -0.015130566 -0.037142336 -0.017529039
0002a0 fd 8b 65 bd 05 aa 0f bb 82 65 3a 3c c4 fa e3 bc
       -0.056041706 -0.0021921408 0.01137674 -0.027829535
0002b0 5f 28 24 bc 4e 45 49 3d 5c 3e 1d bd b3 ba 27 3d
       -0.010019391 0.04913836 -0.03838955 0.040949535
0002c0 9a 39 01 bd 3d b3 d6 3c 33 6a 6c bd 0d 24 bf 3b
       -0.031549074 0.026208514 -0.057718467 0.005833155
0002d0 9d bd 43 bb 6f d6 0c bd 84 48 b8 3c cf d0 4e 3d
       -0.0029867657 -0.034384187 0.022495516 0.050492104
0002e0 75 4c f9 3c 72 0d 29 3d a1 3a 04 bd 63 0e 23 bd
       0.030431965 0.041272588 -0.032282475 -0.039808642
0002f0 ae 01 bb bc 73 8f bb ba 43 25 d4 3b 04 f8 cc bb
       -0.02282795 -0.0014309719 0.0064741685 -0.0062551517
000300 7b 53 58 bd ef 2c 24 bc 95 7b c8 bc 9c ea e9 3c
       -0.05281399 -0.010020479 -0.024472991 0.028554253
000310 26 d0 d7 bb d2 82 4c bd a6 87 40 3d 63 7e 5c 3d
       -0.0065860925 -0.049929447 0.047004364 0.05383147
000320 85 b8 c8 bc 39 71 3c bd ce 09 34 bd 98 a9 9b 3c
       -0.024502048 -0.046006415 -0.043954663 0.019001767
000330 0d 37 22 bd 31 e6 27 3d a9 b6 9f 3c b0 8f 42 3c
       -0.03960328 0.040991012 0.019496279 0.011875078
000340 56 1f b8 3a a2 0e 2b 3c fb 50 25 bd 9a 75 6a bd
       0.0014047425 0.0104405 -0.040360432 -0.05724106
000350 7e 6a a9 3b 16 46 3f bc be 2e 4f bd 1b ae 61 3d
       0.0051701656 -0.011674425 -0.050581686 0.05509768
000360 f5 9a 17 3c 07 ca 39 3d 79 63 67 3d 6f 3e e3 bc
       0.009253253 0.045358684 0.05649135 -0.027739732
000370 a6 3c d2 bc db df 51 bd 13 94 e1 bb 0a a4 1b bc
       -0.025663685 -0.051238876 -0.006884107 -0.009499559
000380 c3 4a 26 bd 72 e2 22 3d 44 ee d4 3c 86 28 3d bd
       -0.040598642 0.039766736 0.02599252 -0.046181224
000390 54 47 d2 3c 3b 8a d7 bc 1c 5b b7 bc 88 07 35 bc
       0.025668778 -0.02631103 -0.022382312 -0.011049159
0003a0 ca ae 49 3c 52 e4 e3 ba c6 13 d6 bc fc ae 3f 3d
       0.012309739 -0.001738677 -0.026132476 0.046797737
0003b0 cd 48 dc bb 0c 72 14 bd ce 92 02 bd ac 7c 68 bc
       -0.0067225457 -0.036241576 -0.031878285 -0.01418988
0003c0 16 42 58 3c 1d d4 3f 3c 5f 5f 5b bd 90 cd 30 3d
       0.01319935 0.011708287 -0.05355775 0.04316479
0003d0 91 53 dd bc c7 c3 00 bd ef e5 69 bd 17 07 a4 3c
       -0.027017387 -0.031436708 -0.057104047 0.020022912
0003e0 18 c9 51 bc de 50 62 3d 42 d8 4e 3a 30 f5 a4 bb
       -0.012804292 0.055252902 0.00078905013 -0.0050341114
0003f0 bd b0 a0 bc 10 1c 33 3c 21 c6 5c bd 0f b7 69 3d
       -0.019615525 0.010931984 -0.053899888 0.057059344

l3.bias f4 [2]
000000 cc 83 26 bd b3 30 2a ba
       -0.040653035 -0.0006492242
