models_backup/actor_260.pth (torch, 532909 bytes, 6 tensors)

l1.weight f4 [400, 28]
0.09926559 0.12368592 0.14076702 0.07495389 -0.054054104 0.1268392 -0.18342276 -0.059984557
-0.14546439 0.12009788 0.079455905 0.1334167 -0.15912636 0.09690975 -0.12656082 0.16271171
-0.15804152 0.1796658 -0.168246 -0.100821584 0.08403292 0.09242265 0.14356495 -0.025902927
0.08652522 -0.053179998 0.14905697 -0.1865954 0.1864146 0.13195576 0.093702555 -0.12478695
-0.09411728 -0.021726245 -0.030120926 -0.12142037 -0.13224591 -0.10216009 -0.07577857 -0.039338257
-0.08470149 -0.15668851 -0.15873984 0.09501202 0.071471244 0.14717337 0.12971622 0.1874305
-0.007758839 -0.15278941 -0.08896138 -0.014397857 0.09513079 -0.12758109 -0.013114705 0.03437792
0.15465744 -0.15054733 0.013639324 -0.08063288 -0.16453223 -0.13785264 0.060360465 -0.022996038
0.09433351 0.18315962 -0.07928605 -0.10462062 -0.08556073 -0.051209617 0.12778065 0.09455965
-0.1010338 0.16475184 -0.05092211 0.18895318 -0.01828613 -0.028333701 -0.018319044 0.024545498
-0.1580131 0.15690908 0.09429147 0.15626304 0.07181255 0.01754936 -0.023188386 0.18003385
0.045787066 0.16954763 0.007406314 0.06797978 0.008390019 -0.12795198 0.1820973 0.078526996
0.13051246 -0.080074675 0.05141352 0.14349705 -0.01723207 0.16940197 0.033053115 0.13236712
-0.12547882 -0.020001715 -0.14831042 -0.120241165 -0.10937372 0.18444131 -0.18570356 0.09119766
-0.07960613 0.059104573 0.10683886 -0.11984196 -0.108785346 0.073134586 -0.00062113156 0.018733026
0.13169508 -0.15706408 0.10145711 -0.040129162 -0.013671563 0.098405115 -0.17373219 0.007725204
-0.18554917 0.06422029 0.12678854 -0.14507264 -0.18685953 0.14151123 -0.11698682 0.15259087
0.15954594 0.003428648 0.026411463 0.12238445 -0.17936811 -0.0071826293 0.028031684 -0.029652515
0.15400226 0.0034855774 -0.086678095 -0.10476519 -0.15178217 0.060852848 -0.18121603 0.09852515
0.021434885 0.023026858 -0.080949366 0.07978956 0.17441444 0.08003151 -0.029986387 0.1631701
-0.0028794047 -0.010171972 -0.15003225 0.012109215 -0.18285331 0.10857105 -0.062106196 -0.01637074
0.15629825 -0.17265375 0.01670941 -0.034699854 0.08252777 -0.0314948 -0.18159872 0.07210026
-0.10780941 0.13977712 0.011714472 0.14115535 0.08861913 -0.121097565 -0.16052118 0.09239158
-0.1032643 0.11403003 0.034990225 -0.13829668 -0.024024889 0.13568254 0.0042048204 -0.17784458
0.0726393 -0.13060682 0.16030143 0.020139161 0.13157783 0.124627024 -0.1333331 -0.071878806
0.12154716 -0.13153632 -0.07719944 0.081799544 -0.02845887 -0.09698026 0.14669874 -0.033985477
0.057504468 -0.02792659 -0.11936033 -0.18689893 0.1288015 -0.09382031 -0.11311301 0.086889595
0.023222832 0.083307005 -0.07855405 -0.16336228 -0.053135056 -0.05451578 -0.08055147 -0.12086534
-0.16334322 -0.16443394 -0.15546444 -0.13284762 -0.12137496 0.17092738 0.021861415 0.06678562
0.15280882 0.030486112 0.12239754 -0.06639624 -0.13076232 0.0884393 -0.17699882 0.15156962
-0.09258555 -0.17315592 -0.11975277 -0.15145126 0.011372356 -0.017629674 -0.09088508 -0.1723416
0.018236477 -0.016571356 -0.0054281596 0.100792594 -0.117491186 0.14030202 -0.002288146 -0.01848945
00000000: c24b cb3d 0b4f fd3d 3b25 103e 6d81 993d
00000010: d667 5dbd 23e2 013e 2dd3 3bbe 5eb2 75bd
00000020: 9ef4 14be e1f5 f53d c7b9 a23d 639e 083e
00000030: 05f2 22be 9e78 c63d 2999 01be e69d 263e
00000040: a3d5 21be 50fa 373e ae48 2cbe 8c7b cebd
00000050: 7419 ac3d 1648 bd3d b102 133e 6032 d4bc
00000060: 2234 b13d 45d3 59bd 64a2 183e dd12 3fbe
00000070: 78e3 3e3e 691f 073e 20e7 bf3d 4d90 ffbd
00000080: 8fc0 c0bd 3dfb b1bc 29c0 f6bc 3eab f8bd
00000090: 796b 07be 4f39 d1bd cb31 9bbd 2721 21bd
000000a0: fa77 adbd f472 20be b28c 22be a995 c23d
000000b0: 845f 923d 9eb4 163e 54d4 043e c8ed 3f3e
000000c0: dc3d febb d474 1cbe 6231 b6bd fde4 6bbc
000000d0: eed3 c23d 9ea4 02be 0fdf 56bc ddcf 0c3d
000000e0: 855e 1e3e 1429 1abe 7977 5f3c da22 a5bd
000000f0: 237b 28be 3e29 0dbe 893c 773d 3062 bcbc
00000100: ed31 c13d 328e 3b3e b960 a2bd 5643 d6bd
00000110: 773a afbd 2dc1 51bd eed8 023e 7da8 c13d
00000120: cfea cebd b5b4 283e b493 50bd f17c 413e
00000130: cbcc 95bc 141c e8bc d211 96bc a413 c93c
00000140: 30ce 21be c6ac 203e e31b c13d 6b03 203e
00000150: 7512 933d adc3 8f3c 92f5 bdbc cb5a 383e
00000160: 388b 3b3d e59d 2d3e aab0 f23b fc38 8b3d
00000170: 4a76 093c d805 03be b777 3a3e c3d2 a03d
00000180: 0fa5 053e 31fe a3bd fc96 523d e4f0 123e
00000190: 452a 8dbc b677 2d3e b462 073d 3f8b 073e
000001a0: 857d 00be a3da a3bc b0de 17be 0041 f6bd
000001b0: 54ff dfbd 2fde 3c3e 1329 3ebe d7c5 ba3d
000001c0: 8a08 a3bd a317 723d 55ce da3d b46f f5bd
000001d0: daca debd 96c7 953d 6fd3 22ba 0176 993c
000001e0: 13db 063e 68d5 20be bfc8 cf3d 7a5e 24bd
000001f0: b1fe 5fbc 9f88 c93d dae6 31be b523 fd3b
00000200: 9a00 3ebe ed85 833d dbd4 013e ec8d 14be
00000210: 1b58 3fbe 52e8 103e c996 efbd c840 1c3e
00000220: 0360 233e 2bb3 603b da5c d83c b3a4 fa3d
00000230: 46ac 37be 435c ebbb b4a2 e53c d5e9 f2bc
00000240: c5b2 1d3e 496e 643b 4984 b1bd 228f d6bd
00000250: c96c 1bbe d640 793d b290 39be 8ec7 c93d
00000260: 3698 af3c d2a2 bc3c c8c8 a5bd b568 a33d
00000270: b399 323e 8fe7 a33d 03a6 f5bc 1016 273e
00000280: 65b4 3cbb 58a8 26bc 0ea2 19be bb65 463c
00000290: e63d 3bbe 805a de3d 1163 7ebd ee1b 86bc
000002a0: a60c 203e 25cc 30be 2ce2 883c 6f21 0ebd
000002b0: 5204 a93d b100 01bd 04f5 39be 4da9 933d
000002c0: 2ecb dcbd bc21 0f3e 0fee 3f3c 078b 103e
000002d0: f27d b53d 0002 f8bd aa5f 24be cc37 bd3d
000002e0: 3c7c d3bd 9488 e93d e951 0f3d a59d 0dbe
000002f0: d8cf c4bc 5df0 0a3e 97c8 893b e41c 36be
00000300: eac3 943d cbbd 05be 0f26 243e e2fa a43c
00000310: 57bc 063e 743c ff3d 7988 08be 3235 93bd
00000320: b8ed f83d 75b1 06be bd1a 9ebd 8586 a73d
00000330: 9322 e9bc 969d c6bd 3238 163e 5b34 0bbd
00000340: ce89 6b3d 4ec6 e4bc 3073 f4bd 6f62 3fbe
00000350: 8ae4 033e dd24 c0bd cba7 e7bd 2cf3 b13d
00000360: cf3d be3c dd9c aa3d f2e0 a0bd 7148 27be
00000370: 25a4 59bd f04b 5fbd 2bf8 a4bd 3f88 f7bd
00000380: 7243 27be 5f61 28be 1232 1fbe 3509 08be
00000390: 6f93 f8bd 9607 2f3e b616 b33c e6c6 883d
000003a0: ea79 1c3e 03be f93c 90ab fa3d c0fa 87bd
000003b0: 8fe6 05be aa1f b53d 2e3f 35be 1135 1b3e
000003c0: 7e9d bdbd c94f 31be f140 f5bd 0a16 1bbe
000003d0: 1e53 3a3c 1b6c 90bc f521 babd 517a 30be
000003e0: aa64 953c a7c0 87bc b4de b1bb 596c ce3d
000003f0: 389f f0bd 55ab 0f3e b8f4 15bb 3077 97bc

l1.bias f4 [400]
-0.16029815 0.11198086 -0.11706786 -0.15731518 0.06384052 0.18088031 -0.018312534 0.11850537
-0.08302703 -0.048553944 0.18831915 0.05783976 0.16960034 -0.130643 0.120319225 -0.05259309
-0.12154496 -0.03673014 -0.118064016 0.14022341 0.14487083 0.12978962 -0.12724377 -0.059950605
-0.17518161 0.06322775 -0.005996552 0.16332273 0.057540085 -0.08591754 0.07404696 -0.18118614
-0.096055426 0.008393555 0.10905848 0.16268499 -0.012465187 -0.15886497 -0.024718337 0.0503769
-0.13825497 0.15317205 0.032517456 -0.1748565 -0.030011462 0.011500294 -0.03866736 -0.1299694
-0.08815517 0.16225772 -0.10760999 0.021324946 -0.18162471 -0.10684283 0.031208081 -0.1127453
-0.06108097 0.13200565 0.105777055 -0.018678734 0.10080088 0.09014302 -0.12590715 0.053495713
-0.18699051 -0.022893894 -0.072139524 0.011433114 -0.08741926 0.059423327 -0.057224777 -0.10292419
-0.12626752 -0.049835045 0.18783635 0.0006627641 0.04222825 0.15888503 -0.07098125 0.006219471
0.15883389 -0.08921752 -0.18231438 0.10824419 0.071476445 0.08087092 0.0059074294 -0.1164859
0.058834594 0.14047737 -0.17786717 0.15831058 -0.12524284 0.07517956 -0.1156539 -0.10447838
-0.072872825 0.053065352 -0.15776531 0.022325795 0.05283998 0.18640417 -0.061488915 -0.07401349
-0.0816294 0.113025755 0.012832874 -0.11431089 0.021064471 -0.099688 -0.16231532 0.030138567
-0.096865274 0.11453113 -0.003926639 -0.11279748 0.07376687 -0.17352036 0.11619447 0.11665469
-0.022869924 -0.12177105 -0.17581448 -0.022440419 -0.035572067 -0.13416043 0.14916377 0.124801844
0.1662832 -0.02040396 0.082859844 0.17024608 -0.14936839 0.0526201 0.02762178 0.12021805
-0.10384583 -0.028609494 0.04223983 0.07404566 0.010623916 -0.16849203 0.17171748 0.15933794
0.1031166 0.009873268 0.14637096 -0.07789516 -0.1569152 -0.18558878 0.045847602 0.0135494815
0.17913589 -0.123910576 0.18316512 0.1336729 -0.010486447 0.14710036 -0.052765004 -0.104622446
-0.007645904 0.059249002 0.01039185 -0.18870862 -0.1882886 0.0052674417 -0.06817885 -0.18476894
0.09408378 -0.10093107 -0.03369772 -0.09208625 -0.037278097 -0.17910138 -0.02545576 -0.14499491
-0.022168973 0.009002612 0.053617705 0.17510255 0.03985267 -0.06890037 -0.04866217 -0.16000384
-0.15535483 -0.10825647 -0.1291529 0.08722331 0.12256824 0.14305063 0.14991988 0.08436307
0.014970147 -0.18462314 0.07801859 0.0067034042 0.17792593 0.17926425 -0.050799984 -0.17089537
-0.16693911 -0.145131 0.12622632 0.113609225 -0.10005659 0.13694905 -0.13303071 -0.11298937
-0.124488726 0.1860192 -0.08123124 0.15083395 0.17904167 -0.11903135 -0.18009393 0.009162834
-0.06765608 -0.09842386 0.14844589 -0.10084846 -0.08129576 -0.09880583 0.019779563 -0.06703352
0.064291134 -0.16323984 -0.007012292 -0.113573804 0.059153866 0.14058083 -0.08783872 -0.09017755
0.06994776 -0.103682086 -0.054062482 0.022778796 -0.0588457 -0.018985052 0.18517713 -0.1502796
-0.13495809 0.13314125 -0.041014574 -0.18050623 -0.12199906 -0.042282656 -0.0319533 0.100320935
0.095488 0.069839574 0.15378854 -0.18214436 0.100284465 -0.064329416 -0.113674894 0.028613167
00000000: 3325 24be 3956 e53d 46c1 efbd 3b17 21be
00000010: d2be 823d b038 393e 2b04 96bc f2b2 f23d
00000020: 130a aabd 80e0 46bd bcd6 403e 62e9 6c3d
00000030: b6ab 2d3e 47c7 05be ed69 f63d da6b 57bd
00000040: 90ec f8bd 5872 16bd 8ccb f1bd ba96 0f3e
00000050: 0559 143e 92e7 043e 314c 02be c48e 75bd
00000060: cf62 33be 8d7d 813d b97e c4bb 133e 273e
00000070: 27af 6b3d 89f5 afbd efa5 973d dc88 39be
00000080: b5b8 c4bd 1f85 093c 0d5a df3d e596 263e
00000090: c93a 4cbc 80ad 22be 1c7e cabc 0258 4e3d
000000a0: b692 0dbe 22d9 1c3e 0631 053d 950d 33be
000000b0: 99da f5bc bb6b 3c3c aa61 1ebd b316 05be
000000c0: b38a b4bd e326 263e a062 dcbd a7b1 ae3c
000000d0: d4fb 39be 6ad0 dabd 17a8 ff3c 02e7 e6bd
000000e0: 0a30 7abd 7d2c 073e a4a1 d83d 2504 99bc
000000f0: b170 ce3d e79c b83d ceed 00be 521e 5b3d
00000100: 717a 3fbe fa8b bbbc e3bd 93bd f551 3b3c
00000110: de08 b3bd e065 733d 8764 6abd ebc9 d2bd
00000120: 464c 01be d51f 4cbd 2c58 403e 59bd 2d3a
00000130: 88f7 2c3d c2b2 223e 9e5e 91bd b4cc cb3b
00000140: 5aa5 223e adb7 b6bd 9fb0 3abe 21af dd3d
00000150: 3e62 923d a79f a53d 1c93 c13b 2990 eebd
00000160: 8bfc 703d 4dd9 0f3e d022 36be 2b1c 223e
00000170: a93f 00be bef7 993d f4db ecbd c3f8 d5bd
00000180: 593e 95bd 0e5b 593d 3b8d 21be 96e4 b63c
00000190: bc6e 583d bce0 3e3e cddb 7bbd 6294 97bd
000001a0: 512d a7bd 0c7a e73d fa40 523c d41b eabd
000001b0: 668f ac3c 3929 ccbd fd35 26be 28e5 f63c
000001c0: 4d61 c6bd 4c8f ea3d 09ab 80bb 5d02 e7bd
000001d0: 1613 973d 52af 31be 5ef7 ed3d a7e8 ee3d
000001e0: b559 bbbc 1a63 f9bd b608 34be f8d4 b7bc
000001f0: 04b4 11bd 5a61 09be 63be 183e 1c98 ff3d
00000200: 2546 2a3e 3526 a7bc 6cb2 a93d fd54 2e3e
00000210: 07f4 18be 2d88 573d 1247 e23c e234 f63d
00000220: 1fad d4bd 755e eabc ac03 2d3d 40a5 973d
00000230: ef0f 2e3c 2d89 2cbe b5d6 2f3e 7c29 233e
00000240: cc2e d33d 7dc3 213c 45e2 153e 7f87 9fbd
00000250: 61ae 20be fc0a 3ebe b2ca 3b3d a5fe 5d3c
00000260: 666f 373e d4c4 fdbd a38f 3b3e 8ce1 083e
00000270: 59cf 2bbc 7aa1 163e 1e20 58bd 4b44 d6bd
00000280: 7e8a fabb 15af 723d 9442 2a3c d53c 41be
00000290: bace 40be 819a ac3b 5aa1 8bbd 1234 3dbe
000002a0: ffae c03d f3b4 cebd 9f06 0abd b797 bcbd
000002b0: ebb0 18bd 5a66 37be 9988 d0bc 8c79 14be
000002c0: b59b b5bc b17f 133c 3d9e 5b3d 154e 333e
000002d0: 8e3c 233d a31b 8dbd fc51 47bd 0cd8 23be
000002e0: 5615 1fbe 91b5 ddbd a840 04be 22a2 b23d
000002f0: 0f05 fb3d dd7b 123e 9984 193e 8cc6 ac3d
00000300: 5945 753c d90d 3dbe 36c8 9f3d 3ba8 db3b
00000310: 3732 363e 0c91 373e a513 50bd 32ff 2ebe
00000320: 16f2 2abe 399d 14be 7941 013e f4ab e83d
00000330: 78ea ccbd 5f3c 0c3e 3439 08be f966 e7bd
00000340: f2f3 febd d17b 3e3e 905c a6bd 3774 1a3e
00000350: b356 373e b5c6 f3bd 8b6a 38be b61f 163c
00000360: 458f 8abd 7392 c9bd 3302 183e a389 cebd
00000370: 647e a6bd b65a cabd c008 a23c df48 89bd
00000380: 12ab 833d 5828 27be 5ec7 e5bb 6299 e8bd
00000390: 534b 723d 6cf4 0f3e c9e4 b3bd 02af b8bd
000003a0: c540 8f3d 4657 d4bd 9f70 5dbd 999a ba3c
000003b0: 3008 71bd 8a86 9bbc 139f 3d3e e5e2 19be
000003c0: 7432 0abe 2e56 083e e6fe 27bd a0d6 38be
000003d0: a5da f9bd 9430 2dbd 77e1 02bd 1075 cd3d
000003e0: 368f c33d 0d08 8f3d be7a 1d3e 0d84 3abe
000003f0: f161 cd3d 24bf 83bd 62ce e8bd 2966 ea3c

l2.weight f4 [300, 400]
0.018241525 -0.004018986 0.021975119 -0.023520572 -0.005860579 0.040215958 0.032695353 -0.004488397
-0.048317548 -0.038898733 0.0011196852 -0.028804183 -0.039665412 0.019735336 -0.023476137 0.022009348
0.012878287 -0.019714523 -0.008991606 -0.048395533 -0.042975426 0.03525678 0.023066932 0.029349012
-0.017620755 -0.04939726 0.043626677 0.024304956 -0.03577847 -0.008530671 0.02238872 -0.039845705
-0.007384801 0.036382724 0.037314545 0.048114832 -0.03269396 -0.024330383 0.006359798 0.013460851
0.048635703 0.006057936 -0.007212633 0.012194562 -0.029749615 0.013633537 0.03041103 -0.0075737536
0.0063518644 -0.0411659 -0.046017457 0.022521019 0.009831607 0.017984195 0.0424695 -0.014390714
-0.0063741864 0.01497621 0.028105551 -0.014631319 0.013758803 -0.020462662 -0.0222261 0.029525055
-0.0077842413 0.014010251 0.034779873 -0.036317628 -0.005615407 0.033926386 -0.045273203 0.0147653045
0.014225292 -0.0016477049 -0.036819518 0.024291892 -0.03274819 0.020841742 0.03391109 -0.020375222
0.0010223746 -0.00032140018 0.028463716 0.036329128 0.04746432 -0.012545824 -0.010691243 -0.0018979072
-0.02480793 -0.037287213 -0.020672798 0.0044961157 -0.037199587 -0.020275963 -0.041690916 -0.014499808
0.030485023 0.011801344 0.01729141 0.03097698 0.015062786 0.00930006 -0.0055847703 -0.029436572
0.016626274 -0.03148064 -0.021972675 0.023986453 -0.037019093 0.016998578 -0.022904802 0.01249826
-0.018225236 -0.042287774 0.01086042 0.008322072 0.010765582 0.016917497 -0.0057513597 0.034469973
0.04097558 0.018095678 -0.035082635 0.019733459 0.008859825 0.04551033 -0.040302146 -0.026637077
-0.04786972 0.02072568 -0.024799276 -0.00817988 -0.012347507 0.033325773 0.018784178 -0.03399029
0.04067398 -0.015269834 0.017368823 0.008001524 0.01047768 0.011497182 -0.048332263 -0.039719995
-0.0144582335 0.021206021 -0.021498937 -0.015547997 0.048654445 0.036998756 -0.026443994 -0.020630939
0.0049913763 0.0407343 0.041794162 -0.0069942595 -0.0035090328 -0.019839888 0.009648121 0.0242661
0.010853821 0.042532157 0.009668452 0.0338449 -0.03707368 0.039328344 -0.010982424 0.0023815096
0.04464775 -0.042835798 -0.036395606 -0.017778302 0.03753202 0.045401867 0.007411444 -0.03360687
-0.043309804 -0.036048543 0.043448266 -0.031758107 0.02671668 0.0024269582 0.033507384 0.033335228
-0.015134615 -0.0073562623 0.029951675 0.03778855 -0.039619595 -0.013891876 -0.013718563 -0.045172732
0.012409872 -0.019040072 -0.00072065595 0.04253974 0.025089467 -0.029611493 0.00882718 -0.042065896
0.02637635 -0.0452951 -0.015803223 -0.0031857968 0.0301036 0.021370394 -0.0027177632 -0.04852466
0.016736656 -0.008589846 0.018196214 0.024776643 -0.0443087 0.01216538 0.03222398 0.011710114
-0.0032202543 -0.014143837 -0.017160375 -0.004831338 -0.021968527 -0.036461722 0.005913758 -0.0040554884
0.048514545 -0.0008104622 0.014900595 0.040781923 0.042274605 -0.026262939 0.023240006 0.02702555
0.04852382 0.0040501594 -0.0005094886 0.0060333847 -0.0012414039 0.015367401 -0.006577128 -0.022470756
-0.016730785 -0.047495253 0.0011037708 0.045423236 0.03547525 0.015146673 -0.032911073 0.012293381
0.0013828218 0.015183747 0.03915587 0.01607998 -0.011606455 -0.02312011 -0.03315931 0.009322131
00000000: 406f 953c b3b1 83bb 2a05 b43c 37ae c0bc
00000010: 1a0a c0bb 7db9 243d 90eb 053d 6713 93bb
00000020: 9fe8 45bd 4754 1fbd 67c2 923a c0f6 ebbc
00000030: 3378 22bd 00ac a13c 0751 c0bc f34c b43c
00000040: 73ff 523c 5a80 a1bc 8751 13bc 653a 46bd
00000050: 0007 30bd 6a69 103d ddf6 bc3c 576d f03c
00000060: 6759 90bc c854 4abd e3b1 323d 301b c73c
00000070: 728c 12bd 3ac4 0bbc 8d68 b73c 4035 23bd
00000080: 33fc f1bb 0d06 153d 23d7 183d 0f14 453d
00000090: 1aea 05bd 8350 c7bc da65 d03b e78a 5c3c
000000a0: 3b36 473d a781 c63b f357 ecbb b3cb 473c
000000b0: 77b5 f3bc 335f 5f3c 8d20 f93c 402d f8bb
000000c0: 4d23 d03b 939d 28bd cd7c 3cbd 007e b83c
000000d0: c014 213c 9753 933c 80f4 2d3d 07c7 6bbc
000000e0: 8dde d0bb c75e 753c 9d3d e63c 33b8 6fbc
000000f0: 9a6c 613c 50a1 a7bc 8313 b6bc 87de f13c
00000100: f312 ffbb 408b 653c 5775 0e3d cbc1 14bd
00000110: 7301 b8bb 65f6 0a3d 6570 39bd 2dea 713c
00000120: 3311 693c cdf7 d7ba 10d0 16bd caff c63c
00000130: f722 06bd 4dbc aa3c 5be6 0a3d f0e9 a6bc
00000140: 3301 863a 9a81 a8b9 bd2c e93c dacd 143d
00000150: f269 423d 008d 4dbc 532a 2fbc 33c3 f8ba
00000160: 003a cbbc 7aba 18bd 005a a9bc 2754 933b
00000170: 985e 18bd c719 a6bc 18c4 2abd 9a90 6dbc
00000180: babb f93c 6d5a 413c b7a6 8d3c 70c3 fd3c
00000190: e7c9 763c 475f 183c 7300 b7bb f724 f1bc
000001a0: d333 883c d8f1 00bd 0a00 b4bc 3d7f c43c
000001b0: 55a1 17bd 9a40 8b3c daa2 bbbc 80c5 4c3c
000001c0: 174d 95bc f235 2dbd e7ef 313c 4d59 083c
000001d0: 2062 303c 9096 8a3c e775 bcbb 6330 0d3d
000001e0: 03d6 273d 633d 943c cfb2 0fbd 10a8 a13c
000001f0: cd28 113c 0a69 3a3d dd13 25bd 0036 dabc
00000200: 0a13 44bd e7c8 a93c da27 cbbc e704 06bc
00000210: 334d 4abc 9b80 083d 47e1 993c 6739 0bbd
00000220: c299 263d 532e 7abc 1049 8e3c d318 033c
00000230: 93aa 2b3c ad5e 3c3c 0df8 45bd 6fb1 22bd
00000240: 3ae2 6cbc 40b8 ad3c 8a1e b0bc 07bd 7ebc
00000250: e249 473d 028c 173d 13a1 d8bc 3702 a9bc
00000260: b38e a33b 02d9 263d 5b30 2b3d 1a30 e5bb
00000270: cdf7 65bb 4387 a2bc 2713 1e3c b3c9 c63c
00000280: 3ad4 313c 3336 2e3d 6d68 1e3c f3a0 0a3d
00000290: 92da 17bd c216 213d a0ef 33bc 1a13 1c3b
000002a0: 8fe0 363d 9774 2fbd 8f13 15bd cda3 91bc
000002b0: 2dbb 193d 4ff7 393d b3db f23b 5ba7 09bd
000002c0: 9f65 31bd a3a7 13bd cff6 313d ca14 02bd
000002d0: f0dc da3c 9a0d 1f3b 0a3f 093d 858a 083d
000002e0: 2df7 77bc cd0c f1bb 375d f53c 2bc8 1a3d
000002f0: 2848 22bd c09a 63bc d3c3 60bc 0b07 39bd
00000300: c752 4b3c edf9 9bbc 67ea 3cba 273e 2e3d
00000310: 6d88 cd3c cd93 f2bc e09f 103c 4a4d 2cbd
00000320: 3713 d83c 5b87 39bd c375 81bc cdc8 50bb
00000330: d39b f63c f710 af3c 801c 32bb cbc1 46bd
00000340: 501b 893c 6dbc 0cbc 3a10 953c 63f8 ca3c
00000350: 0a7d 35bd 4d51 473c 4bfd 033d c7db 3f3c
00000360: e70a 53bb 8dbb 67bc ea93 8cbc 3350 9ebb
00000370: 57f7 b3bc e358 15bd 33c8 c13b e7e3 84bb
00000380: 30b7 463d 3375 54ba a021 743c f20a 273d
00000390: 2328 2d3d 6025 d7bc d361 be3c b064 dd3c
000003a0: eac0 463d 33b7 843b 338f 05ba b3b3 c53b
000003b0: 9ab6 a2ba 8dc7 7b3c f384 d7bb 9714 b8bc
000003c0: 000f 89bc 628a 42bd 67ac 903a b70d 3a3d
000003d0: 7f4e 113d c029 783c c3cd 06bd 2d6a 493c
000003e0: cd3f b53a 40c5 783c e861 203d 2aba 833c
000003f0: 0029 3ebc 6366 bdbc 0fd2 07bd dabb 183c

l2.bias f4 [300]
-0.028097063 -0.00964579 0.0026034534 0.012124062 -0.029813135 -0.04347058 -0.0032441735 0.028330553
-0.04782335 0.019729668 0.025660861 -0.0047518793 0.016903192 -0.03495357 0.015419376 -0.04050218
-0.02248075 -0.016965061 -0.049419917 0.0050159693 0.045443714 0.028947575 0.043544292 -0.047747947
0.026928235 -0.04769217 -0.038262993 -0.03917802 -0.024450982 -0.023998916 0.005736053 0.0075502875
-0.036844887 -0.008869058 -0.033264775 0.029462863 -0.046570133 0.030963589 -0.01079194 -0.033774137
0.030995209 0.024685247 0.013487232 -0.013764036 0.010453827 -0.04099489 0.04481272 -0.006350869
0.015076483 0.009948921 0.030274158 -0.015548027 0.0035794675 0.035081167 0.03859036 0.046697903
0.034876008 0.0404404 0.017771179 0.030455453 0.048447944 -0.03530581 0.02862726 -0.004468936
-0.03172482 -0.035324793 0.0079371575 -0.045836147 -0.025110973 -0.025977446 0.038082182 0.036950946
-0.00349617 -0.027144326 0.020364136 -0.0212498 0.039489802 -0.03532629 -0.016258849 0.0006958604
0.02348647 0.0134586515 0.0007243872 -0.024436915 -0.034824725 -0.029815584 -0.012234652 -0.044325948
-0.030365516 -0.047282375 0.027101023 -0.047245324 -0.019239336 -0.014213252 0.015917689 0.01044097
0.007372439 0.030345434 0.0458438 -0.0037840249 -0.029680729 0.019480621 -0.015246302 -0.01672697
0.049930513 -0.026070494 -0.021138674 -0.021117145 -0.018010808 0.03417593 0.024238987 0.015718747
0.017079592 0.030829972 0.009424955 -0.019174326 -0.035483535 -0.04429544 0.0033420622 0.012865365
-0.01542399 -0.049580265 -0.017161323 -0.0028269112 0.02600556 0.010886515 0.024012161 0.010379351
-0.017130071 -0.038834583 -0.044036206 0.039887812 0.0021887838 0.009745508 0.037309606 0.032923024
-0.018081183 0.038570065 0.04741189 -0.00046802164 0.027802223 0.007901567 0.04662245 -0.0009684086
-0.0067976895 -0.0022337676 -0.021184081 -0.026579423 -0.015687257 -0.003819853 -0.04097421 0.005278844
0.033562124 -0.04149827 -0.015802545 -0.000434196 0.044735637 0.01911896 -0.022994876 -0.03649093
0.013981754 -0.004892379 0.036183815 0.021879137 0.031811066 -0.046168484 -0.015381086 0.031318564
0.0010947644 -0.032800805 0.026396586 0.029493345 0.043549515 0.041476924 -0.035192646 0.034897108
-0.02557884 -0.0010329724 -0.034267552 -0.041423637 0.008913809 -0.0033813 -0.022205103 0.011457467
-0.04310683 0.026964797 0.009058041 0.044511206 0.038656753 0.008031285 -0.029692365 -0.046710547
-0.028310502 0.043388184 -0.030464638 0.016904444 -0.04283575 0.025954098 -0.010736651 0.046395924
-0.023052348 0.041891422 -0.031382926 0.020450646 -0.018598432 0.025814438 0.008891475 0.04935915
-0.026909603 0.024711847 -0.037027128 -0.04912029 0.041370403 0.017488468 -0.0032070458 -0.013522118
0.0011980534 -0.0017304838 -0.0036086857 0.035805136 -0.016369337 0.034980286 -0.005866665 -0.030447597
0.016370058 -0.046300847 -0.004330975 0.03516216 0.0099678105 0.026681835 -0.04652513 0.029805029
0.019313252 -0.036520224 -0.0073853256 0.021175766 0.03921883 0.0033597648 -0.0021992445 0.0024107278
-0.0067132474 -0.045769442 0.047127407 -0.033184823 0.0033807277 0.038848724 -0.011002493 -0.025940692
-0.019937664 -0.028671121 -0.036032636 -0.011327428 -0.019553674 0.028524924 -0.04758517 -0.025818003
00000000: d02b e6bc 6009 1ebc b39e 2a3b 00a4 463c
00000010: ad3a f4bc 350e 32bd 339c 54bb 7a15 e83c
00000020: 6be2 43bd 1da0 a13c ba36 d23c a7b5 9bbb
00000030: 9078 8a3c 7a2b 0fbd 8da1 7c3c 9de5 25bd
00000040: 8d29 b8bc 50fa 8abc 8a6c 4abd 005d a43b
00000050: 3023 3a3d 7723 ed3c 805b 323d 5a93 43bd
00000060: 9a98 dc3c dd58 43bd a8b9 1cbd 2279 20bd
00000070: 6d4d c8bc 6099 c4bc 80f5 bb3b 6768 f73b
00000080: aaea 16bd 874f 11bc a540 08bd 1a5c f13c
00000090: 53c0 3ebd 5aa7 fd3c add0 30bc c056 0abd
000000a0: aae9 fd3c b738 ca3c 8df9 5c3c 8d82 61bc
000000b0: 8746 2b3c 42ea 27bd 8b8d 373d f31a d0bb
000000c0: 5a03 773c cd00 233c 8301 f83c 27bd 7ebc
000000d0: 8095 6a3b 45b1 0f3d ed10 1e3d 4d46 3f3d
000000e0: 25da 0e3d d5a4 253d dd94 913c b77d f93c
000000f0: 5a71 463d d39c 10bd b783 ea3c 2770 92bb
00000100: e3f1 01bd bbb0 10bd da0a 023c afbe 3bbd
00000110: 87b5 cdbc a7ce d4bc 10fc 1b3d e059 173d
00000120: 0020 65bb c75d debc b0d2 a63c 1014 aebc
00000130: 0fc0 213d 4db2 10bd 4731 85bc 676a 363a
00000140: b366 c03c ad81 5c3c cde4 3d3a ed2f c8bc
00000150: 5fa4 0ebd d03f f4bc da73 48bc 208f 35bd
00000160: 1ac1 f8bc 2aab 41bd f702 de3c 5084 41bd
00000170: d09b 9dbc b3de 68bc d065 823c 9a10 2b3c
00000180: 8094 f13b fd96 f83c b5c6 3b3d 67fd 77bb
00000190: 0025 f3bc d395 9f3c a0cb 79bc 0007 89bc
000001a0: f083 4c3d ca91 d5bc 032b adbc ddfd acbc
000001b0: 678b 93bc 0ffc 0b3d d790 c63c 9ac4 803c
000001c0: 80ea 8b3c 238f fc3c 206b 1a3c 7a13 9dbc
000001d0: 2f57 11bd 236f 35bd 8006 5b3b 40c9 523c
000001e0: e7b4 7cbc ad14 4bbd e795 8cbc b343 39bb
000001f0: 9d09 d53c 5a5d 323c 27b5 c43c 270e 2a3c
00000200: 5d54 8cbc 0311 1fbd 4f5f 34bd 6761 233d
00000210: b371 0f3b a0ab 1f3c f5d1 183d 4bda 063d
00000220: fd1e 94bc a5fb 1d3d f832 423d cd60 f5b9
00000230: 7dc1 e33c 9375 013c 2ff7 3e3d cddc 7dba
00000240: 27bf debb 6764 12bb 3d8a adbc 17bd d9bc
00000250: 9082 80bc 8056 7abb 93d4 27bd 27fa ac3b
00000260: 7078 093d 17fa 29bd 5774 81bc cda4 e3b9
00000270: b73c 373d 5d9f 9c3c c05f bcbc 8377 15bd
00000280: ba13 653c 4050 a0bb 7b35 143d e03b b33c
00000290: 524c 023d 2a1b 3dbd f300 7cbc e547 003d
000002a0: 337e 8f3a 235a 06bd a73d d83c 079c f13c
000002b0: fa60 323d b5e3 293d 2a26 10bd 45f0 0e3d
000002c0: b78a d1bc cd64 87ba 225c 0cbd d5ab 29bd
000002d0: 3a0b 123c cd98 5dbb 7ae7 b5bc 1ab8 3b3c
000002e0: ca90 30bd 47e5 dc3c 2d68 143c 6251 363d
000002f0: 8b56 1e3d a795 033c 673d f3bc 8f53 3fbd
00000300: 6deb e7bc cfb7 313d fa90 f9bc 307b 8a3c
00000310: 8a74 2fbd b09d d43c c7e8 2fbc a709 3e3d
00000320: 47d8 bcbc 5796 2b3d 628b 00bd 1d88 a73c
00000330: bd5b 98bc cd78 d33c 8dad 113c d22c 4a3d
00000340: 8771 dcbc 8070 ca3c c2a9 17bd 5b32 49bd
00000350: 0374 293d fa43 8f3c 4d2d 52bb e08b 5dbc
00000360: 0008 9d3a 67d1 e2ba b37f 6cbb 68a8 123d
00000370: fd18 86bc 7d47 0f3d 273d c0bb 3d6d f9bc
00000380: 801a 863c f5a5 3dbd daea 8dbb 3206 103d
00000390: 0750 233c dd93 da3c 2291 3ebd ad29 f43c
000003a0: d336 9e3c 3b96 15bd 9a00 f2bb cd78 ad3c
000003b0: eda3 203d 802f 5c3b 3321 10bb 4dfd 1d3b
000003c0: cdfa dbbb bd78 3bbd ab08 413d cfec 07bd
000003d0: 338f 5d3b d71f 1f3d cd43 34bc 9381 d4bc
000003e0: 5054 a3bc b3df eabc f596 13bd ad96 39bc
000003f0: 072f a0bc 1aad e93c abe8 42bd 4780 d3bc

l3.weight f4 [2, 300]
-0.0033237974 0.032523684 0.0015873159 -0.029455682 -0.048896715 -0.0055108382 -0.004335574 0.02356406
0.02258852 0.01230254 -0.03134574 0.012165776 -0.00061879645 -0.010361867 -0.04758521 0.05596906
-0.038281307 0.02445308 0.03865976 -0.0561732 0.007159333 0.01934191 0.015061314 0.01392188
0.0039686235 0.0023040718 -0.030979011 -0.052268993 -0.034058236 -0.043021094 -0.0038498032 -0.056618165
0.018374678 0.023843752 0.0036932253 -0.020061426 0.048926853 0.0023493175 0.03469099 0.022555064
-0.051283557 -0.029885476 -0.010035841 -0.03377045 0.031945787 -0.004779863 -0.039327305 0.01272049
0.019298013 0.045661256 0.045990467 0.025659109 -0.05297682 -0.008366877 -0.0010981249 0.022876246
0.015632711 0.01764733 0.024822094 0.05689722 -0.0119505385 0.017970713 0.0074578226 -0.0259264
-0.020415768 -0.006012521 -0.04877686 -0.04668737 0.015942894 -0.028139029 0.0070420066 -0.020801472
-0.05622407 -0.00973912 0.05393899 -0.014789447 -0.0066050813 0.0008429336 -0.03100685 0.044258762
-0.02335075 0.04443578 -0.05047514 -0.05033526 0.034699183 0.02896698 0.022021309 -0.031016907
-0.0003668813 0.0023904408 0.018972786 0.012549334 -0.044375286 -0.02815358 -0.0384448 -0.02007886
0.04123536 -0.009896641 0.030239845 -0.05656014 0.031903997 0.030620422 -0.05017594 -0.0060743126
0.036490772 0.02694086 0.038453467 0.029339215 -0.044536117 0.0063945167 -0.028999163 0.04172564
0.017602986 0.04279039 0.018797178 -0.044002954 0.042558856 -0.03517042 -0.04619602 -0.039061155
-0.015728991 0.018985841 -0.05030794 -0.0031219323 -0.031936765 0.00781365 0.04070932 0.023745498
0.03899646 -0.009159533 0.024225142 -0.03910153 -0.054966636 0.0018937134 0.03459812 0.027413264
0.047876492 0.016663263 0.047494747 -0.026325002 -0.0459656 0.018828651 0.0056180134 0.0021911496
0.053503696 -0.01912672 0.0389238 -0.045806125 0.05192532 0.0024221144 0.034720317 -0.004682723
0.00791302 -0.0038202084 -0.016836999 -0.03067479 -0.014441079 -0.004717741 0.0065453616 -0.008022357
-0.02764959 -0.036927175 0.040469747 0.010024959 0.004331417 0.015485293 0.030603968 -0.022396538
0.030604545 -0.028642647 0.0012977395 0.026455062 -0.029998887 0.055946197 0.030736573 -0.053474642
-0.01057716 -0.0014688742 0.018183302 -0.03909673 -0.051566772 -0.04869385 -0.021628384 -0.013744613
0.028272944 -0.05032225 -0.0026431545 0.016415326 -0.038757786 -0.025813952 -0.047166385 -0.03929497
-0.0392329 0.012005654 -0.018517815 0.013377374 0.031531647 -0.031573683 0.036301523 -0.04538766
0.030283866 -0.03804578 0.031005103 0.0030622743 -0.016661232 0.02304939 -0.002077808 0.05050929
0.0065120845 -0.048200842 0.022361932 -0.018280724 -0.048127454 -0.050748218 -0.05305101 0.010487797
0.047247704 -0.02199572 0.056893133 -0.021532571 -0.048513796 0.010168866 -0.05674771 0.013322844
0.009460053 0.012071486 0.046914972 -0.04115845 0.018986978 -0.00511207 0.052160785 -0.003629369
-0.049307864 -0.025556475 -0.010402997 -0.034039028 0.017246855 0.008864809 -0.020993957 0.00717707
0.01810093 -0.032335322 -0.035939388 0.013889312 0.018525833 0.016876291 -0.005513922 0.034394145
0.053657252 0.023744775 -0.0073328903 0.03339638 0.02936634 0.02450913 0.039721195 0.014772949
00000000: 11d4 59bb 8e37 053d 7c0d d03a 0b4d f1bc
00000010: ec47 48bd 4394 b4bb 6e11 8ebb 6a09 c13c
00000020: 8f0b b93c 9890 493c 6464 00bd f752 473c
00000030: ba36 22ba d2c4 29bc b6e8 42bd d03f 653d
00000040: dccc 1cbd d351 c83c b259 1e3d df15 66bd
00000050: d798 ea3b ed72 9e3c bbc3 763c 9918 643c
00000060: 3a0b 823b e9ff 163b b2c7 fdbc 0318 56bd
00000070: a680 0bbd e336 30bd fb4c 7cbb 73e8 67bd
00000080: 7e86 963c f953 c33c 0a0a 723b dc57 a4bc
00000090: 8667 483d 02f7 193b 2418 0e3d 66c5 b83c
000000a0: b50e 52bd 63d2 f4bc 5e6d 24bc e252 0abd
000000b0: 96d9 023d 66a0 9cbb ab15 21bd 9a69 503c
000000c0: de16 9e3c 4c07 3b3d 8060 3c3d 0d33 d23c
000000d0: 39fe 58bd 3a15 09bc f5ee 8fba f766 bb3c
000000e0: 2c10 803c 2291 903c b457 cb3c 0f0d 693d
000000f0: 31cc 43bc 5137 933c c060 f43b 9a63 d4bc
00000100: f83e a7bc af04 c5bb 3fca 47bd 413b 3fbd
00000110: ac9a 823c d283 e6bc a2c0 e63b d967 aabc
00000120: 364b 66bd d490 1fbc 21ef 5c3d 704f 72bc
00000130: 706f d8bb 51f8 5c3a 1402 febc ad48 353d
00000140: 124a bfbc 4b02 363d 05bf 4ebd 582c 4ebd
00000150: bb20 0e3d 294c ed3c 0866 b43c 2b17 febc
00000160: f959 c0b9 f1a8 1c3b d16c 9b3c b99b 4d3c
00000170: dcc2 35bd 56a2 e6bc 4b78 1dbd 6c7c a4bc
00000180: 69e6 283d 8525 22bc 8db9 f73c 9bab 67bd
00000190: c4ad 023d aed7 fa3c 4985 4dbd 070b c7bb
000001a0: 5977 153d 14b3 dc3c 6281 1d3d cb58 f03c
000001b0: 816b 36bd 1889 d13b a78f edbc 81e8 2a3d
000001c0: 2334 903c fa44 2f3d 8afc 993c 713c 34bd
000001d0: 3252 2e3d dc0e 10bd 0a38 3dbd 97fe 1fbd
000001e0: 16da 80bc 3288 9b3c b30f 4ebd 5599 4cbb
000001f0: 20d0 02bd d304 003c d1be 263d eb85 c23c
00000200: c1ba 1f3d de11 16bc ce73 c63c ed28 20bd
00000210: b224 61bd 7a36 f83a c2b6 0d3d c891 e03c
00000220: 241a 443d 6581 883c da89 423d 88a7 d7bc
00000230: 6d46 3cbd 8b3e 9a3c 5017 b83b 6499 0f3b
00000240: b126 5b3d a4af 9cbc 906e 1f3d 349f 3bbd
00000250: a5af 543d 56bc 1e3b e436 0e3d 8771 99bb
00000260: 9da5 013c 765c 7abb bfed 89bc b249 fbbc
00000270: 479a 6cbc 4897 9abb 797a d63b 3470 03bc
00000280: 6581 e2bc f340 17bd 9bc3 253d ba3f 243c
00000290: 8fee 8d3b 07b6 7d3c 2cb5 fa3c f278 b7bc
000002a0: 62b6 fa3c fca3 eabc e918 aa3a 49b8 d83c
000002b0: 3ac0 f5bc d727 653d 44cb fb3c 3a08 5bbd
000002c0: d34b 2dbc 3d87 c0ba 26f5 943c e523 20bd
000002d0: ae37 53bd 3473 47bd 022e b1bc 1631 61bc
000002e0: a99c e73c b41e 4ebd c638 2dbb 6f79 863c
000002f0: 7cc0 1ebd c877 d3bc 8a31 41bd c3f3 20bd
00000300: adb2 20bd 5db3 443c acb2 97bc c62c 5b3c
00000310: 5427 013d 6853 01bd e8b0 143d 69e8 39bd
00000320: df15 f83c e4d5 1bbd 6afe fd3c 70b0 483b
00000330: 237d 88bc 13d2 bc3c d52b 08bb d4e2 4e3d
00000340: 5363 d53b 3f6e 45bd 5f30 b73c 75c1 95bc
00000350: 4b21 45bd 5ddd 4fbd 044c 59bd 02d5 2b3c
00000360: cf86 413d 5e30 b4bc c608 693d 1365 b0bc
00000370: 67b6 46bd 519b 263c 4970 68bd 0f48 5a3c
00000380: 57fe 1a3c 7bc7 453c ea29 403d c395 28bd
00000390: 948a 9b3c 2783 a7bb 8ca6 553d b5da 6dbb
000003a0: 0bf7 49bd d05b d1bc 5571 2abc 826c 0bbd
000003b0: 4749 8d3c b43d 113c 85fb abbc a02d eb3b
000003c0: 6748 943c 0b72 04bd 2e35 13bd ff8f 633c
000003d0: 7dc3 973c 2640 8a3c 21ae b4bb e0e0 0c3d
000003e0: b5c7 5b3d 6784 c23c be48 f0bb a4ca 083d
000003f0: ae91 f03c 5fc7 c83c b1b2 223d 3d0a 723c

l3.bias f4 [2]
0.0337559 0.041267358
00000000: a043 0a3d f607 293d
