models_backup/actor_400.pth (torch, 529709 bytes, 6 tensors)

l1.weight f4 [400, 26]
00000000: 3b4c b0bd 03f3 15be e338 19be 0d3e 8a3d
00000010: 6e01 383d f2ab 62bd 119f 3c3e 13b8 013d
00000020: 727d 2ebe d2c6 8d3d cb91 3bbe c3d0 863d
00000030: d7c9 7c3d 1a3f a4bb fbfe 3fbe 2daf 83bd
00000040: 71a4 f03d 1cdf bc3c 6f2b ed3d cffe 0cbd
00000050: dad8 663d 114e a83d 5dcb 16be b8d8 2abd
00000060: a776 413d 09d4 6d3d 48da 3f3e 8b36 283d
00000070: 32a7 273e 248b d5bd 8c4a 10be 2538 08be
00000080: cf8c 1ebe 693e 3b3e 3cef c9bd 6696 abbd
00000090: f9df 1d3e fd64 9fbd 31f5 113e 0427 04bd
000000a0: 18b9 ce3d 0568 9bbd 4bf4 d23d bf05 053e
000000b0: 1cee b7bd 02c9 183b 864b 813d 93a0 54bd
000000c0: be62 3abe 9225 0ebd 57b9 d8bd b7bc b2bd
000000d0: 5cfc 033d 929c 123e 2599 413e fa04 433e
000000e0: 9ecf ba3d ffbb 443c e48e 66bd e7a6 bdbc
000000f0: 66ec 5e3d c83e c0bd 8be4 963d 0ac8 6c3d
00000100: 6aac 28be 0389 9fbd dedd d63a 2970 373e
00000110: c902 93bc 3617 013e 59e5 00be d8b6 19be
00000120: d2b7 f53d 470f 233e 9e8e 34be 560c 46bd
00000130: 811c 74bd 03e0 1ebd 3754 77bd e70a e83d
00000140: 655b 803d e90e 29bc 9c8f cf3d 83e4 8ebd
00000150: 00bc 0fbe 7989 1f3e 3113 b63d 0a29 a4bc
00000160: 9198 313e 86e1 c3bc 51c9 803d 8b34 143e
00000170: babe 9fbd 4ed8 ca3d 47f9 c33d 45b6 bf3d
00000180: 9598 3cbd 1e26 9cbd 6138 863d ff54 16bd
00000190: 9872 bcbd 71ac 8a3d 0581 673d c004 2cbe
000001a0: d74a 35be b248 28be b570 06be a8e4 2b3e
000001b0: 9cd5 263e 19b9 2abe 48f0 26bd 2510 ab3b
000001c0: e4ef 33be b33f 36be 64e0 0dbe 2224 363d
000001d0: 92b5 e33d 2289 c5bc 042b 383e 0ca2 1b3d
000001e0: 97fd 97bd 85f7 79bc 9164 68bd bff6 5f3c
000001f0: b642 383e a944 333e b9fe 123e b370 2ebe
00000200: 03f5 19be 7649 913d 96fe f6bd caf0 f2bc
00000210: fce1 f7bc fc8c 1ebe 462d 0c3e 4cf5 5ebd
00000220: eab1 43be c8d8 44be 545a 093e ae7a 133e
00000230: 24f7 51bd cbfd 073e bf78 0ebe 9c35 1ebe
00000240: 7d5a bf3d 7493 c23d c17a 243e 609e 44be
00000250: cecf 0f3c 8602 043e 9a29 073e 7751 10be
00000260: 0cbd 47be 5e22 40be e10c 173e d1bb 84bc
00000270: e8dc 83bd 386d 2ebd 0050 b43d 7988 5dbd
00000280: f6f9 093d b53a 33be 99ff f7bd 2d93 483e
00000290: d6a9 c0bb b022 c0bd 5a6d 653c 61d2 b6bc
000002a0: ecbc cf3d 6bef 5f3d a7be 2ebd 9f0b 033e
000002b0: d5c7 78bd 350e 8e3a 15af a13d f88f 1b3e
000002c0: 1025 4e3d 8ee8 423d 312c efbc ab05 9b3c
000002d0: f1bf 2dbe e8d8 fd3d 448c c63d 311b babd
000002e0: dc32 57bd 6ecd bbbd 2930 00bd 7969 e9bd
000002f0: 4896 133e e0d1 94bd 974f 043e e041 853d
00000300: df39 57bd 675f 453e 8f6c b13d 6eb3 b13d
00000310: 1fad 7abb 0df5 253e adb8 313e 4dd1 313e
00000320: e33e 99bd ed17 22be ea6f 08be 180c 5f3c
00000330: b52c 473e 05d2 963c 79da 32bd c534 65bb
00000340: d07f 043e fc00 243d a787 183e b35c b6bd
00000350: 4df2 0b3e bc06 853c 74e5 013c b456 093e
00000360: b914 2abc d29f 233e d288 3ebe 379c 23be
00000370: 7e6c 7d3c 3e1c cf3d bc06 ae3d 04ae b23d
00000380: c2e9 733d f2d2 843d 1d08 403e b917 11be
00000390: 867e a23d 4359 1cbe c9b1 03be bf86 25be
000003a0: f445 323e c174 103e 6e20 febc 46ac e93d
000003b0: e47c 5b3d 54f2 6cbd 9048 b4bd 8744 12bd
000003c0: 215e ba3d e36d c3bd 7023 b53d cad9 253e
000003d0: ab55 be3d 5a59 b83d dcd5 043e 3f63 393d
000003e0: 1e4e 733d 92ba 823d 21da 3bbe f41b 8dbd
000003f0: c469 c0bd 6963 46bb 3b39 603b dbc7 93bd
-0.0860829 -0.14643483 -0.14963107 0.067501165 0.04492324 -0.05533976 0.18420054 0.031669687
-0.17040041 0.069226876 -0.18317334 0.06582787 0.061715927 -0.005012405 -0.18749611 -0.064298965
0.11750115 0.023055606 0.1158055 -0.034422692 0.05635915 0.08218015 -0.14726014 -0.041710585
0.047232296 0.05806354 0.18735611 0.04106764 0.16372374 -0.104269296 -0.14090937 -0.13302667
-0.15483402 0.18285526 -0.098600835 -0.083782956 0.1541747 -0.07782934 0.1425369 -0.03226377
0.100938976 -0.075881995 0.103005014 0.12990473 -0.08980963 0.002331317 0.06313233 -0.051910948
-0.1820173 -0.0347038 -0.10582226 -0.08727401 0.03222309 0.1431754 0.18906076 0.19044867
0.09121631 0.012007712 -0.056288615 -0.023150874 0.054424666 -0.093869746 0.0736781 0.05780796
-0.16472021 -0.07789805 0.0016393026 0.1791388 -0.017945664 0.1260651 -0.12587489 -0.15011156
0.119979516 0.15923797 -0.17632529 -0.04835161 -0.059597496 -0.038787853 -0.060383048 0.113302045
0.06267432 -0.010318496 0.10134813 -0.06977179 -0.1403656 0.15579785 0.08890379 -0.0200391
0.17343356 -0.023911249 0.06288398 0.14473169 -0.0780005 0.09904538 0.0956903 0.09360937
-0.04604395 -0.07624458 0.06553722 -0.036702152 -0.092015445 0.06771172 0.056519527 -0.16798687
-0.1770433 -0.16433981 -0.13128932 0.16786444 0.16292423 -0.16672172 -0.040756494 0.0052204304
-0.1757198 -0.17797737 -0.1385513 0.044468053 0.11118616 -0.024113242 0.17985159 0.037996337
-0.07421415 -0.015256767 -0.056736533 0.013669669 0.17994198 0.1750666 0.14354981 -0.17035179
-0.15034871 0.0709409 -0.12060277 -0.029655833 -0.030259125 -0.15483469 0.13689145 -0.054433152
-0.19110838 -0.1922332 0.13413364 0.14402267 -0.051261082 0.13280408 -0.13913248 -0.15450138
0.09343431 0.09500781 0.16062452 -0.1920104 0.008777572 0.12891588 0.13199463 -0.14093576
-0.1950571 -0.1876311 0.14751007 -0.01620284 -0.06438619 -0.042584628 0.08804321 -0.05408523
0.033685647 -0.17502864 -0.12109298 0.19587393 -0.005879621 -0.09381616 0.014003122 -0.022317113
0.10143456 0.054671686 -0.04266229 0.12797402 -0.06073745 0.0010837974 0.07894722 0.15191638
0.050328314 0.047585063 -0.029195877 0.018923601 -0.16967751 0.12394887 0.09694722 -0.090872176
-0.052538738 -0.09170042 -0.03129593 -0.113970704 0.14412796 -0.07266593 0.12920986 0.06506705
-0.052545425 0.19274674 0.08663284 0.086768016 -0.003825016 0.1620676 0.17355604 0.17364998
-0.07482698 -0.1582944 -0.13323942 0.013613723 0.19450648 0.018410692 -0.043665383 -0.003497408
0.12939382 0.04004 0.14895497 -0.089044 0.13666649 0.016238563 0.007928241 0.13411981
-0.010380917 0.15978935 -0.1860688 -0.1597756 0.015467761 0.10112809 0.08497378 0.08724597
0.0595491 0.06485547 0.18753095 -0.14169206 0.07934289 -0.15268426 -0.12860788 -0.16164683
0.17409497 0.14107038 -0.031021323 0.11409812 0.0535859 -0.05784829 -0.08802903 -0.035709884
0.09099985 -0.095424436 0.0884465 0.16196361 0.092936836 0.090014175 0.12972206 0.045260664
0.05940067 0.06383242 -0.18344928 -0.06890097 -0.09395173 -0.0030271655 0.00342138 -0.07215854

l1.bias f4 [400]
00000000: e492 263e eabc 113d b313 35bd 8284 4b3c
00000010: 9567 d5bc 7f19 be3d 3736 ab3d 4151 0e3e
00000020: fb32 24be a74f a93d b4f3 bcbc b6ef 3b3e
00000030: 86b5 05bc a892 a33d c741 333d 0683 283e
00000040: 0400 3abe 46d4 913c b0fa e5bd c20f d73d
00000050: 5c9e 8d3d 38a3 9a38 098a 8a3c 18aa 02be
00000060: 99de a7bd 4ec2 bcbd e34e 163e 7b8f 353e
00000070: 03e6 85bd 4e9c a13d 2eab 613d 954e ee3d
00000080: 041b 3cbd d0d2 08be 1f3b 9dbc 4964 7e3c
00000090: 08cd 983d a93d 253d 01bc 243d f68a 3abe
000000a0: 9fcf bd3d b5db 2fbe f1c8 23bc c934 2dbe
000000b0: 9380 023e 8a55 5f3d 7ac2 3c3e e4de 273e
000000c0: f509 473e c188 56bc 9a4f b5bd 82ea 3e3e
000000d0: 3341 46be e085 27be 2586 13be 1938 edbc
000000e0: bcc8 0d3e 4386 18be 5147 913c 5efc 13bd
000000f0: 48b6 2bbe 1c18 d83d 7f94 69bc fd4d aa3b
00000100: 7026 053e 2811 b63c 4fba f73d 61dd e03d
00000110: 080b 33be cb1c 393d 0cca 0fbe 7cb2 8f3d
00000120: bc68 bd3b f193 a33d 9c0e 32be c704 1e3c
00000130: cbea bfbd 2cb8 efbc 7d6c 69bd 92b4 0b3d
00000140: df28 a9bd c9a7 3ebe febf 433e 2ec3 193e
00000150: 3534 30bd b121 3d3d e32f dd3d 8045 7a3d
00000160: 43c3 1ebe 0ab9 11bd a086 98bd 7a69 853d
00000170: 894d af3d 236f 40be b72d 1ebe 99f9 1d3d
00000180: bc54 093e cec7 04be 00b1 333d bed4 e3bc
00000190: cbd6 c03c 6142 963d 3762 993d 8b2e 563b
000001a0: 5ef9 acbd 6796 05be b83a 2d3e 2da7 093e
000001b0: 96ee 1b3e 29a1 54bd cc87 ad3d a63e c83c
000001c0: e22b ca3c 702e 02be d6a0 2cbe c484 813d
000001d0: c1a5 03be 432b 163e cd2b 3a3e c38a dd3d
000001e0: 4536 81bc 5385 eebd 1db6 bdbd 4034 1cbe
000001f0: dda2 c5bd f693 d2bc f007 663d 37ba 07be
00000200: db6c 173d 1350 eb3d dd30 39be eb7d 35be
00000210: 5e6a 233d 4094 d1bd 3b4f a33d a849 073e
00000220: d2f4 0ebe f6d8 f2bd 51d1 7c3d f1d1 75bc
00000230: a8b9 2abd 9392 7fbd ced8 f03c 0646 e43d
00000240: 17c4 36bd 94a4 083e b0b2 bcbc ceb5 f6bd
00000250: 070b 0d3e 8630 42bd 4976 ec3d a583 063e
00000260: 5deb a63d a1d2 db3d c64b b2bd b116 1d3c
00000270: 0ee2 0dbe e62e 623a 0594 443e b0af 403e
00000280: 04c5 5cbd 1a8e f83d 4924 b53d 2d7c 34be
00000290: 8593 b7bd 3d72 8ebd 0d7a 44be 404e 27be
000002a0: 69ef db3d db2a 36be ae7d 3f3e 6981 213e
000002b0: b41f f9bd 3227 31bd e533 3bbe eeb2 2d3e
000002c0: 3cf0 bfbd cbef 52bd 0c16 bbbd b251 2dbe
000002d0: bfd9 dabd cb85 d0bd 75bb 88bd 5889 a6bd
000002e0: 9c5a 18be 137f 003e e04a 3cbe ae5c 80bd
000002f0: c9b8 2cbd 1356 bc3d 40c4 e9bb 8e19 2a3d
00000300: 249e 5dbd 1476 223d 7a10 463d f415 ee3c
00000310: c72b 66bc 2f0d 08be ad3e 103e b3c4 e3bd
00000320: 4f7b 45bc 37d9 6abd 9781 d7bd d06f 083e
00000330: 2439 f0bd 2dc2 8b3d 5edf 523d a093 393e
00000340: 21fd 3bbe 4114 033d 1a43 edbd 1110 643c
00000350: ad9e 1c3e 911a 9dbc ed71 d53c e617 193e
00000360: 6a79 9bbd 8d66 883d efdf d03d 3c2c 2fbd
00000370: 9ac8 1b3e 5e32 93bd 86ef 4d3d da30 03be
00000380: 29ed 16be 8935 6b3c e863 8bbd 81ec 273e
00000390: 9b45 a03c 958c 23be 834d 283d dc06 363c
000003a0: ed56 bd3d 5a39 343e cb0e 0b3e 1497 49bc
000003b0: 8251 4ebc a99d 323e 9fe5 3fbc 4e2e d33d
000003c0: 345e b83d 8e89 543d e0b5 ecbc 6919 d13d
000003d0: af94 0c3c 6c7b 0abe da4b 423e 0aa8 b03d
000003e0: 7f8d 343e ec63 8e3d 96fd 47bd 6b35 43be
000003f0: ae6c d5bc d75d 3c3e 10e9 d4bd 7e65 d4bd
0.16266972 0.035580553 -0.04420824 0.012421729 -0.026050368 0.09282207 0.0835995 0.13898183
-0.16035073 0.082671456 -0.023065425 0.18353161 -0.008160954 0.07986957 0.043763902 0.16456231
-0.18164068 0.017801415 -0.112294555 0.105010524 0.0691497 7.373694e-05 0.016911523 -0.12760198
-0.08196754 -0.09216748 0.1467853 0.17730515 -0.06538012 0.07891141 0.05509489 0.11636082
-0.0459242 -0.13361669 -0.01919323 0.0155268395 0.074609816 0.040342007 0.040218357 -0.18217072
0.09268116 -0.17173655 -0.009996639 -0.16914667 0.1274436 0.054524936 0.18433562 0.1639362
0.19437392 -0.013094128 -0.088530734 0.18644145 -0.19360809 -0.16359663 -0.14406641 -0.028957414
0.13846105 -0.14894967 0.017734202 -0.036129348 -0.16768754 0.105514735 -0.014256596 0.005197285
0.13002944 0.022224978 0.120960824 0.10979725 -0.17484677 0.045193475 -0.14041919 0.07016465
0.0057803076 0.07987202 -0.17388386 0.009644694 -0.09370955 -0.029262625 -0.056988228 0.034107752
-0.08259749 -0.18618692 0.19116208 0.15015861 -0.04301854 0.04617471 0.10800149 0.061101437
-0.15504174 -0.035576858 -0.07447553 0.06514259 0.085597105 -0.18792395 -0.15447126 0.038568113
0.1341123 -0.12966844 0.043869972 -0.027811404 0.023539921 0.073368795 0.07489436 0.003268155
-0.084460005 -0.13045655 0.1691693 0.13442679 0.15227732 -0.051911507 0.08473167 0.024443936
0.024679128 -0.12713027 -0.16858229 0.06324151 -0.12856199 0.1466494 0.18180771 0.10817482
-0.015772948 -0.11646523 -0.09263251 -0.15254307 -0.09650204 -0.025705319 0.056159914 -0.13254629
0.036969047 0.11489882 -0.18085046 -0.17723815 0.03989636 -0.102333546 0.079740964 0.13211691
-0.13960579 -0.11857788 0.061723057 -0.015003667 -0.04168096 -0.062395643 0.029400256 0.111461684
-0.0446206 0.13344032 -0.023034424 -0.12046395 0.13773738 -0.047409557 0.115459986 0.13136156
0.08150361 0.10733534 -0.08705859 0.00958793 -0.13855764 0.0008628204 0.1919709 0.1881702
-0.053898826 0.12136479 0.088448115 -0.17625494 -0.08963684 -0.06955383 -0.19187184 -0.16338444
0.10739023 -0.17789786 0.18700287 0.15772022 -0.1216425 -0.04325027 -0.18281515 0.16962788
-0.09371993 -0.051498216 -0.091350645 -0.16925696 -0.10686063 -0.10181769 -0.066763796 -0.08131665
-0.14878315 0.12548475 -0.18387938 -0.06267677 -0.042168412 0.09196105 -0.0071339905 0.041528277
-0.054105893 0.03966339 0.048355557 0.029063202 -0.014048523 -0.13286279 0.14086409 -0.11121502
-0.012053325 -0.05733606 -0.10522764 0.13323903 -0.11729649 0.068241455 0.05148255 0.1812272
-0.1835828 0.032001738 -0.11585064 0.013919846 0.15294905 -0.019177707 0.0260553 0.14950523
-0.07591517 0.06660185 0.10198962 -0.042766795 0.15213242 -0.07187341 0.050277255 -0.12811604
-0.14738907 0.0143560255 -0.06806165 0.16398813 0.01956444 -0.15971597 0.041089546 0.011110034
0.092450954 0.17600003 0.13579862 -0.012304086 -0.012592675 0.17442955 -0.011712461 0.10311566
0.09002343 0.051888995 -0.028895319 0.10209925 0.008580371 -0.13523644 0.18974248 0.08625801
0.17632101 0.06952652 -0.048825823 -0.19063346 -0.0260528 0.18395172 -0.10396016 -0.103709206

l2.weight f4 [300, 400]
00000000: 1042 0d3d 0024 03bc aa69 b03c 2de3 1ebd
00000010: 8dc2 a7bb fa48 26bc e7ca 883c ad60 3ebd
00000020: 1a4d bbbb 3240 00bd 005a 06bc 82d4 003d
00000030: b5e1 423d 6d79 3c3d ed3d b53c e07b 453c
00000040: 501b 00bd 00a0 1539 6a9d e4bc f093 d23c
00000050: eaf7 e03c 152d 2a3d 732d b93c 8336 43bd
00000060: 7287 0b3d 4da2 da3c 43d8 423d 25bd 45bd
00000070: 93f8 5f3c 5a1b 3b3c 33db a9ba 7339 6cbc
00000080: 0f48 4bbd a54f 18bd 826b 453d 759f 14bd
00000090: 0734 1b3d 933c f7bc 8236 0c3d c35c c7bc
000000a0: 3d9b cbbc 6d0e 55bc 0037 1b3c 17f0 a9bc
000000b0: 657e 373d c0be f3bb ed36 6f3c 13bd d6bc
000000c0: 674f dd3b 8023 46bc da7e e63c 3327 5bbb
000000d0: 472c 323d 00f5 b23a bad6 20bc 8792 4ebc
000000e0: c70c b8bc aad0 1e3d 1a6f 6e3c 135d 763c
000000f0: c7f2 b5bc 3315 193b 3d03 df3c 17a8 d9bc
00000100: 8a23 a4bc 0d50 edbb a71e 9bbb e701 8e3b
00000110: 9bea 2f3d 4fcf 48bd a852 47bd 4711 49bd
00000120: f0f3 46bd 58f6 353d da28 79bc b78a 20bd
00000130: 6d60 163d c0fb 4f3c fb5c 4bbd d0bf 3cbd
00000140: 7395 953c 7a2b b6bc a51b 3dbd 1a1c a23c
00000150: f7d1 b23c cac2 bcbc 0011 873b 3089 e63c
00000160: 70a3 efbc a0f6 473c 673e 363b b3c2 0e3b
00000170: e076 463c 4d9e ce3b 0785 dabc 1ba3 353d
00000180: efde 40bd 408e 6bbc 7d7c 383d cdcd 6f3b
00000190: 9b35 243d 1023 893c 2d8c 373c 33bc 293d
000001a0: 3dd4 af3c 2fe0 3bbd 7df3 bbbc 9a13 cd3b
000001b0: 00ec 17bb 4aa1 1dbd 2d3c 3a3c c89e 143d
000001c0: 6d92 943c a315 f83c 6aff 89bc 67e2 43bd
000001d0: a00b a4bc 7ae2 1dbd 628a 073d aad5 033d
000001e0: 9ddf a13c 0fee 273d 1385 39bd a7b4 82bb
000001f0: d83a 0b3d a7df 18bd cd7d 06bd 2d51 d13c
00000200: a386 0d3d 3b51 4b3d 33f4 633c 9a75 553a
00000210: 5a0b 243d e70d 623c 17ab edbc 208a 39bd
00000220: 3373 aeb7 c73c 20bc 60cd 51bc 33cc 8c3c
00000230: 50ec ce3c 1a21 7bbb 5acb 31bc 8052 e93b
00000240: c8e6 373d 4d16 61bb 3d04 40bd 452b 2ebd
00000250: 6bc9 373d 674a b03c 008c f0bb 8dcc 87bb
00000260: d32c 733c 6717 1b3b 1aeb 25bd fa64 e33c
00000270: 67be 983b eb3f 3a3d 4ded ab3b e763 8cbb
00000280: da78 2abc 7f3c 1fbd 9a11 60b9 5a29 a6bb
00000290: f7c0 c6bc afe9 1cbd e7bd fa3b a7b8 a53b
000002a0: a79f e63c cbe4 3abd d896 36bd 77b4 47bd
000002b0: b3f8 f43c 9353 213c 47e6 893c 25ba 15bd
000002c0: a3f4 8c3c 78fd 05bd e37e 0cbd cde8 a539
000002d0: 87ab 4e3c faf9 763c 17e1 353d ba82 f73c
000002e0: 6aeb a6bc c34d 43bd 1ad3 e03c 2350 073d
000002f0: 8740 5bbc f2a0 263d 9350 7dbc 009a 153d
00000300: 2080 ccbc b374 de3b b3cb 2abd 00b8 fdba
00000310: c567 393d 3a7f 45bc 47e5 3b3c cdf4 65bb
00000320: 2a52 c13c 3aba 40bd 9ab8 533b e305 f3bc
00000330: 9a61 1ebb c250 493d 6784 183b a079 c7bc
00000340: b0d7 16bd ea25 91bc 0d76 a03c 27c5 c3bb
00000350: 4a46 4abd d36c d83c 6dba 31bd c792 11bc
00000360: d7ae 0a3d 4ba5 0bbd 63d6 19bd 4af9 0e3d
00000370: 13e1 75bc 6b26 01bd 4859 313d 5ae4 61bc
00000380: fa80 2f3d bf76 2bbd 9bc3 27bd 1dff 2d3d
00000390: 00f7 5bbc 2d39 563c 67a1 1b3b 3df8 ad3c
000003a0: da70 26bc 325e 083d 7343 fe3b 7352 4c3d
000003b0: 2fa4 04bd 45e1 24bd a760 693c 6d5d 473c
000003c0: c864 233d 7320 29bd d85a 1fbd 9abf 90bc
000003d0: b3bc 9c3b 5bb9 34bd 9ad1 e6bb 80ab 8ebc
000003e0: 405e e0bc 1f0e 2f3d 40d3 bbbc 00f6 77ba
000003f0: 77be 8abc fb72 333d 7887 34bd 178c 0abd
0.03448683 -0.008004189 0.02153476 -0.03879087 -0.005119628 -0.010149235 0.016698314 -0.046478916
-0.0057159783 -0.03131122 -0.008200169 0.031452663 0.047578532 0.04601424 0.022124255 0.01205346
-0.031276047 0.00014269352 -0.027907092 0.025705308 0.027461965 0.0415469 0.02260468 -0.04765941
0.034064718 0.02668872 0.047569524 -0.048276085 0.013670105 0.011420095 -0.0012959003 -0.014417994
-0.049629267 -0.03718533 0.04819823 -0.036284883 0.037891414 -0.030180251 0.03423167 -0.024336224
-0.024854297 -0.013003928 0.009473562 -0.020744367 0.044798274 -0.0074385107 0.014600498 -0.026213204
0.0067538503 -0.012093425 0.02813666 -0.0033440113 0.043499257 0.0013653338 -0.00981682 -0.012608177
-0.02246703 0.038773216 0.014552856 0.015036839 -0.022210492 0.0023358583 0.027223224 -0.02656941
-0.020036478 -0.007242209 -0.0047338787 0.004333723 0.042948347 -0.04902583 -0.04866281 -0.049088743
-0.04857248 0.044424385 -0.015207494 -0.03919479 0.036713053 0.012694299 -0.04964922 -0.046081364
0.01825974 -0.022237528 -0.046168942 0.01978879 0.021828635 -0.023042101 0.0041218996 0.028141588
-0.029252738 0.012204796 0.002780819 0.002178353 0.012113303 0.006305492 -0.02667476 0.044345003
-0.047087606 -0.014377177 0.045040596 0.0036591173 0.040090185 0.016740352 0.011202854 0.041439246
0.021463508 -0.045868095 -0.022943253 0.00625844 -0.0023181438 -0.038483895 0.011366886 0.036284238
0.018136228 0.030283755 -0.016845424 -0.047823336 -0.020025074 -0.038546063 0.033090957 0.032186188
0.019759947 0.040998515 -0.045292925 -0.0039888206 0.033991665 -0.037322666 -0.032834817 0.025551403
0.034552228 0.049638014 0.013913202 0.0008142829 0.04004989 0.01379726 -0.029012246 -0.045297742
-2.079606e-05 -0.009780115 -0.012805313 0.017187214 0.025259167 -0.003831929 -0.010851705 0.0071204305
0.044897825 -0.0034345568 -0.046879042 -0.042521734 0.04486982 0.021519853 -0.007340908 -0.0041442574
0.01484223 0.0023665072 -0.040507413 0.02775811 0.0046613696 0.045471113 0.0052467943 -0.00428437
-0.01040479 -0.038876053 -0.00021368862 -0.0050708475 -0.024261935 -0.038308796 0.0076520327 0.0050574127
0.0281523 -0.04562835 -0.04457745 -0.04875609 0.029903745 0.009846586 0.016833438 -0.036554474
0.017206496 -0.03271243 -0.034300696 0.00031644703 0.0126141375 0.0150742475 0.044404116 0.030213702
-0.020375926 -0.04768158 0.027444411 0.03303541 -0.013382084 0.040680833 -0.015461105 0.03652382
-0.024963439 0.006788814 -0.04169817 -0.0019357204 0.045264978 -0.012054259 0.011468238 -0.003508854
0.02359875 -0.0470526 0.0032306076 -0.029665893 -0.0024167062 0.049149282 0.0023272277 -0.024349988
-0.03682679 -0.017718274 0.019587541 -0.00597443 -0.04938344 0.026419079 -0.04339068 -0.008885092
0.033858147 -0.034093183 -0.03755797 0.03490571 -0.015007275 -0.03153078 0.043298036 -0.013787353
0.04284761 -0.041861292 -0.04095803 0.042479623 -0.013425589 0.013075155 0.0023747326 0.021236533
-0.010158742 0.033292957 0.0077595054 0.049883317 -0.03238314 -0.040253896 0.014244235 0.012168271
0.039891034 -0.04129071 -0.038904995 -0.017669488 0.004783237 -0.04412208 -0.0070440294 -0.017415762
-0.027388692 0.042738076 -0.02292788 -0.0009458959 -0.016936524 0.043810826 -0.044074506 -0.033825006

l2.bias f4 [300]
00000000: c799 143c c72d dd3c a35d 953c 9ab4 3f3c
00000010: cfb8 023d 0b73 0c3d 50f2 a93c 00c4 faba
00000020: ed4b 4b3c 0ba5 08bd 009a 4a3a 0ddc 463c
00000030: 3d26 bd3c ba16 03bd 975d 843c 50d0 15bd
00000040: aa4e e43c 07d4 11bd 5f6d 203d c069 bbbc
00000050: db8b 2bbd edc1 5f3c 7df6 43bd 4d60 0e3c
00000060: f3df 96bc 2ff8 403d f0d5 103d 1f4e 12bd
00000070: 82ad 2f3d ea07 b4bc 1acc 3abb 8504 1a3d
00000080: 8029 6dbb bd63 ee3c ca06 83bc cd57 f1ba
00000090: a7e1 37bc cdb2 303d cb3e 15bd d332 883c
000000a0: 4d02 483d 678e 7a3b 185b 193d 8350 94bc
000000b0: f0de a33c 80d8 1ebb b3a2 9abb aad2 043d
000000c0: 931e 393d 6f62 0bbd ad0e f93c 2d2c 3abc
000000d0: 979a 103d 6741 f0ba d566 043d f393 a83c
000000e0: c542 4bbd 47d6 783c 2799 fbbb d7f7 9fbc
000000f0: 3799 1e3d 8094 373d e365 203d a09d e73c
00000100: f3db 64bc 7373 13bc 6337 483d c06b b9bb
00000110: 67fe 6eb9 adbb 25bc 4a99 263d 5745 9a3c
00000120: 438a d5bc 405f e1bb cad8 ac3c b3c7 7ebc
00000130: 8201 10bd a3c6 3d3d 3896 043d 5a4d 25bc
00000140: 47e8 133c 672a 9fbc 9341 e9bc aafc eabc
00000150: 82f7 16bd ff22 2f3d 95ba 093d 6faa 1c3d
00000160: 1adc 663b 102a 08bd a7d7 55bc 1ac0 263d
00000170: 73c6 0abd 4333 97bc bddd 3bbd b098 e43c
00000180: 734c 54bc 0733 bb3c 9a2c 903a ddb0 243d
00000190: 67f6 ba38 00e8 753a 532c 44bc 7d8d a63c
000001a0: 7bcf 1c3d 009d 8ebc 00a9 6a3c 5a22 473c
000001b0: 973d a2bc 272a 293d 4d11 243b bf7d 0bbd
000001c0: baff 1e3d ca48 083d 4dcf 5e3b e753 633c
000001d0: 9ad1 f13c b3c2 553b 65b2 2bbd 586d 023d
000001e0: ad56 333c 17f5 f03c a305 c83c 2804 39bd
000001f0: 6739 9f3b dd69 8f3c e3da c23c 8720 933c
00000200: 5337 16bd d3f6 16bd e702 e13b 6fa3 333d
00000210: e779 05bc 4d7f 3e3b b31b c13c 0308 01bd
00000220: 1a03 bebc b323 2fbd b3d7 3abc d337 023c
00000230: 5a1b e5bc b284 32bd 4d87 0d3d 0ae2 283d
00000240: 809d a43b 33c3 18ba 3f9a 41bd fa7f 80bc
00000250: 67b8 e43c 405a d7bc 008a ffba 8031 98bc
00000260: 8710 31bc c3ea fb3c c777 ecbc 5b53 2fbd
00000270: e002 483d f36b 51bc 9ac9 c53a 22e9 2d3d
00000280: 1a9e b53b abdc 01bd 7da6 823c e0bc eebc
00000290: 2f4c 36bd cd03 033d 3351 d5bb bfa2 243d
000002a0: 8a3d d9bc 271f 80bc 8765 dabc ea7f 3c3d
000002b0: 675d f5bb 9399 0b3d f3e5 b7bb fdc1 153d
000002c0: ed9b 993c 6844 383d 3deb 9b3c f34b df3b
000002d0: b3e9 f73c 6023 55bc d71a 213d cdad 76bb
000002e0: 9af1 3f3a 9a4b 343a 0abb 873c 3258 06bd
000002f0: ed7f d93c ca87 8abc ad2e c6bc e06a 3b3c
00000300: 07d9 093d 67fa ecb9 0bf0 1a3d 8af7 e7bc
00000310: ca79 1c3d 00a6 d4ba 9326 9bbc 03ba dbbc
00000320: d7c8 1f3d dda9 da3c 8d62 0cbd 67ff be3c
00000330: 5d60 adbc e88f 45bd cde5 aa3b 1a5d 27bb
00000340: 8fed 2d3d 675f 363c 1a69 943b 28b6 0ebd
00000350: ed3e af3c 6784 97bb ca6a be3c e38f d63c
00000360: 2723 55bc 1391 a83c 7a72 e63c ea7f 1d3d
00000370: d77a 95bc 9a3a efba e024 44bc 33a7 e63a
00000380: 5d6c e3bc 3a95 343c 4dc5 8f3b 7096 1a3d
00000390: 5de5 2e3d dd41 083d 90e3 833c a7dd 93bb
000003a0: 9329 91bc 4b18 07bd e050 10bc 6d50 a63c
000003b0: db6e 1bbd 1d42 fdbc 5060 d2bc 1309 2f3d
000003c0: b3af 163d 63e7 273d 23d8 afbc 87f1 173d
000003d0: 403b 3cbc 879d 4ebc e378 853c d026 073d
000003e0: c72e 87bc edf0 f2bc b398 603c cd4d af3c
000003f0: 2313 213d 3a7c 13bd 8059 27bc 67aa 43ba
0.0090698665 0.026999367 0.018233126 0.011700774 0.03191453 0.0342894 0.020745426 -0.0019131899
0.012408239 -0.033360522 0.0007728636 0.012137425 0.023089522 -0.032004096 0.016157908 -0.036575615
0.027869541 -0.035602596 0.039166804 -0.022877574 -0.041881423 0.013657075 -0.04784249 0.008689952
-0.018417334 0.047111686 0.035360277 -0.035719033 0.04289008 -0.02197643 -0.0028503002 0.037601966
-0.0036188066 0.029100293 -0.015994448 -0.0018413007 -0.011223233 0.043139268 -0.036436837 0.016625797
0.04883032 0.003823185 0.03744039 -0.018104797 0.020003766 -0.002423793 -0.0047191023 0.032427467
0.045195173 -0.03402942 0.030402506 -0.011363071 0.03530368 -0.0018330038 0.03232463 0.02057836
-0.049624223 0.015187806 -0.0076781693 -0.019527359 0.038720336 0.044819355 0.039159667 0.028273404
-0.013968456 -0.008999693 0.048880946 -0.0056585968 -0.00022792221 -0.010115546 0.04067353 0.018831892
-0.026066905 -0.0068778098 0.021099467 -0.015550542 -0.035157688 0.046332013 0.032369822 -0.010089243
0.009027547 -0.019429399 -0.028473651 -0.028684933 -0.036857136 0.042757984 0.033625204 0.038248476
0.0035226406 -0.03324324 -0.013051904 0.040710546 -0.033880662 -0.01845706 -0.045865763 0.027904838
-0.01295768 0.02285148 0.001099962 0.040207732 8.915067e-05 0.0009380579 -0.011973458 0.020331139
0.038283806 -0.017408848 0.014322519 0.012154186 -0.019804759 0.041299965 0.0025034726 -0.034055468
0.0388181 0.033272542 0.0033998073 0.013874984 0.029518891 0.003261727 -0.041918177 0.03184256
0.010945958 0.029413743 0.02441675 -0.04516998 0.004859138 0.017506534 0.023786014 0.017959846
-0.036673855 -0.036856484 0.006866801 0.043857034 -0.00814674 0.0029067576 0.023572778 -0.03150178
-0.023194838 -0.042758655 -0.011403966 0.00794788 -0.027967144 -0.04358358 0.03455286 0.041231193
0.0050236583 -0.0005827427 -0.04726624 -0.015686024 0.027919961 -0.026288152 -0.0019496083 -0.018578291
-0.010807163 0.030751592 -0.028865708 -0.042804103 0.048830867 -0.012782085 0.0015089989 0.04245866
0.005542529 -0.031704586 0.015948528 -0.029142797 -0.044506248 0.031986047 -0.006509924 0.04019427
-0.026518602 -0.015639855 -0.02665974 0.046020426 -0.007487941 0.034082007 -0.005612129 0.036561955
0.018751109 0.044987112 0.019033069 0.006814474 0.030262804 -0.013008922 0.039332237 -0.0037640214
0.0007322073 0.00068777206 0.01656868 -0.032798953 0.026550258 -0.016910452 -0.024192179 0.011439055
0.03365424 -0.00045199992 0.03782658 -0.028316278 0.038202085 -0.0016223788 -0.018939292 -0.026822096
0.039009895 0.026692325 -0.034273673 0.023315145 -0.021164114 -0.048232943 0.0052153827 -0.002553767
0.04246288 0.011131144 0.0045291306 -0.034841686 0.02139231 -0.004623938 0.02324428 0.026191657
-0.013008869 0.02057699 0.028130759 0.038452066 -0.018247051 -0.0018251718 -0.011971682 0.0017597437
-0.027761633 0.0110219065 0.0043875338 0.037741125 0.042699207 0.033265937 0.016099721 -0.004512507
-0.01772002 -0.032982152 -0.008808345 0.020302022 -0.037947517 -0.030915314 -0.025680691 0.042733263
0.036788654 0.040992152 -0.021465367 0.037095573 -0.011488736 -0.0126108 0.016292995 0.032996
-0.016501797 -0.029655898 0.013708281 0.021399403 0.03932489 -0.036007144 -0.01021421 -0.00074640516

l3.weight f4 [2, 300]
00000000: 1989 93bb 59cd 1b3d b708 213d c727 3bbd
00000010: 4450 b83c 4f8b 1a3d 4929 8abc c1f9 1b3d
00000020: ff5a 893b c34b af3b 6341 38bd 6f39 5dbd
00000030: 3e18 a2bb 63a8 383d 6773 30bd be32 4a3c
00000040: c920 72ba 91f6 49bd 0f14 323d cd75 403b
00000050: d93f 723c 4d57 ac3c d4dc b2bc f90e 34bd
00000060: 2a59 3bbd 327c 93bc f374 61bd 8f68 02bd
00000070: 7791 6abd 5596 3f3d 70cd 493d a00a 383d
00000080: 0487 ee3c 8500 4cbd 25c7 333d 0464 58bd
00000090: 0c3a bf3c 9d14 243d cd0c fabc fcee 16bd
000000a0: 11c2 66bd 0609 5f3c 18bf 0abd 549b e8bc
000000b0: c62f fa3b 72b0 313c 91d4 f9bc 4d84 f4bc
000000c0: 5a37 d7bc b9a0 eabc dce8 aebc f485 0e3d
000000d0: a6f9 3a3d 876c af3c e3ec 91bc 738a 79bc
000000e0: 7b17 bebc 2833 323d 7279 1f3d d0e3 eebc
000000f0: 8895 2a3d 7d1e 553d 0299 373d 921f 37bd
00000100: be5e f0bc 7aa9 44bd a627 133d c780 573d
00000110: ede6 0ebd 10d3 023d 89df 6bbd 10b1 3cbd
00000120: b017 ccbc e67b 203b 4b8c 00bd 7fe1 1c3c
00000130: baff 643d 345e 0e3d 10c9 b33c d1de b73c
00000140: 1f13 08bd 425c 163d 14a3 3c3d 02e6 463d
00000150: 7096 513d b8b6 31bd 2a56 0e3c e522 403d
00000160: 8a65 5f3d 05eb 31bc aff3 543d 561e d8bc
00000170: fb6d 623d c3ac 583d be1d 03bd a60e f53a
00000180: db51 f43c 3b1f 53bc 2085 adbc 37ec 403c
00000190: b6c9 163d 5a64 b1bb 98b2 17bd ce02 21bd
000001a0: 1912 1c3d 16e1 543d c430 243d 9a2f 20bc
000001b0: 315c 003d 1d93 2bbd 195f 013d d810 e13b
000001c0: 3e2b 5abd fc62 523c eb95 a7bc 657d 65bd
000001d0: cf64 b73c 041b 21bd fb39 42bb 6550 fa3b
000001e0: e8e3 3cbd d8fc 4abc 4eea fe3c b858 d33c
000001f0: 82ab 16bd 811a 0abd 33e0 febc 46aa 2f3d
00000200: 0b45 0abd e881 ae3c df20 4fbd 619c d03b
00000210: 2536 0f3c 6021 3fbd e03c cabc 9d9f e43b
00000220: 92c3 293d 63d8 50bd 5195 aabc 35c6 0b3c
00000230: fa00 33bd 2f9c a1bc 47f0 dc3c cd20 093d
00000240: 4b53 12bb e72d b7bc ab31 9f3c 794e c4bb
00000250: 5bdc 58bc e8cc bcbc 7bfa be3c a1c1 38bd
00000260: 50cf 2ebd 5db8 fe3c eb0e f2bc 0671 15bd
00000270: a91b 1bbd 6016 50bb eccd 58bc 3521 303c
00000280: ee70 023d 8fd2 0abd b0b6 d7bc 0cb5 303d
00000290: 43a2 a6bc 8fe2 5cbd 9d5e 04bd fe2c 4b3d
000002a0: 08cd a5bc b148 8b3a 2bd1 e7bc 6d9f e3bc
000002b0: d298 833c 6cbe 5fbd 4023 15bb f00a abbb
000002c0: 8831 843c d51a af3c 39c5 60bd 6068 1e3d
000002d0: 906d 323d 2add 3a3c 2edd cdbc 9e21 31bd
000002e0: 07f1 61bb 80cd 45bd 51a6 173d 6bbd 43bd
000002f0: 9722 4d3d 13db 0f3d 8de0 3c3d cd1d 533d
00000300: fea3 233d 59e3 e03b 0d71 463c 9eb1 67bb
00000310: 9387 02bd 57a6 34bd 0d7b 64bd 00e0 553c
00000320: 0425 5ebd 73b7 05bd ca29 813c 3fab 8a3b
00000330: b0d0 6e3c 35fa c33c efbf ca3c 57c5 b3bb
00000340: 7c97 2bbd dd02 0cbd 8f06 6e3c 5b05 6c3d
00000350: 2c06 06bd d358 43bd e172 27bd 68c5 083c
00000360: deb6 e83c f4c9 7a3c c602 15bc ebdc f63c
00000370: d329 64bd cf08 9ebc 39f4 41bd 1917 003d
00000380: 406c 1c3d cf6d 5dbc 4848 1e3d 1e3a 633c
00000390: 9c12 053d e77d 53bd 5b65 c23c 2ae5 093d
000003a0: 57d7 f8bc db07 d5bc 17c8 643d a3a4 5ebd
000003b0: e66d e13c 5999 24bd e49d 593d 0350 bc3c
000003c0: 3695 d3bc c791 53bd b688 53bc ed02 44bc
000003d0: 48c8 2dbd 483a fa3b 429b 27bc 7132 92bb
000003e0: c0bb 4ebd 45a0 c9bc 6436 46bd 9bb2 90bc
000003f0: a9d3 c63c d544 913c 3d66 523d 5c5b 153d
-0.0045024273 0.03803763 0.03931495 -0.04569223 0.022499211 0.03773051 -0.01686539 0.03807998
0.004191756 0.0053496077 -0.044984233 -0.05400985 -0.0049467376 0.04508246 -0.043078806 0.012341199
-0.0009236453 -0.04930741 0.04347616 0.002936709 0.01478573 0.021037722 -0.021833815 -0.04395959
-0.04573933 -0.018003557 -0.055043172 -0.031837996 -0.057267632 0.046774227 0.049268186 0.044932008
0.029117115 -0.049805183 0.04389109 -0.052829757 0.023343109 0.04005872 -0.030523682 -0.036849007
-0.05633742 0.013612991 -0.033873647 -0.028394379 0.0076350896 0.0108452905 -0.030496867 -0.029848242
-0.02627151 -0.028641092 -0.02135127 0.034795716 0.04564824 0.021414055 -0.017813152 -0.015230763
-0.023204556 0.043505818 0.03893418 -0.029161364 0.04164651 0.05203103 0.044823654 -0.044707842
-0.029342052 -0.048013188 0.035926484 0.052613046 -0.034888197 0.031939566 -0.057586227 -0.046067297
-0.024913639 0.0024487912 -0.031383794 0.009575247 0.055907942 0.034757808 0.02194646 0.022445114
-0.03322136 0.036709078 0.04605396 0.048559196 0.05116886 -0.043387145 0.008687535 0.046908278
0.054540195 -0.010859256 0.051990207 -0.026381653 0.055280667 0.052899133 -0.032010786 0.0018696382
0.029824188 -0.012885864 -0.021181643 0.011775068 0.03681346 -0.005413574 -0.037035555 -0.039309315
0.038103197 0.05197247 0.04008557 -0.009776974 0.03133792 -0.041888345 0.031584833 0.006868463
-0.053263895 0.0128409825 -0.020457229 -0.05602779 0.022386936 -0.039332405 -0.002963661 0.0076389783
-0.046115786 -0.012389384 0.031117585 0.02579914 -0.036784656 -0.033716682 -0.031112766 0.042886995
-0.03375725 0.021302179 -0.050568458 0.006366298 0.008740936 -0.04666269 -0.02468723 0.006977035
0.041446276 -0.050987612 -0.020823153 0.008531143 -0.043702103 -0.019727794 0.026970042 0.033478547
-0.0022327479 -0.022360755 0.019432863 -0.0059908 -0.013236131 -0.023046926 0.023312798 -0.045106534
-0.042678177 0.03109377 -0.029548129 -0.03648474 -0.037868176 -0.0031751618 -0.013232689 0.010750105
0.03184598 -0.03389221 -0.02633223 0.04314141 -0.020341044 -0.053927 -0.032316793 0.049603455
-0.020239368 0.0010626522 -0.028297981 -0.027785981 0.016064081 -0.05462496 -0.0022756606 -0.0052198097
0.0161369 0.0213751 -0.054875586 0.03867376 0.04356152 0.011405269 -0.02512988 -0.04324495
-0.003447594 -0.048291683 0.037023846 -0.047788065 0.050081816 0.035121035 0.046112586 0.051542092
0.039951317 0.0068630395 0.012111914 -0.003535367 -0.031867575 -0.044103947 -0.055781413 0.013053894
-0.05423452 -0.032645654 0.015766997 0.00423184 0.014576122 0.023923019 0.024749724 -0.005486171
-0.041892514 -0.03418242 0.014527931 0.057622295 -0.03272073 -0.04769213 -0.04088104 0.008347847
0.02840751 0.015306938 -0.0090948995 0.030134639 -0.05570395 -0.01929131 -0.04735205 0.031272028
0.038189173 -0.01351495 0.03864315 0.013868837 0.03248845 -0.05163374 0.02372997 0.033665814
-0.03037612 -0.026004722 0.055854883 -0.05435623 0.027518224 -0.040185306 0.05312909 0.022987371
-0.025827985 -0.051652696 -0.012911012 -0.011963588 -0.04242733 0.007636342 -0.010229887 -0.0044615795
-0.05047202 -0.024612555 -0.048391715 -0.01766329 0.02427085 0.017733017 0.051367033 0.03646408

l3.bias f4 [2]
00000000: 8ea8 493c a3b3 e3bc
0.012308253 -0.027795618
