models_backup/actor_750.pth (torch, 529709 bytes, 6 tensors)

l1.weight f4 [400, 26]
0	0xbd9529d2	-0.07283367
1	0xbe21fcb1	-0.1581905
2	0xbe4324c4	-0.19056994
3	0x3e2923d2	0.1651757
4	0x3e1aed7a	0.15129653
5	0x3d21f6fa	0.039542176
6	0x3d865cf9	0.06560702
7	0xbb82ce1d	-0.003991856
8	0xbdc4eb15	-0.09615151
9	0x3be4e708	0.006985549
10	0x3dec51b7	0.11539023
11	0xbe6596f0	-0.2242086
12	0xbe7c6bd7	-0.24650513
13	0x3e24376c	0.16036767
14	0xbe62a4f1	-0.22133233
15	0x3e0b6602	0.13613132
16	0x3e16f21b	0.14740793
17	0xbe3a37a6	-0.1818529
18	0x3e15a574	0.14613897
19	0x3e71ae9c	0.23601764
20	0x3ea7db79	0.32784632
21	0x3e652ab6	0.22379574
22	0xbe09d55f	-0.13460301
23	0xbe02056c	-0.12697381
24	0x3c907153	0.017632162
25	0x3e34112a	0.17584673
26	0x3e1dde2a	0.1541678
27	0x3e43e8ca	0.1913177
28	0x3d24038c	0.040042445
29	0x3e0b6a03	0.13614659
30	0xbb76c258	-0.003765246
31	0x3d884f35	0.066557325
32	0x3e0a9b1b	0.1353573
33	0xbe101906	-0.14072046
34	0xbddde006	-0.10833745
35	0xbe20bbbb	-0.15696613
36	0xbe383bac	-0.17991513
37	0xbe8f91f0	-0.2804103
38	0xbdd21e96	-0.1025974
39	0xbd9ff88d	-0.07811079
40	0xbe8f81d6	-0.28028744
41	0x3d258577	0.040410485
42	0xbe046fe8	-0.12933314
43	0x3dc0b39d	0.094092585
44	0x3db7a1ff	0.08966445
45	0xbc89bfa3	-0.016815012
46	0x3e46bc59	0.19407786
47	0xbe0e0dc2	-0.13872436
48	0x3dae19f0	0.08501041
49	0xbe38467d	-0.17995639
50	0x3e26c841	0.16287328
51	0xbe8b7318	-0.27236247
52	0x3e129e88	0.14318287
53	0x3e31d90e	0.17367956
54	0x3e6c603b	0.23083584
55	0xbcf12dd4	-0.029440798
56	0xbe0e8956	-0.13919577
57	0x3d7d3621	0.0618192
58	0x3d22861a	0.03967867
59	0x3e02c3e2	0.12770036
60	0xbcb6b250	-0.022301823
61	0xbd204d87	-0.039136436
62	0xbcca1a22	-0.024670664
63	0x3dc520be	0.09625386
64	0xbe7fac24	-0.2496801
65	0x3d8f6d47	0.07003265
66	0xbc45eba7	-0.01208011
67	0xbe80850d	-0.2510151
68	0xbe01a156	-0.12659201
69	0xbdbfda3c	-0.09367797
70	0xbe49e36f	-0.19715665
71	0x3dc10228	0.094242394
72	0x3d90a27c	0.070622414
73	0xbe1242aa	-0.14283243
74	0x3e103004	0.14080817
75	0xbda25b34	-0.07927552
76	0x3db2a613	0.087230824
77	0x3e0e47a9	0.13894524
78	0x3dc8e339	0.09808964
79	0x3dd2bc16	0.10289781
80	0x3dde566d	0.10856328
81	0x3e1c1412	0.15242031
82	0xbce20931	-0.027592273
83	0x3cf8f0c3	0.030388242
84	0x3d909ac4	0.07060769
85	0x3cc65904	0.024212368
86	0x3de5a171	0.11212433
87	0xbd35b0b1	-0.04435796
88	0xbd297e4a	-0.041380204
89	0xbe128067	-0.14306794
90	0x3d85e15e	0.06537126
91	0xbddbe56c	-0.10737118
92	0xbe69d57e	-0.22835347
93	0xbdfb4562	-0.12269093
94	0xbe157c78	-0.14598262
95	0xbd33bd2d	-0.043881584
96	0xbe79be8d	-0.24389096
97	0x3d057123	0.0325786
98	0xbe098985	-0.13431366
99	0x3d960905	0.07325939
100	0x3e198360	0.14991522
101	0xbe3c54c4	-0.1839171
102	0x3d756a3e	0.059915774
103	0x3e035dbd	0.12828727
104	0x3ceaf2a7	0.028680159
105	0xbb77d3b1	-0.0037815387
106	0x3db6211f	0.08893036
107	0x3e0061e6	0.12537345
108	0x3c2a33d8	0.010388337
109	0xbbdd7a13	-0.006758937
110	0x3d4aa5a9	0.049474392
111	0x3e8764e5	0.26444164
112	0x3cae4a0d	0.021275545
113	0xbd9d4374	-0.07678881
114	0xbe801b8a	-0.2502101
115	0xbcecb0d2	-0.028892908
116	0xbe3ea051	-0.18615843
117	0xbe0bb71a	-0.13644066
118	0x3dc398a1	0.09550596
119	0xbd9b354f	-0.07578527
120	0x3ddd7eee	0.108152255
121	0x3de997fd	0.114059426
122	0xbca61e73	-0.020278191
123	0xbc5dc167	-0.01353488
124	0xbe214755	-0.15749867
125	0x3d553a12	0.052057333
126	0xbe6011fd	-0.21881862
127	0xbdbd435b	-0.09241363
128	0x3cfa49e1	0.030552806
129	0xbe9eb103	-0.30994424
130	0x3d09bef6	0.03362938
131	0x3e082e81	0.1329899
132	0xbd609998	-0.05483398
133	0xbd9197c5	-0.07109026
134	0x3e15ab5e	0.14616153
135	0x3d6fcadb	0.058543067
136	0x3dd14c6d	0.10219655
137	0xbd2f0b17	-0.042735185
138	0x3d0d4419	0.03448877
139	0xbbe7926a	-0.0070670145
140	0x3c8ecf1c	0.017432742
141	0xbe3d115c	-0.18463653
142	0xbdca9b16	-0.098928615
143	0x3b7b4b74	0.0038344534
144	0xbdf73144	-0.120699435
145	0xbe01157d	-0.12605853
146	0x3e14cd67	0.1453148
147	0x3e367cd2	0.17821053
148	0x3dc7562c	0.09733233
149	0xbd9a73ec	-0.075416416
150	0xbdd5f0d2	-0.104463235
151	0x3b98d90f	0.0046645473
152	0x3e29e558	0.16591394
153	0x3e0c3660	0.13692617
154	0xbdca3b49	-0.09874589
155	0xbdb23a28	-0.08702499
156	0xbd5f1da7	-0.054471638
157	0xbda4b7c9	-0.08042867
158	0x3d3f0d94	0.04664381
159	0xbd252686	-0.040319942
160	0xbe99da1a	-0.3004921
161	0xbe508923	-0.20364814
162	0xbe935739	-0.28777483
163	0xbe8875e5	-0.26652446
164	0xbe11c9a6	-0.14237079
165	0x3dc4c141	0.09607173
166	0x3de829ef	0.11336123
167	0xbe811bf6	-0.25216645
168	0xbe9540a1	-0.2915087
169	0x3e29d01a	0.1658329
170	0x3cc3ac44	0.023885854
171	0xbe1207e0	-0.14260817
172	0x3e56c24a	0.20972553
173	0x3e2880ee	0.16455433
174	0xbd7a92eb	-0.06117527
175	0x3e520e6c	0.20513314
176	0x3e5b1e60	0.21398306
177	0xbda86f90	-0.08224404
178	0x3c415608	0.011800297
179	0x3e0fd614	0.14046508
180	0xbc39fbaa	-0.011351505
181	0x3d7481a3	0.059693944
182	0xbe2a7ca8	-0.16649115
183	0xbe00f8f9	-0.12594976
184	0x3db61e51	0.08892501
185	0x3c93538a	0.01798417
186	0x3e3895f0	0.18025947
187	0x3e5e0582	0.21681789
188	0x3e36358b	0.17793863
189	0xbe70f886	-0.23532304
190	0x3dddf4d1	0.10837711
191	0x3d48ffb9	0.049072
192	0x3c49e208	0.012321956
193	0xbd8db282	-0.06918813
194	0x3dbc3cdf	0.09191298
195	0x3bad5849	0.0052900654
196	0xbe19cc9a	-0.15019456
197	0x3da9a4fb	0.08283421
198	0xbdcc467c	-0.09974381
199	0xbe105c3b	-0.14097683
200	0xbe9e0fa7	-0.30871317
201	0xbde8c0cc	-0.11364898
202	0x3da598ba	0.08085771
203	0xbe92fdb3	-0.28709182
204	0xba80905e	-0.000980865
205	0xbea992bb	-0.3311976
206	0x3e86d40a	0.26333648
207	0x3df68ce9	0.12038595
208	0xbe42543f	-0.1897745
209	0x3e4e302a	0.2013556
210	0x3e3139f2	0.1730726
211	0x3e2cde07	0.16881572
212	0xbde18a4f	-0.110127084
213	0x3e22424c	0.15845603
214	0x3c237b23	0.009978089
215	0x3e063a05	0.1310807
216	0xbe207339	-0.15668954
217	0x3e32469f	0.17409752
218	0xbda87ad5	-0.08226553
219	0xbe4147bf	-0.18875025
220	0xbe47d016	-0.19512972
221	0xbd217f05	-0.039427776
222	0x3d128d88	0.035779506
223	0x3c49c1a9	0.012314239
224	0x3d289c26	0.04116454
225	0xbc530adc	-0.012881007
226	0xbb63ccbe	-0.0034759487
227	0x3e2d987f	0.16952704
228	0x3d95af72	0.07308854
229	0xbdab2206	-0.08356099
230	0x3d5d503e	0.054031603
231	0x3e278de5	0.16362722
232	0x3e48733c	0.19575208
233	0x3e29d0de	0.16583583
234	0xbddf3e3f	-0.109005444
235	0x3e2edf98	0.17077482
236	0x3d86aed5	0.06576315
237	0x3e18f322	0.14936498
238	0xbdea1833	-0.11430397
239	0x3d0eac21	0.034832124
240	0x3d5fa22e	0.054598026
241	0x3d0a195a	0.033715583
242	0xbe09e538	-0.13466346
243	0xbe2360e1	-0.15954925
244	0xbd09db35	-0.033656318
245	0xbe1df13c	-0.15424055
246	0xbe89a5d3	-0.26884326
247	0xbe280bd9	-0.1641077
248	0xbe83d148	-0.25745606
249	0xbde78887	-0.113053374
250	0x3dc95b3c	0.09831855
251	0x3e2d7276	0.16938195
252	0x3e19b197	0.15009151
253	0x3ca8c7dd	0.020603115
254	0x3ccf4e5d	0.025305921
255	0x3e10ac46	0.14128217

l1.bias f4 [400]
0	0xbdc0b2f7	-0.09409135
1	0x3b5ee664	0.0034011835
2	0xbe5a5a5d	-0.21323533
3	0xbe3d9616	-0.18514284
4	0x3e5c57bb	0.21517842
5	0x3e1fc46e	0.15602276
6	0x3e1033d6	0.14082274
7	0x3b7bd047	0.0038423704
8	0x3d0d127f	0.034441467
9	0x3cd6a486	0.026201498
10	0xbdfea2b7	-0.12433379
11	0x3e522544	0.20522028
12	0xbd9e13da	-0.0771863
13	0x3db7cf26	0.08975057
14	0xbe2cf54c	-0.16890448
15	0xbdeddae4	-0.11614016
16	0xbdf3c408	-0.11902624
17	0xbdd79765	-0.10526923
18	0x3d5e33ca	0.05424861
19	0xbd99887f	-0.07496738
20	0xbda0a8ef	-0.078447215
21	0xbe10e912	-0.1415141
22	0x3de33d86	0.11095719
23	0xbe01a355	-0.12659962
24	0xbe2c0f18	-0.16802633
25	0xbd6f093f	-0.058358427
26	0xbe22d36c	-0.15900964
27	0xbe709e2b	-0.23497836
28	0x3e058b91	0.13041522
29	0x3e2f7596	0.17134699
30	0xbe774c7c	-0.2415027
31	0x3d6576b9	0.056021426
32	0x3db717e8	0.08940107
33	0xbdf009a8	-0.11720592
34	0xbc819d62	-0.015822116
35	0xbe44167f	-0.19149207
36	0xbd3103ba	-0.043216445
37	0x3dbf3cc0	0.09337759
38	0x3e87fe79	0.26561335
39	0x3de852c8	0.11343914
40	0xbe3320d8	-0.17492998
41	0xbe3c9494	-0.18416053
42	0x3e1136e9	0.14181103
43	0xbe3c146c	-0.18367165
44	0x3e74af11	0.23894908
45	0xbb1b258e	-0.0023673507
46	0xbc594130	-0.013260171
47	0x3d1d305b	0.038376193
48	0xbe317547	-0.17329894
49	0xbe4491aa	-0.19196191
50	0x3df83e11	0.12121213
51	0x3dfd1bcb	0.12358817
52	0x3e8628f3	0.26203117
53	0x3d8721ac	0.06598219
54	0xbe045bee	-0.12925693
55	0xbd9aff58	-0.07568234
56	0xbe1772b3	-0.14789848
57	0xbd8a3ab7	-0.0674948
58	0x3daf7af7	0.085683756
59	0xbe5ef6b0	-0.21773791
60	0x3d6bc21d	0.057558168
61	0xbda56e58	-0.08077687
62	0xbe07729a	-0.13227311
63	0xbdb661f3	-0.08905401
64	0xbc88c328	-0.01669462
65	0x3d7d8a82	0.06189967
66	0x3e02468b	0.12722223
67	0xbb31ac5d	-0.0027110793
68	0xbe2eaef4	-0.17058927
69	0x3cdf1649	0.027232306
70	0xbd8e32e1	-0.06943298
71	0x3ccfbde6	0.025359105
72	0xbd8476ca	-0.0646797
73	0xbd41d352	-0.04732067
74	0x3e08bb8a	0.1335279
75	0x3dab57dc	0.08366367
76	0xbcc77f1c	-0.024352603
77	0xbe15a0c2	-0.14612105
78	0x3dca56f0	0.09879863
79	0x3e0edd0f	0.13951515
80	0x3e5eae6e	0.21746227
81	0xbdd6bc6e	-0.10485159
82	0x3d89cd4f	0.06728613
83	0xbdeb2c17	-0.11483019
84	0xbd808510	-0.0627538
85	0xbe430c3b	-0.19047634
86	0x3dec2282	0.11530019
87	0xbe3e3242	-0.1857386
88	0xbe547d11	-0.20750834
89	0xbe0cb37d	-0.13740344
90	0x3e40ede5	0.1884075
91	0x3e12cf2d	0.14336844
92	0x3e8edefb	0.27904496
93	0xbe5751db	-0.21027319
94	0x3df023ce	0.11725579
95	0xbdf677db	-0.12034579
96	0x3e5a901c	0.21344036
97	0x3dc8d56e	0.098063335
98	0x3cd8351f	0.026392518
99	0x3be1eca1	0.0068946634
100	0x3db1b34a	0.08676775
101	0xbe2aa988	-0.16666234
102	0x3d4f0f7f	0.050551888
103	0xbde489ac	-0.11159071
104	0x3deb55aa	0.114909485
105	0xbda0db47	-0.07854324
106	0xbd3059e5	-0.04305448
107	0x3e2be789	0.16787542
108	0xbdc0d4e7	-0.09415608
109	0xbe218d73	-0.15776615
110	0x3bbaafa5	0.005697208
111	0xbe3a5ead	-0.18200178
112	0xbd8822e1	-0.066472776
113	0xbe35fa2e	-0.17771217
114	0xbe30a2b6	-0.1724957
115	0x3de62475	0.112374224
116	0xbd290055	-0.041260082
117	0x3dcadef6	0.09905808
118	0x3e4f7a12	0.2026141
119	0xbd8c85ab	-0.06861433
120	0x3d3007dc	0.042976245
121	0x3d8908f7	0.06691163
122	0xbdcb3d32	-0.099237815
123	0x3e81bd85	0.25339904
124	0x3d450fa0	0.048110604
125	0xbd371335	-0.04469605
126	0x3e360ed3	0.17779092
127	0xbc984b3a	-0.018590558
128	0xbd1301e2	-0.035890467
129	0x3e18701b	0.14886515
130	0x3d562e6c	0.052290365
131	0xbe08256f	-0.1329553
132	0x3d85984d	0.0652319
133	0x3aa5c623	0.001264755
134	0xbbca98f8	-0.006182786
135	0x3e0d9ce6	0.13829383
136	0x3de8c6f5	0.11366073
137	0x3d4d3408	0.05009845
138	0x3e3ec578	0.18630016
139	0xbdba6284	-0.091008216
140	0xbd9e9da0	-0.07744908
141	0xbd1a4e04	-0.037672058
142	0xbc21c5e8	-0.009873845
143	0xbe46558b	-0.1936857
144	0x3dffc20e	0.12488185
145	0xbc96b674	-0.018397547
146	0x3e30d22a	0.17267671
147	0xbe3943c5	-0.18092258
148	0x3e01eb3c	0.12687391
149	0xbdef610e	-0.116884336
150	0xbb6bfaef	-0.0036007722
151	0x3cc50a93	0.024052894
152	0xbd55abed	-0.052165914
153	0x3c1a43a7	0.009415544
154	0x3c261e0f	0.010139002
155	0x3da086ef	0.078382365
156	0x3e29b1f6	0.16571793
157	0x3e1cb69e	0.15304038
158	0x3dbfa22b	0.09357103
159	0x3d1e60d9	0.03866658
160	0xbc2ab173	-0.010418284
161	0x3e39fab1	0.18162037
162	0xbc47df63	-0.012199256
163	0xbe11922a	-0.14215913
164	0x3e55d591	0.2088225
165	0x3e1a8456	0.15089545
166	0xbe08af84	-0.13348204
167	0x3e0b4a66	0.136026
168	0xbe15f715	-0.14645036
169	0x3d9cd01d	0.07656882
170	0xbe12c96f	-0.14334653
171	0x3e227829	0.1586615
172	0x3da608a6	0.08107118
173	0x3da28a92	0.079365864
174	0x3d39ec60	0.04539144
175	0x3e091b77	0.13389383
176	0x3dea12f5	0.11429397
177	0xbd6d042c	-0.057865307
178	0x3d73a5dc	0.059484348
179	0x3de9d8eb	0.11418327
180	0x3e1ea033	0.15490799
181	0xbc877877	-0.016536934
182	0x3e07479d	0.13210912
183	0x3e220ac9	0.15824427
184	0x3df4ca80	0.11952686
185	0xbd32b6d3	-0.043631386
186	0x3dcbc751	0.09950126
187	0xbc220914	-0.00988986
188	0x3dd97ea2	0.106198564
189	0xbd5a3905	-0.053277034
190	0x3d5b2ab8	0.053507537
191	0xbc7d1e01	-0.015449048
192	0x3e251173	0.16119938
193	0x3c62217b	0.013801928
194	0xbdd15a20	-0.10222268
195	0x3d033ce8	0.032040507
196	0x3dcfa624	0.10139111
197	0x3e2503ba	0.16114703
198	0xbc4c5334	-0.012471009
199	0xbe407701	-0.18795396
200	0xbdfd95fe	-0.12382124
201	0xbe17f18e	-0.1483824
202	0xbdf7424f	-0.12073194
203	0x3d3210dc	0.04347311
204	0xbdfdec22	-0.123985544
205	0x3e685aff	0.22690962
206	0xbe41292d	-0.18863364
207	0xbd9eb22a	-0.07748826
208	0xbe3f5008	-0.18682873
209	0x3d9ec5ad	0.077525474
210	0xbe0ef5c7	-0.13960944
211	0x3dbea99d	0.09309695
212	0x3e1b034f	0.15137981
213	0x3dba57b9	0.09098763
214	0xbd161761	-0.03664339
215	0xbd6043f6	-0.054752313
216	0x3e0de02f	0.1385505
217	0x3cb69451	0.02228752
218	0xbc99d80e	-0.01877978
219	0xbdcabc3e	-0.098991856
220	0xbdc0ad2c	-0.0940803
221	0xbd5de577	-0.054173913
222	0xbe1e1029	-0.15435852
223	0xbc805deb	-0.015669784
224	0xbde7572d	-0.11295924
225	0xbd64c75f	-0.055854198
226	0x3e165594	0.14681083
227	0x3b757014	0.0037450837
228	0x3db2951e	0.08719848
229	0xbd27fd35	-0.04101296
230	0x3dabb97e	0.08384989
231	0x3c242730	0.010019109
232	0xbe34d7cc	-0.17660445
233	0x3e1293d1	0.143142
234	0x3d59fa2b	0.053217094
235	0x3e0f1032	0.13971022
236	0xbd41431d	-0.047183145
237	0x3e3f641d	0.18690534
238	0x3dcdea3b	0.100544415
239	0xbced332c	-0.028955065
240	0x3d1ccdf0	0.038282335
241	0xbd9378c9	-0.07200772
242	0xbd839cac	-0.06426367
243	0x3db9226f	0.09039771
244	0x3d91c263	0.071171544
245	0xbe545714	-0.20736343
246	0xbd1d55ab	-0.038411777
247	0x3e4aca22	0.1980367
248	0xbe07bd37	-0.13255773
249	0xbdf57b83	-0.119864486
250	0x3e3a7c10	0.18211389
251	0xbdd19216	-0.10232942
252	0xbdb9704d	-0.09054623
253	0xbdec638d	-0.11542425
254	0x3d9d2ded	0.07674775
255	0xbe1b6b07	-0.15177546

l2.weight f4 [300, 400]
0	0x3d5d4459	0.05402026
1	0xbcc30689	-0.023806827
2	0xbdc7eb8e	-0.09761725
3	0x3cad986b	0.021190843
4	0xbd6e876b	-0.058234613
5	0xbdea2be3	-0.11434152
6	0x3cecc0d0	0.028900534
7	0xbd602865	-0.054726023
8	0xbda58756	-0.08082454
9	0xbce35426	-0.027750086
10	0xbcde35f0	-0.027125329
11	0x3d4be28a	0.04977659
12	0x3d259016	0.040420614
13	0xbdb63895	-0.08897511
14	0x3d33dc01	0.043910984
15	0xbd2ea629	-0.04263893
16	0xbdb9ca10	-0.090717435
17	0x3c833367	0.016015721
18	0x3cccd322	0.02500302
19	0x3d5c82a8	0.05383554
20	0xbb896294	-0.0041926596
21	0x3d77d7f5	0.060508687
22	0xbbb77755	-0.0055989423
23	0x3d5e6aaf	0.05430096
24	0x3d128914	0.03577526
25	0x3d35a0d6	0.04434284
26	0x3cdd31f1	0.027001353
27	0x3bf056a9	0.0073345494
28	0xbd5807e9	-0.05274192
29	0x3e0f275c	0.13979858
30	0x3a8df31f	0.0010829902
31	0xbe083c9d	-0.13304372
32	0x3c62912e	0.013828559
33	0xbd03a8a7	-0.03214326
34	0x3d5a7881	0.053337578
35	0xbd0cbfcf	-0.03436261
36	0xbd92592e	-0.07145916
37	0xbd1095f5	-0.03529926
38	0xbd3c9586	-0.046041034
39	0x3d43bbbf	0.04778647
40	0x3e12ab4d	0.14323159
41	0x3c8fc6c9	0.017550843
42	0x3cfd8e1b	0.03095155
43	0x3d91ce06	0.07119374
44	0x3d5c1961	0.05373514
45	0xbdae9e55	-0.08526293
46	0x3d440d37	0.047864165
47	0xbddc5dcc	-0.10760078
48	0x3d46721b	0.048448663
49	0x3c942336	0.018083196
50	0x3ca4efd1	0.020133885
51	0xbcf7c67e	-0.030246016
52	0x3d8be3b8	0.06830543
53	0x3cc7bbbc	0.02438151
54	0x3c1e2724	0.009652887
55	0x3e2ec201	0.17066194
56	0xbd33d81a	-0.043907262
57	0xbd9e2f2d	-0.07723842
58	0xbd498b94	-0.049205378
59	0xbe336cc0	-0.17521954
60	0x3da4ab1d	0.0804045
61	0xbd140de4	-0.03614606
62	0xbdecb873	-0.115586184
63	0xbd544567	-0.051824
64	0x3db747a3	0.089492105
65	0x3d8f2618	0.06989688
66	0x3de7c445	0.11316732
67	0x3ccbf1fb	0.024895659
68	0xbc735bd2	-0.014853435
69	0xbd39030c	-0.04516892
70	0x3b85db02	0.0040849457
71	0x3d978604	0.07398608
72	0xbded52b5	-0.11588041
73	0xbdc9535d	-0.098303534
74	0xbd9d66bf	-0.07685613
75	0x3d335b7a	0.04378841
76	0xbe36e8a4	-0.17862183
77	0xbdf2f430	-0.11862981
78	0xbd89241d	-0.06696341
79	0xbc09b3c3	-0.008404675
80	0x3ddd8795	0.10816876
81	0x3cb4ae07	0.022055639
82	0xbc324f75	-0.010883202
83	0x3c4b6dc5	0.012416308
84	0x3d2c776e	0.042106085
85	0x3cffc77f	0.031223057
86	0x3d8df1d7	0.06930893
87	0x3d7cc0ff	0.061707493
88	0xbc261e96	-0.010139128
89	0xbc9fc6b7	-0.019503934
90	0x3d7b46f1	0.061346952
91	0x3bd84106	0.0065995483
92	0xbdbe1570	-0.09281433
93	0x3cf2842d	0.029604042
94	0xbe3868fe	-0.18008801
95	0xbd6ea48a	-0.058262385
96	0xbe3762b1	-0.17908742
97	0x3e053643	0.1300898
98	0xbd6a5da8	-0.057218224
99	0x3cee4ec8	0.0290903
100	0xbcb8bbc5	-0.022550473
101	0x3da76ef6	0.08175461
102	0x3dfd638d	0.123725034
103	0xbda9ae7b	-0.08285233
104	0xbc8f0b88	-0.017461553
105	0x3b40b935	0.0029407267
106	0xbce3822b	-0.02777203
107	0xbc34f473	-0.011044609
108	0x3d5f90e1	0.054581527
109	0xbd5d8040	-0.054077387
110	0x3c972a51	0.018452795
111	0x3cb0044a	0.02148642
112	0xbc978d1c	-0.018499903
113	0x3dd1608a	0.102234915
114	0xbde56c64	-0.112023145
115	0x3dcac131	0.099001296
116	0x3db5bc0a	0.08873756
117	0x3dc43ff3	0.0958251
118	0x3c3dcd96	0.01158466
119	0xbdf0020a	-0.11719139
120	0x3d8569b4	0.06514302
121	0x3c12af18	0.008952878
122	0xbdb51d88	-0.08843523
123	0xbde138da	-0.10997172
124	0x3d93308c	0.07186994
125	0x3c401512	0.011723774
126	0xbd96f1d9	-0.073703475
127	0x3db315fc	0.087444276
128	0xbd184427	-0.03717437
129	0xbd559cd8	-0.05215153
130	0x3dfa425f	0.122196905
131	0xbc8a3199	-0.016869353
132	0x3cb80358	0.022462532
133	0xbe2e7b5b	-0.17039244
134	0xbde4bf18	-0.11169261
135	0x3dc26288	0.094914496
136	0x3d904d6b	0.07046016
137	0x3de04b65	0.1095188
138	0x3cdf0714	0.027225055
139	0xbdf5fc9f	-0.12011074
140	0xbc9db726	-0.019252371
141	0x3d5aa039	0.053375456
142	0xbd9061c2	-0.07049896
143	0xbd39e376	-0.04538294
144	0x3c204b69	0.009783604
145	0xbdc5807a	-0.096436456
146	0xbd22f53f	-0.039784666
147	0x3d27e93d	0.040993918
148	0x3c73a134	0.014869977
149	0xbd68cfeb	-0.05683891
150	0xbb6526f1	-0.0034965838
151	0xbe1a08e8	-0.1504246
152	0xbdb5e358	-0.08881253
153	0x3cca5feb	0.02470394
154	0x3d75ad44	0.059979692
155	0xbe49ba3c	-0.19699949
156	0xbd7d2ec4	-0.061812177
157	0xbcb211ee	-0.021737065
158	0x3d5ebb01	0.05437756
159	0x3c7d2a85	0.015452032
160	0xbd200f57	-0.03907713
161	0x3c563dcf	0.01307626
162	0xbd3d3993	-0.046197485
163	0x3d8387a6	0.06422357
164	0x3c8a3572	0.016871188
165	0x3c22393c	0.009901341
166	0xbd12260b	-0.03568081
167	0xbd9bf5da	-0.07615252
168	0x3d7db97f	0.06194448
169	0xbd5d4fb5	-0.054031093
170	0x3d6b960f	0.057516154
171	0x38ea76a9	0.00011180092
172	0x3de7a55f	0.11310839
173	0xbe12a272	-0.1431978
174	0xbdcc95a2	-0.09989478
175	0xbb4dcc70	-0.0031402372
176	0xbbe4628e	-0.0069697564
177	0xba8c6191	-0.0010710229
178	0xbdb75fc2	-0.08953811
179	0x3e1d55b1	0.1536472
180	0x3d3483fb	0.04407118
181	0x3d0f1fab	0.03494231
182	0xbdd3d906	-0.10344128
183	0xbc7b991c	-0.015356328
184	0x3c9f954a	0.019480366
185	0x3d497773	0.04918618
186	0x3e1661ca	0.14685741
187	0x3c9b696b	0.018971166
188	0xbd28366f	-0.041067537
189	0xbd930b9a	-0.07179947
190	0x3ba44b33	0.0050138473
191	0xbd1aefac	-0.037826225
192	0xbde982c8	-0.11401898
193	0xbd8520a7	-0.065003686
194	0xbd80bbc8	-0.062858164
195	0xbe07d65e	-0.13265368
196	0x3d3ef618	0.046621412
197	0xbd93866b	-0.072033726
198	0xbd2d42b9	-0.04229996
199	0x3c1a9a60	0.00943622
200	0x3db48b93	0.08815684
201	0xbd397d25	-0.045285363
202	0xbdedd5a4	-0.11613014
203	0xbd365787	-0.044517066
204	0xbc5901cc	-0.013245057
205	0xbd069e4f	-0.03286582
206	0x3d487bf7	0.048946347
207	0x3d4ece5f	0.05048978
208	0xbca873e7	-0.020563079
209	0x3d4e9c48	0.05044201
210	0xbd9d7585	-0.07688431
211	0xbdee1a8a	-0.11626156
212	0xbb930bb2	-0.004487478
213	0xbde91300	-0.11380577
214	0xbda45d40	-0.080255985
215	0xbbf55200	-0.007486582
216	0xbc954dcb	-0.018225571
217	0x3e77663c	0.24160093
218	0x3d4f000a	0.050537147
219	0x3db4523f	0.0880475
220	0xbdfb3024	-0.122650415
221	0xbe0980de	-0.13428065
222	0xbcb9b80c	-0.022670768
223	0x3c111dbc	0.008857187
224	0x3d8bc6f2	0.06825055
225	0xbd14ed7e	-0.036359303
226	0xbc732d70	-0.014842376
227	0xbb7a475b	-0.0038189504
228	0xbe37ec93	-0.1796134
229	0x3d718d94	0.05897291
230	0xbdbc849f	-0.09204983
231	0x3d0be810	0.03415686
232	0xbcb7d0ea	-0.022438485
233	0xbcf32433	-0.029680347
234	0xbd434e0d	-0.047681857
235	0x3db21269	0.08694918
236	0xbd86f2a0	-0.06589246
237	0x3d1e79d7	0.038690414
238	0x3d7f3cad	0.062313724
239	0xbca99faa	-0.020706017
240	0x3dd24d58	0.102686584
241	0xbd8e3dfd	-0.06945417
242	0x3df65a6a	0.12028964
243	0xbe29aab6	-0.16569027
244	0x3c32264a	0.010873387
245	0xbd834625	-0.064098634
246	0x3d9cea88	0.07661921
247	0x3d6a9906	0.05727484
248	0xbda0bd4b	-0.07848605
249	0x3d4d196f	0.050073083
250	0x3d84da37	0.06486934
251	0x3d2363fb	0.03989027
252	0x3c842987	0.016133083
253	0xbcd889b0	-0.026432842
254	0x3c4f4d22	0.012652667
255	0xbd39f17e	-0.04539632

l2.bias f4 [300]
0	0xbc8d7820	-0.017269194
1	0xbcbcd680	-0.0230515
2	0x3c0f9ba9	0.00876514
3	0xbd6ff533	-0.05858345
4	0x3c2a8e4b	0.010409902
5	0xbd282727	-0.041052964
6	0xbccd10d7	-0.025032444
7	0xbda0037f	-0.07813167
8	0xbd54da4b	-0.051965993
9	0x3caf1ad3	0.021375095
10	0xbdcf7c56	-0.10131137
11	0x3bf61a64	0.00751047
12	0xbd6892a3	-0.05678047
13	0x3deb0790	0.11476052
14	0xbd528f7f	-0.05140638
15	0xbd76ce8c	-0.060255572
16	0xbd868345	-0.065680064
17	0xbd8bd8a3	-0.068284295
18	0xbcb596f2	-0.022166703
19	0x3c91a112	0.017777
20	0x3d468571	0.048467103
21	0x3d0af882	0.0339284
22	0xbb6c87bf	-0.0036091653
23	0xbdaa6ddf	-0.083217375
24	0x3ce958ab	0.028484663
25	0x3be48eed	0.006975046
26	0xbd80cda9	-0.062892266
27	0x3cb93ffc	0.022613518
28	0xbd9ca40e	-0.076484784
29	0xbc10386e	-0.008802516
30	0xbd85c2bb	-0.065312825
31	0x3de0666b	0.10957035
32	0xbd47a612	-0.04874236
33	0xbd7bafdb	-0.061447006
34	0xbccb9deb	-0.024855575
35	0xbca02d47	-0.01955284
36	0x3d1b2ea4	0.037886277
37	0xbd3324d8	-0.04373631
38	0x3cfd160e	0.030894306
39	0x3d3ee47e	0.046604626
40	0x3dd9c4e8	0.1063326
41	0xbc277490	-0.010220662
42	0xbd0fbbfa	-0.035091378
43	0xbc2a3c83	-0.010390404
44	0x3d07c5db	0.033147674
45	0xbbf0d4e5	-0.0073495978
46	0xbc8d7cc0	-0.0172714
47	0x3b4bb444	0.0031082788
48	0x3cc04f91	0.02347544
49	0xbd03cb9f	-0.03217661
50	0xbc867acc	-0.016415976
51	0xbcf09a68	-0.029370502
52	0x3caaa9a6	0.020832848
53	0xbd4a6917	-0.049416628
54	0xbc945c7d	-0.018110508
55	0xbd55cd76	-0.052197896
56	0xbd61ce34	-0.05512829
57	0xbcfe1b46	-0.031018864
58	0xbbce5d8b	-0.0062977723
59	0x3c9e3b57	0.019315405
60	0x3c8e0c03	0.017339712
61	0xbd937d78	-0.07201666
62	0xbd8491a5	-0.06473092
63	0xbc437dba	-0.011931831
64	0xbbdce435	-0.0067410716
65	0xbd643f95	-0.0557247
66	0xbd21b04e	-0.039474778
67	0x3cf9efe3	0.030509895
68	0x3c534012	0.0128936935
69	0xbd871978	-0.06596655
70	0xbd2b38d5	-0.041802246
71	0x3d61134e	0.05495005
72	0xbd5f223d	-0.05447601
73	0x3d073a18	0.033014387
74	0xbda4e6fb	-0.080518685
75	0xbc9962a3	-0.018723791
76	0x3d3c5a2f	0.045984443
77	0x3cd28b3d	0.02570116
78	0x3c2fdc3e	0.010733662
79	0x3c20eaa5	0.009821569
80	0xbd40ea0c	-0.047098204
81	0xbc51e378	-0.01281058
82	0xbd4a1572	-0.049336858
83	0xbcd56003	-0.026046759
84	0x3cb7625c	0.022385769
85	0xbd25b196	-0.040452562
86	0xbd9655e3	-0.073406
87	0xbde212ac	-0.11038718
88	0x3da6f3e2	0.08151986
89	0x3badbfe0	0.0053024143
90	0x3da6af3a	0.081388906
91	0x3ba68ae5	0.0050824755
92	0xbd126aee	-0.035746507
93	0xbc41e7fe	-0.011835096
94	0xbd0b5487	-0.03401616
95	0x3d00ef8d	0.031478453
96	0x3d7cf312	0.061755247
97	0x3d97b670	0.07407844
98	0x3d934ac7	0.07191997
99	0xbb01b679	-0.00197926
100	0xbd6ef9f5	-0.058343846
101	0x3d300a63	0.042978656
102	0xbd1902b9	-0.037356112
103	0x3b430e7a	0.0029763267
104	0xbcf9fc6f	-0.030515878
105	0xbd209d38	-0.039212435
106	0xbc9a5f22	-0.018844191
107	0x3d0ec8d3	0.03485949
108	0xbd3e3de9	-0.04644576
109	0x3ab75585	0.0013987279
110	0xbc8ea611	-0.017413171
111	0x3bbb9323	0.005724327
112	0xbcd41769	-0.02589007
113	0x3b78b448	0.0037949253
114	0x3d7918a5	0.06081452
115	0x3d5db4b4	0.05412741
116	0xbd550bb5	-0.052013118
117	0xbc7affe1	-0.015319795
118	0xbd4615b1	-0.04836053
119	0xbc039f4b	-0.008033584
120	0x3cfa6449	0.030565398
121	0xbcd4c0e5	-0.025970886
122	0xbd031ab9	-0.032007907
123	0xbd79cf05	-0.060988445
124	0xbcad2da3	-0.021139925
125	0x3d2a8713	0.041632723
126	0x3d4dd92d	0.050255943
127	0xbd04a8e2	-0.03238762
128	0x3daa0d34	0.083032995
129	0xbd2a47c5	-0.04157235
130	0xbd0f4ac0	-0.034983397
131	0xbc8ecb01	-0.017430784
132	0x3da50382	0.0805731
133	0x3d2d94a3	0.04237808
134	0xbd225a1f	-0.039636727
135	0xbd4a96c2	-0.04946018
136	0x3cc15fd9	0.023605274
137	0xbcdc6874	-0.026905276
138	0x3b31d3fc	0.002713441
139	0x3c734022	0.014846833
140	0xbdb937a1	-0.090438135
141	0xbdbc9e54	-0.09209886
142	0xbd8bcc76	-0.06826107
143	0xbc30d809	-0.010793694
144	0x3c60fe0e	0.013732446
145	0xbd8b24d8	-0.06794137
146	0x3c742562	0.014901491
147	0xbc06bfee	-0.008224471
148	0x3cbb99c7	0.022900475
149	0x3d82828b	0.06372555
150	0xbc774919	-0.015093111
151	0xbda50996	-0.08058469
152	0x3adc10a9	0.0016789633
153	0xb9d1819c	-0.00039960153
154	0xbd22b3f0	-0.039722383
155	0xbcdf2477	-0.027239067
156	0xbd2485e6	-0.040166758
157	0x3b341f41	0.002748445
158	0xbb6b955d	-0.0035947182
159	0xbd3269cf	-0.04355794
160	0xbcb8bd75	-0.022551278
161	0xbd572d22	-0.052533276
162	0xbc573247	-0.013134546
163	0x3d8afcec	0.06786522
164	0x3c8f00bf	0.01745641
165	0xbd0ea357	-0.03482374
166	0x3d2bb1d6	0.041917644
167	0x3d63dcae	0.05563038
168	0x3bff54f6	0.0077921106
169	0x3c6fe4da	0.014641965
170	0x3b6171f3	0.0034400194
171	0x3caf4e95	0.021399776
172	0x3d4e0c50	0.05030471
173	0xbcd29d36	-0.02570973
174	0xba80e22c	-0.000983303
175	0x3c9c5034	0.019081213
176	0xbcd3192f	-0.025768844
177	0x3d76d4eb	0.06026165
178	0xbd865dbc	-0.06560847
179	0xbbc13f95	-0.005897472
180	0x3da49dd0	0.08037913
181	0xb8683ff3	-5.5372668e-05
182	0xbcfc44ff	-0.030794619
183	0xbd180a9e	-0.0371195
184	0x3c0c5953	0.008566218
185	0xbddb8d97	-0.107203655
186	0x3d2e7c46	0.042598985
187	0x3c93be05	0.018034944
188	0x3c4b89ef	0.012423023
189	0x3d061792	0.032737322
190	0xbd17277c	-0.03690289
191	0xbd26a757	-0.04068693
192	0x3c53ca7b	0.012926693
193	0xbcfcbfe7	-0.030853225
194	0x3caf996a	0.021435458
195	0xbc980b7a	-0.01856016
196	0xbda09d7e	-0.07842539
197	0xbda8865b	-0.08228751
198	0xbc6b9919	-0.014379763
199	0xbd22620f	-0.039644297
200	0xb9decb76	-0.0004249473
201	0xbcdea169	-0.027176576
202	0xbd989cda	-0.07451792
203	0x3cebbce9	0.028776603
204	0xbd3a3561	-0.045461062
205	0xbd161768	-0.036643416
206	0x3d1fbb5f	0.03899705
207	0xbce50063	-0.027954286
208	0xbc20ab5e	-0.009806482
209	0xbd0d29ca	-0.03446368
210	0x3dad9a4d	0.08476696
211	0x3c337a68	0.010954477
212	0xbdc05372	-0.09390916
213	0x3c391f5f	0.011298983
214	0xbbd9125f	-0.0066245045
215	0xbbd0f390	-0.006376691
216	0x3d4baa9a	0.049723245
217	0xbc0186ab	-0.0079056425
218	0x3b9390d0	0.004503347
219	0xbb3a2adc	-0.0028406894
220	0x3b93665f	0.0044982876
221	0x3b917eb0	0.004440151
222	0xbd6b1e47	-0.05740192
223	0xbd26fcf8	-0.040768594
224	0xbd645047	-0.05574062
225	0x3c400b56	0.011721453
226	0x3d167ee1	0.036742095
227	0xbc5e8952	-0.013582544
228	0x3cc515f9	0.024058329
229	0xbb5887f0	-0.003304001
230	0xbd7c4060	-0.06158483
231	0xbcc8102e	-0.024421778
232	0x3d3a9d39	0.045560095
233	0xbc3da436	-0.0115747955
234	0x3c9cbd94	0.019133367
235	0xbd0b518a	-0.03401331
236	0xbd813800	-0.06309509
237	0xbd20efc4	-0.03929116
238	0xbcc7c4cb	-0.02438583
239	0x3d57207b	0.05252121
240	0xbd5fd355	-0.0546449
241	0x3d1ac4b9	0.037785266
242	0xbd619e3e	-0.055082552
243	0xbd526008	-0.051361114
244	0xbd9d4fba	-0.07681222
245	0x3d6bb6c7	0.057547357
246	0xbc957553	-0.018244421
247	0x3d842775	0.06452838
248	0xbd8ceb17	-0.06880777
249	0x3c7a3910	0.015272394
250	0x3999f976	0.00029368297
251	0xbd4a0f8a	-0.049331225
252	0xbc6c9965	-0.014440869
253	0xbd58da33	-0.052942466
254	0x3cb64404	0.02224923
255	0x3cf0de92	0.029403005

l3.weight f4 [2, 300]
0	0xbe06d7df	-0.13168286
1	0x3c790bcc	0.0152005665
2	0x3cc83f0c	0.024444126
3	0x3d5bc13a	0.053651072
4	0x3de84edc	0.11343166
5	0x3d755d87	0.059903648
6	0x3d5b74fa	0.053578354
7	0x3d4ce010	0.05001837
8	0x3bfbbe17	0.0076825726
9	0xbc4333a8	-0.011914171
10	0xbdb5021c	-0.08838293
11	0x3d32798e	0.043572955
12	0x3e6c22b8	0.23060119
13	0x3d9dd48d	0.077065565
14	0xbb5e32d6	-0.0033904812
15	0xbd425143	-0.04744078
16	0xbdaf0276	-0.08545391
17	0x3c458f6c	0.01205812
18	0x3d2b3419	0.04179773
19	0x3d1b8d98	0.03797683
20	0x3def8455	0.11695162
21	0xbd4e83d1	-0.05041868
22	0xbd2c3082	-0.04203845
23	0xbc9f8492	-0.019472394
24	0xbde8c4de	-0.113656744
25	0x3d1b6bb9	0.03794453
26	0xbccd2176	-0.02504037
27	0x3da1f1e6	0.079074666
28	0x3d0cc96c	0.03437178
29	0xbc0442af	-0.008072539
30	0xbd84cf94	-0.06484905
31	0x3dab7fd6	0.08373992
32	0x3acd6dab	0.0015672942
33	0xbd103a69	-0.035211954
34	0x3c5f3d22	0.013625415
35	0xbc168235	-0.009186317
36	0xbce11162	-0.02747411
37	0x3ebda050	0.3703637
38	0x3da43ee9	0.08019812
39	0xbd03aaf6	-0.032145463
40	0x3db9bf5a	0.090697005
41	0x3d871946	0.065966174
42	0x3d200601	0.039068226
43	0x3c1d3b59	0.009596669
44	0x3d31b9a6	0.04338994
45	0xbc5aee9f	-0.013362556
46	0x3eca5812	0.39520317
47	0xba9492f7	-0.0011335303
48	0x3d84d10a	0.064851835
49	0x3da213e7	0.07913952
50	0x3ca4a37a	0.020097483
51	0xbb2c696a	-0.002630795
52	0xbd11d633	-0.035604667
53	0x3c5bbca0	0.013411671
54	0xbd1b9a77	-0.037989106
55	0x3cad6cb1	0.021169992
56	0x3d2ef689	0.042715583
57	0xbca0c6ca	-0.01962604
58	0x3d374c96	0.044750772
59	0x3c00c1b7	0.007858685
60	0xbe1a741c	-0.15083355
61	0xbc9885f3	-0.01861856
62	0x3e2f4ee5	0.1711994
63	0xbdac337d	-0.08408258
64	0xbca3a571	-0.01997635
65	0x3c6bc3d9	0.014389955
66	0x3c398e84	0.011325482
67	0x3c211645	0.00983197
68	0x3bd6c640	0.006554395
69	0x3cac1042	0.021003846
70	0x3d0ded23	0.03464998
71	0xbd99f4c4	-0.075173885
72	0x3ceb5c0d	0.028730417
73	0x3c99c213	0.0187693
74	0xbd8e84d4	-0.06958929
75	0x39c7261f	0.0003798464
76	0x3f202435	0.6255525
77	0x3de8a747	0.113600306
78	0xbdd73b0b	-0.105093084
79	0xbe718e2f	-0.23589395
80	0xbd44120d	-0.047868777
81	0x3bf4a7e2	0.0074663023
82	0xbd7bbbfa	-0.061458565
83	0x3c81f835	0.015865425
84	0x3cc90709	0.024539487
85	0xbd3d7664	-0.046255484
86	0x3f4b99e1	0.79531676
87	0x3f5d57c8	0.8646207
88	0x3dfdaa94	0.12386051
89	0x3e3a9cc8	0.1822387
90	0x3e9cbcdb	0.30612835
91	0xbbe56a1f	-0.007001176
92	0x3c6cc1e3	0.014450523
93	0x3bf96425	0.007610815
94	0x3c4ac76d	0.012376648
95	0x3de1d697	0.11027258
96	0xbb40920a	-0.002938392
97	0xbc517452	-0.012784081
98	0x3c90cc7d	0.017675633
99	0xbd11750b	-0.03551201
100	0xbc7bc333	-0.015366363
101	0x3dfc5aac	0.12321982
102	0xbd5575c3	-0.05211426
103	0x3e9371f3	0.28797874
104	0x3c98b44a	0.018640656
105	0xbceaa7aa	-0.028644402
106	0xbceffc1f	-0.029295025
107	0x3a9880f0	0.0011635106
108	0xbd221c8f	-0.039578017
109	0x3c453606	0.012036806
110	0xbe81014b	-0.251963
111	0xbca30e67	-0.019904329
112	0xbd72a0d5	-0.059235413
113	0xbd07f92f	-0.033196624
114	0x3de2f7b1	0.110824
115	0x3da5b087	0.080903105
116	0x3ce838b9	0.02834736
117	0xbcc8ca0f	-0.024510412
118	0x3d01a46f	0.031650957
119	0xbc1f05e8	-0.009705998
120	0x3e6a4b04	0.22880179
121	0x3cc6cda6	0.024267983
122	0xbd8deb0c	-0.06929597
123	0xbca8ffdb	-0.020629814
124	0xbdd6ad54	-0.104822785
125	0xbe006281	-0.12537576
126	0xbcedafa0	-0.029014409
127	0x3dd8a860	0.1057899
128	0x3dbefcaa	0.093255356
129	0xbd49e9ff	-0.04929542
130	0x3bb9aa61	0.0056660627
131	0xbd263fd3	-0.04058821
132	0x3de70351	0.112799294
133	0xbd562392	-0.052280016
134	0x3d92c091	0.071656354
135	0xbcb3f862	-0.021969024
136	0xbe6e1394	-0.23249656
137	0xbd04fa7a	-0.032465436
138	0x3d180ab2	0.037119575
139	0x3f570b5d	0.84001714
140	0xbd8b360a	-0.067974165
141	0xbcd2213a	-0.02565061
142	0xbd0f3606	-0.03496363
143	0xbcfc0ce5	-0.030767867
144	0x3cf2eb63	0.029653257
145	0x38242e98	3.914404e-05
146	0xbd22f56a	-0.039784826
147	0x3f3f9dc0	0.7485008
148	0xbdba2620	-0.09089303
149	0x3dc08649	0.09400613
150	0xbe440c0e	-0.19145223
151	0x3c8cba30	0.017178625
152	0xbc4abda9	-0.01237432
153	0x3d218173	0.039430093
154	0x3ccfb926	0.02535684
155	0x3e44277e	0.1915569
156	0xbc51c923	-0.012804302
157	0xbe56840a	-0.20948806
158	0x3d3864c6	0.04501798
159	0x3d33fa6f	0.043940004
160	0xbd396288	-0.045259982
161	0x3d73e5d3	0.05954535
162	0xbc5ba3de	-0.013405768
163	0x3ddb7a8b	0.107167326
164	0x3de89004	0.11355594
165	0x3d4ac99f	0.049508687
166	0x3bfb0bdd	0.0076613263
167	0x3e08dfef	0.13366674
168	0x3d010ed3	0.031508278
169	0x3c09e75b	0.008416976
170	0xbe00a5e1	-0.12563278
171	0x3ca2edaa	0.019888718
172	0x3dfc9ef8	0.123350084
173	0x3c2158f1	0.009847865
174	0x3914a376	0.00014175274
175	0xbc89209c	-0.016739182
176	0xbd4ed062	-0.050491698
177	0xbd69b0c2	-0.057053335
178	0x3f0d2428	0.55133295
179	0x3ce89fa0	0.028396428
180	0x3d89dd68	0.06731683
181	0xbdcc6017	-0.09979265
182	0x3c5e49ba	0.0135673825
183	0x3a6e2b6d	0.00090854504
184	0xbe237408	-0.15962231
185	0xbcbdbe37	-0.02316199
186	0x3bba243c	0.005680589
187	0x3c94e345	0.018174777
188	0xbdcbe1ea	-0.09955199
189	0xbc43aba6	-0.01194278
190	0x3c2eb205	0.01066256
191	0xbccb46b2	-0.024813984
192	0xbdb2b0d5	-0.08725134
193	0xbd0dacf8	-0.034588784
194	0x3d5e2ac8	0.054240018
195	0x3c82575c	0.015910797
196	0xbd0b9e07	-0.034086253
197	0xbd0e3700	-0.03472042
198	0xbb51da57	-0.003202101
199	0x3dc427c6	0.09577899
200	0x3c0745aa	0.008256355
201	0xbd5c72bd	-0.05382036
202	0x3c352624	0.011056457
203	0x3d9b652d	0.07587657
204	0x3c9d14b8	0.019174919
205	0xbc20c749	-0.009813138
206	0xbaeb10cf	-0.0017934086
207	0xbd2a6915	-0.04160412
208	0xbd0f9f6e	-0.035064153
209	0x3cd3d4b1	0.025858255
210	0x3deb0b64	0.11476782
211	0x3d4af2c5	0.04954793
212	0xbcea56b6	-0.0286058
213	0x3d5046d6	0.050848804
214	0x3f909dee	1.1298196
215	0x3edf79b3	0.43647537
216	0x3dde92c4	0.10867837
217	0x3c1e4ff2	0.009662615
218	0xbcd10958	-0.02551715
219	0xbd07d639	-0.033163283
220	0xbe08cdaf	-0.13359712
221	0x3ccef49f	0.025263129
222	0xbdc49ea8	-0.09600574
223	0x3cba4c8e	0.022741582
224	0xbba07eae	-0.004897914
225	0xbb6874e8	-0.0035470072
226	0x3ca8c910	0.020603687
227	0xbc8b31e1	-0.016991558
228	0x3d1afdd9	0.037839744
229	0x3ea217d1	0.31658795
230	0x3ed5fdae	0.41795105
231	0x3d14ccd0	0.036328137
232	0xbdbac539	-0.091196485
233	0x3d245275	0.0401177
234	0xbd056c5f	-0.032574054
235	0xbe196e44	-0.14983469
236	0xbcabf768	-0.020991996
237	0x3bc4a1f0	0.0060007498
238	0xbc11585b	-0.008871163
239	0x3e2332d4	0.15937358
240	0xbe193996	-0.14963374
241	0xbd5f5659	-0.054525707
242	0xbcc87731	-0.024470897
243	0x3d388258	0.04504618
244	0x3d657984	0.05602409
245	0xbd23f8da	-0.040032245
246	0xbbbf928a	-0.0058463262
247	0x3d9a2c10	0.075279355
248	0x3cf484cb	0.029848477
249	0x3bff5aa5	0.007792788
250	0x3cc4ac31	0.024007889
251	0x3cbd960b	0.023142835
252	0xbd55f6c5	-0.05223729
253	0xbc15d878	-0.009145848
254	0x3f257e17	0.6464552
255	0xbe85cb60	-0.26131725

l3.bias f4 [2]
0	0x3daefee7	0.085447125
1	0x3d3d8dc1	0.046277765
