models_backup/actor_600.pth (torch, 529709 bytes, 6 tensors)

l1.weight f4 [400, 26]
00000000: 285b 8ebd 2684 15be 77b3 3cbe ed10 1d3e
00000010: ab7b 0d3e 9646 d73c 418d 813d 4f64 aaba
00000020: 1f91 c1bd 0fd0 243c f708 ef3d ecec 60be
00000030: ef7b 79be 1c2e 213e 4b79 69be 1dfe 053e
00000040: 866a 143e 5584 36be 9186 143e 65ff 6d3e
00000050: 7a6c a33e 3792 623e cd36 02be 74ad 0bbe
00000060: 39e2 b43c 0b43 2e3e b823 033e 6133 2b3e
00000070: 5264 a63c 2c4d f93d 290a 6abc 5b59 693d
00000080: 6f1b f63d c747 23be 35a1 fcbd 5bfc 2cbe
00000090: 52bf 41be fa63 9bbe 6fed 07be f969 debd
000000a0: fc5f 9fbe cfd9 7a3c 4303 27be 13b1 4f3d
000000b0: e9fa 583d f9fb 47bd fac2 283e 5d63 2fbe
000000c0: 3d2f 5f3d ec66 56be 7c3e 023e 4fe3 74be
000000d0: bdf5 123e 6de7 2b3e f87c 653e a820 10bd
000000e0: 89f1 14be 189b 6b3d e098 1e3d d5d8 033e
000000f0: 18a5 e9bc 6fb5 41bd 138d fdbc 5b8d be3d
00000100: d4a5 7cbe 3b27 a43d a3e8 b03a 4c18 77be
00000110: 0a25 f5bd bb06 a4bd 7814 3fbe 7db4 ce3d
00000120: 5a8d 8f3d d04b 10be 1d10 0c3e 1255 9dbd
00000130: 6627 af3d eb08 1d3e 6d29 cc3d 3667 c73d
00000140: 94e6 d33d f8c2 1e3e e635 aebc b0a2 203d
00000150: 8477 a13d 329f 0a3d f33e e83d 22fd 37bd
00000160: c0d8 26bd 3197 12be d9c4 953d d603 bebd
00000170: da3c 5abe 4458 e4bd de22 0abe 3dd1 debc
00000180: 6270 6cbe 9e5f 333d ad95 07be f44e 9b3d
00000190: 71e3 133e aee3 33be 6ac9 893d a218 0c3e
000001a0: c701 683c a189 b4bc 12c2 8d3d 652e d43d
000001b0: 601f 45bb 3136 56bc 4593 253d 7585 7e3e
000001c0: 55eb 5b3c c610 a1bd bdf0 7cbe eca1 19bd
000001d0: de46 4cbe 5486 1fbe b07c 8b3d 020c d3bd
000001e0: 93c8 a23d 6d5c a33d a4ed 43bd 0ee9 0ebd
000001f0: 08f9 3bbe 7387 c03c 12c1 77be 030f debd
00000200: f834 28ba d6bb 95be 17e4 1d3d 3066 ed3d
00000210: b9bb 70bd 9709 9ebd b5ef 123e a719 693d
00000220: 2209 df3d c556 0bbd 2ab8 123d 0b43 3fbc
00000230: 2490 6f3c 099a 3dbe 25c4 cebd 9c6c ae3b
00000240: 972d 00be 6ddb 0cbe 45aa 083e 3d02 273e
00000250: 6f31 b13d e592 b3bd b25f c8bd 22a9 843b
00000260: fa2a 2c3e 3c57 0b3e e46d dcbd 229e 89bd
00000270: 15fe 88bd 1fe6 c7bd 932e ae3c f488 5abd
00000280: 5592 96be c2be 3ebe 4dde 89be ea28 87be
00000290: c0cf 07be c445 e83d 1d69 0b3e 30e3 71be
000002a0: 1205 8cbe abff 3f3e 9ab1 1c3d fd4e 03be
000002b0: e207 673e 1f9e 2f3e dbfd 75bd eb12 533e
000002c0: 9640 523e 5df5 acbd 5b07 8b3b 5a6a ff3d
000002d0: 3c4c 77bc 386c b53d 1931 21be bb5d 09be
000002e0: 88c4 a33d 243c 8a3c aefb 393e 1de3 633e
000002f0: a375 453e c2cd 63be 03a6 f53d e19c 733d
00000300: c15e 9f3c 46e9 7dbd 05b2 d03d d1b9 943c
00000310: d895 0abe f795 b93d 20fa cabd dc9c 02be
00000320: 759b 98be 12c8 f0bd cca3 973d e1a3 93be
00000330: 3cb0 13bb ce78 a6be 7a6f 893e 334f c53d
00000340: 6a88 31be 67b1 493e 7e1d 393e 9f87 373e
00000350: 7529 d3bd 87b9 2a3e 2537 ef3b bba7 083e
00000360: 14be 1ebe 6e2f 313e 700b aabd 4905 42be
00000370: 2f38 49be 189c 25bd 18b2 ec3c 0619 073c
00000380: 8738 113d 6ce8 f8bc 6e7d a8bc 712f 213e
00000390: 7067 963d e760 afbd 32e3 873d 4d31 353e
000003a0: 1e71 483e e38e 373e 5380 03be 7d7f 1b3e
000003b0: 3422 473d c426 093e 3019 00be a313 d93c
000003c0: aa15 2c3d 0b22 a03c eb35 11be 028d 25be
000003d0: abf5 e0bc 9eb5 26be 5dec 94be 21af 3cbe
000003e0: 7405 8ebe e63d 03be 1564 963d f2be 083e
000003f0: e4f4 f73d 6416 a0bb 3d48 603b 8e45 f53d
-0.069509804 -0.14601192 -0.18427835 0.15338488 0.13816707 0.026278775 0.0632577 -0.0012999865
-0.09451508 0.010059371 0.11671632 -0.21965379 -0.24363683 0.15740246 -0.22800176 0.13085218
0.1449376 -0.17823918 0.14504458 0.23241957 0.319187 0.22126089 -0.12716217 -0.13640386
0.022080528 0.17017762 0.12806594 0.16718818 0.020311508 0.121729225 -0.014284649 0.05696998
0.12016951 -0.1594535 -0.12335435 -0.16893141 -0.18920639 -0.30349714 -0.13274167 -0.108600564
-0.31127918 0.015310719 -0.16309838 0.05070598 0.05297366 -0.048824284 0.16480628 -0.17127748
0.05448841 -0.20937699 0.12719148 -0.23914836 0.14351554 0.167875 0.22410953 -0.035187393
-0.14545263 0.057520956 0.03872001 0.12875684 -0.028521106 -0.04729217 -0.030951058 0.09304305
-0.24672633 0.08015295 0.0013497066 -0.24130362 -0.11969955 -0.08009096 -0.18660152 0.10093019
0.070093825 -0.1409142 0.13678022 -0.076822415 0.085524365 0.15335433 0.09968839 0.09736483
0.10346714 0.15504062 -0.021265935 0.03921765 0.07884124 0.033843227 0.113401316 -0.04491914
-0.040734053 -0.14315487 0.07312936 -0.092780754 -0.21312276 -0.11149648 -0.13489863 -0.027199382
-0.23089746 0.04379236 -0.1324069 0.075834185 0.14442231 -0.17567322 0.0672787 0.13681272
0.01416058 -0.022038283 0.069217816 0.103604116 -0.0030078515 -0.013074444 0.04042365 0.24855597
0.013422807 -0.078645274 -0.2470121 -0.037507936 -0.19948909 -0.15578586 0.06810892 -0.10305025
0.07948413 0.07976613 -0.047834054 -0.034890227 -0.18356717 0.023502087 -0.24194744 -0.10842707
-0.00064165844 -0.2924487 0.0385476 0.11591756 -0.058772776 -0.07716673 0.14349253 0.05690923
0.10890414 -0.034018297 0.035820164 -0.011673699 0.014621768 -0.18515791 -0.10096005 0.005323006
-0.12517391 -0.1375558 0.13346203 0.16309448 0.08652007 -0.08768252 -0.097838774 0.0040484825
0.1681327 0.13607496 -0.107631475 -0.067196146 -0.06689087 -0.09760689 0.021262443 -0.053353265
-0.29408517 -0.18627456 -0.26927415 -0.26398402 -0.13262844 0.11341432 0.13614316 -0.23621821
-0.27347618 0.18749873 0.03825531 -0.128231 0.22561601 0.17150162 -0.06005655 0.20612685
0.2053245 -0.08445237 0.00424282 0.12471457 -0.015093859 0.08858532 -0.15741386 -0.13414662
0.0799647 0.01687438 0.18162414 0.22254606 0.19283156 -0.22246459 0.11994555 0.059475783
0.019454362 -0.061990045 0.101902045 0.01815501 -0.13533723 0.09061807 -0.09910989 -0.1275515
-0.29806104 -0.117569104 0.07404289 -0.28835967 -0.0022535464 -0.32514042 0.26842862 0.09634247
-0.17337194 0.1969658 0.18077657 0.17922829 -0.10310642 0.16672336 0.007300275 0.13345234
-0.15502197 0.17303249 -0.08302963 -0.18947329 -0.19650339 -0.040432066 0.028893515 0.008245712
0.0354543 -0.030384265 -0.020567622 0.15740754 0.07343948 -0.085634045 0.06635131 0.17694588
0.19574401 0.179256 -0.1284192 0.15185352 0.048616603 0.13393694 -0.12509608 0.026498621
0.042012848 0.019547483 -0.14180724 -0.16167071 -0.027460894 -0.16280219 -0.2908658 -0.18426181
-0.27738535 -0.12816581 0.07343308 0.1335409 0.12107256 -0.0048854817 0.0034222745 0.11976157

l1.bias f4 [400]
00000000: 7c0b d1bd ce39 bbbc cf80 5cbe 1a1f 37be
00000010: 1af3 4a3e 5b77 193e 22de 1e3e 57df 473c
00000020: 38ab 073d 46e3 b83b 4c25 01be a6d4 4f3e
00000030: 6c6e a6bd 0a1f b03d bf75 28be e4da edbd
00000040: d325 f2bd 6597 d7bd 88aa 533d d1ca 8ebd
00000050: d626 a8bd 97b4 0dbe b1ef fc3d ec72 fabd
00000060: 4412 42be cdbb 40bd 9fbb 23be 2964 66be
00000070: 9da4 fc3d dec2 3d3e 2bea 77be be12 343d
00000080: 9f5d c83d a809 f0bd 9296 aabc a76c 36be
00000090: bbba 05bd 77af ae3d efef 853e 1ba5 f13d
000000a0: c63b 32be d773 39be 9750 0f3e 398e 39be
000000b0: ae16 6b3e 976b cdbb eec6 e4bc 8e1d 373d
000000c0: ceab 24be 11e9 41be 1dda f93d 9253 053e
000000d0: 3318 843e 3a09 903d f5c5 12be 3378 85bd
000000e0: 8274 15be 2f1c 92bd 9142 a13d 0277 5abe
000000f0: 171c 413d 71e4 8bbd e740 02be fe6d b7bd
00000100: 320c 2ebc 58ef 7a3d 7995 0f3e b01a eabb
00000110: 5dd7 30be 5d56 fd3c ea71 81bd 278b b33c
00000120: 8187 81bd a546 22bd 3f07 0a3e e36e aa3d
00000130: be4b d2bc ebe1 16be d7f0 cb3d 384f 113e
00000140: 802b 6b3e 5347 dbbd a4b1 983d af19 f0bd
00000150: 031a 8abd c5d1 3fbe e72a e33d 1be4 41be
00000160: ecb7 64be 8821 05be ce62 4b3e 0820 1c3e
00000170: ca1f 8c3e 1cf3 4bbe 3c68 de3d 9192 edbd
00000180: 96d3 4f3e e4b8 be3d a17c a93c 3e6d 1c3c
00000190: c220 a23d b70b 29be 466a 783d cf4e ccbd
000001a0: 54bb f13d 3d87 b0bd 2cf7 28bd 478c 2e3e
000001b0: 26c7 bdbd f5fb 1ebe 515b fa3b 889f 3fbe
000001c0: 89a8 84bd 9178 38be a280 33be 2bea e93d
000001d0: af28 85bd 3c3e af3d b0d5 4f3e f3dd 6cbd
000001e0: 1084 293d caa8 703d 1ea6 c1bd d844 7f3e
000001f0: f6c7 403d bbdd 36bd d194 343e 42e7 c1bc
00000200: b5ac c1bc 0778 253e e5d4 563d b237 07be
00000210: 1378 853d 191c 8cbb ca04 1cbb 1a4d 0f3e
00000220: d285 b33d 9932 4b3d 6057 3b3e 3385 9fbd
00000230: 369c 9fbd 4475 2dbd 2d4c 8ebc e50f 3bbe
00000240: 73e1 d03d 667b e8bb bb18 283e c543 39be
00000250: ad7f e93d 5e5b cabd e885 ad3a 65cd d53c
00000260: 5f96 4ebd 34df 923c 7b5c f33b c7c9 953d
00000270: 1a4f 263e 6f6a 1f3e 8d55 ce3d e783 393d
00000280: 34af 61bc 4d6c 3c3e 5253 9bbc 5831 1cbe
00000290: d099 4d3e 9c75 193e 33f4 10be a6c3 043e
000002a0: 67d3 07be a25c b23d 00ce 14be 86ab 253e
000002b0: e1c1 a93d 4a55 a33d dc94 343d ec85 103e
000002c0: 4127 d03d e8dd 99bd 6996 0e3d 851d d93d
000002d0: 52fa 123e 5a4f 33bc 0265 033e f462 253e
000002e0: fd1a 023e 51ba 32bd 459e c53d 27f8 4abc
000002f0: 1395 b33d 0743 a6bd b82a 5b3d 3a82 72bb
00000300: 5ac9 123e 4cab 813c 7662 d1bd 5c71 663c
00000310: c0b2 e33d 77ad 2a3e 5b22 81bc 7023 53be
00000320: 17bb f9bd 3266 16be 8c26 e6bd 9353 4e3d
00000330: 153b 0bbe 8ff0 6b3e 2d29 41be 494f a1bd
00000340: 6783 3abe 81fa 593d 7cda 0ebe e2c3 c13d
00000350: 9fc4 083e ac3c b53d 0c70 26bd d7fb 3dbd
00000360: 5e46 0d3e f734 873c 921e 8fbc 2b3e cfbd
00000370: d6d6 b0bd 37d1 58bd 1cc8 1dbe 1416 8abb
00000380: 54d2 d3bd 6d9b 60bd 69c5 0f3e a2a8 d83b
00000390: 5a6c b23d ff60 0fbd 0a27 a93d 556d e53a
000003a0: 93a1 32be a318 0f3e 3385 6f3d 4ab4 0e3e
000003b0: 1096 61bd f2de 3a3e ee8c c83d 66c9 31bd
000003c0: efff 333d b555 8dbd f29f c1bd 183a b83d
000003d0: 429a 8f3d 6d99 56be 9c39 10bd e7a1 403e
000003e0: 0fe8 0fbe 02e3 ddbd 4f6b 2d3e d8db e5bd
000003f0: f294 aabd a33c ecbd ee53 993d a2a0 1fbe
-0.102072686 -0.022854712 -0.21533512 -0.17882958 0.19819298 0.14986937 0.15514424 0.012199244
0.03312227 0.0056423275 -0.12611884 0.20295963 -0.0812653 0.0859967 -0.16451167 -0.11614016
-0.11823621 -0.10526923 0.051676303 -0.06972278 -0.08210532 -0.13838421 0.12350405 -0.12228951
-0.1895228 -0.0470541 -0.1598954 -0.22499146 0.12336085 0.18531367 -0.24210422 0.043963186
0.09783482 -0.11720592 -0.02082375 -0.17814885 -0.032648783 0.08529561 0.26159617 0.117990695
-0.17405614 -0.18110596 0.13995586 -0.1812066 0.2295787 -0.006268929 -0.027926888 0.04470592
-0.16081163 -0.18936564 0.12199805 0.13020161 0.25799713 0.0703301 -0.14333327 -0.06517067
-0.14595225 -0.07134282 0.07874025 -0.2133446 0.04714593 -0.06830681 -0.12720071 -0.08956526
-0.010623025 0.061263412 0.14021863 -0.0071442947 -0.17269655 0.03092497 -0.063205555 0.021916939
-0.063246734 -0.039618153 0.13479327 0.08321931 -0.025670882 -0.14734618 0.09958046 0.14190376
0.22965813 -0.107069634 0.07455757 -0.11723649 -0.067432426 -0.18732364 0.11092167 -0.18934672
-0.22335786 -0.13001072 0.1986191 0.15246594 0.27368003 -0.19916958 0.10859725 -0.11600221
0.20295557 0.09312609 0.02068931 0.00954753 0.07916404 -0.16508375 0.060648225 -0.09975969
0.11803308 -0.08619545 -0.041251346 0.17045699 -0.092665 -0.15525801 0.0076402803 -0.187132
-0.06477458 -0.18014742 -0.17529538 0.11421617 -0.065019004 0.08556792 0.20296359 -0.057828855
0.04138571 0.05875472 -0.094555125 0.24928606 0.047065698 -0.044645052 0.17634894 -0.023669843
-0.023641923 0.16159068 0.052449126 -0.1320484 0.06517043 -0.0042758104 -0.0023806565 0.13994256
0.087657586 0.0496088 0.1829505 -0.077890776 -0.07793467 -0.04234816 -0.017370308 -0.18267782
0.10199251 -0.0070947884 0.16415684 -0.18092258 0.11401305 -0.09880708 0.001323876 0.026098916
-0.050436374 0.017928697 0.007426796 0.073138766 0.16241112 0.15567945 0.10074911 0.045291808
-0.013774682 0.18400688 -0.018960629 -0.15253198 0.20078206 0.1498627 -0.14155655 0.12965259
-0.13264237 0.087090746 -0.14531708 0.16178712 0.082889326 0.07975252 0.044087276 0.14113587
0.10163737 -0.075130284 0.03481141 0.106013335 0.14353302 -0.010944212 0.128315 0.16151029
0.12705608 -0.043634716 0.09649328 -0.012388266 0.08768668 -0.08118253 0.053507537 -0.003700389
0.14334622 0.015828751 -0.10223858 0.014065113 0.11118078 0.16667734 -0.015763452 -0.20618987
-0.12193888 -0.14687422 -0.11237821 0.05037267 -0.13596757 0.23040985 -0.18863364 -0.078764506
-0.18214189 0.053217415 -0.13950533 0.0946119 0.13356255 0.08849463 -0.0406342 -0.04638275
0.13796374 0.016504748 -0.017470632 -0.101192795 -0.08634727 -0.052933898 -0.15408367 -0.0042140577
-0.10342851 -0.054835726 0.1404015 0.0066118995 0.08712073 -0.035004612 0.08259399 0.0017503897
-0.17444448 0.13974242 0.058476638 0.13935962 -0.05507475 0.1824911 0.09792505 -0.04340496
0.04394525 -0.06901113 -0.09454335 0.089954555 0.07011844 -0.20956965 -0.03521119 0.18811761
-0.14053367 -0.10834314 0.16935466 -0.112235725 -0.0832919 -0.11535003 0.074867114 -0.1558862

l2.weight f4 [300, 400]
00000000: 05d9 5f3d 9781 c1bc c85b 56bd 79d6 4e3d
00000010: 626b 92bd 4129 e2bd 26a2 443d 3b1e 19bd
00000020: 47b0 97bd 7953 c3bc 6b4c a4bc 2f5b 643d
00000030: 645c 413d 2d7f aebd 0b27 3e3d 29a6 2ebd
00000040: 2cbd 93bd 6733 833c e2f8 053d 4f2d 413d
00000050: e6d7 5cbc f5d7 773d 455c aabb 29c7 c53c
00000060: 4021 fd3b 741f 383d 0731 ec3c a956 f03b
00000070: 6ba6 83bd 58b8 043e 01cd 6fbb 4499 dbbd
00000080: adaf 643c a7a8 03bd c97b 7d3d 5351 43bd
00000090: 0784 74bd caf6 55bd 8893 42bd b6a4 503d
000000a0: 0ad4 fd3d 7eef d13c 58d7 963c de87 833d
000000b0: 224f 233d 4b2d 99bd 3bd1 8b3d b95d adbd
000000c0: a58c 5d3d 36d6 6fbb bbaa a53c 9bcb 00bd
000000d0: c2c9 893d 7b51 bc3c 93bc 233c bbdd 2d3e
000000e0: fc99 8cbd 8b86 acbd 0c0a 2bbd 8e29 2cbe
000000f0: 2233 ab3d f030 f1bc 16e6 f4bd 6745 54bd
00000100: 56e0 c33d 5858 1a3d 659b f83d 2e97 fd3c
00000110: 72e5 6dbc 6a4a 6cbc 1ae3 c43c 68b9 723d
00000120: e925 d6bd ab3c b4bd 9e45 92bd c07f 283d
00000130: 1330 35be a869 f1bd a8e7 7abd 5e98 d1bc
00000140: c361 d33d cf9a 3d3c 8e3f 7bbc c56d 4b3c
00000150: 9d88 c53c 4fea 263d 05a8 2e3d a628 f13c
00000160: c8e3 aebb b504 30bb 5862 813d d750 adb9
00000170: b945 9abd 2d84 f23c 8ba1 1cbe 68b9 62bd
00000180: e061 36be 9d32 0f3e b99b 32bd fe88 1b3d
00000190: 24e3 fdbc 52ed b53d dcbc f73d 042c aabd
000001a0: 49a5 79bc a8f7 2d3d 311c 31bd 0fea 003c
000001b0: b005 6b3d 73b0 babc 314c 913c 7a45 b03c
000001c0: 39ec d2bc cc52 a83d 2a0f e1bd bfd4 cb3d
000001d0: e689 a93d f33f c43d 8caf 4d3b f277 dbbd
000001e0: 5b14 783d d965 db3c e3f7 c4bd f05d b9bd
000001f0: a2d7 9b3d 1215 403c 7523 4abd 29eb 9e3d
00000200: 55b4 78bc 4f13 3bbd f5d2 f23d 302d 8fbc
00000210: 6c36 e93c a470 1cbe b1fe e6bd 065e b53d
00000220: 2e04 8c3d 0be1 d43d 34ac 4e3d 2e5c d9bd
00000230: d666 37bd 39fe 133d 1f89 8abd d683 3fbd
00000240: 7b04 e33b 13bc a6bd 3949 0cbd 3de9 273d
00000250: 654f a63c e6e2 34bd 1740 90ba 7567 0fbe
00000260: fc57 98bd 7f50 313d a0eb 593d 3ec7 39be
00000270: 3b57 8dbd d560 02bd a2c6 e33c 852a 7d3c
00000280: 75bf 03bd c8ca 273c c3bb 9dbc 4ec7 b13c
00000290: c028 3b3b e3d0 493c 313c 7dbd 720b b0bd
000002a0: a4b3 713d bf18 44bd 3c1d 5a3d ad48 8ebc
000002b0: 8b3e be3d 25e8 febd ab2f aabd f446 48bb
000002c0: 7f24 1bbc 4aef 8f3c f9d3 a0bd b961 0a3e
000002d0: b4ac 0d3d 6c4b a83c c3c9 b4bd 6998 1dbd
000002e0: 5cbb ca3c 7377 493d feea 033e 5576 9c3c
000002f0: 09c5 f9bb 455a 43bd 334b a43b 0a58 ccbc
00000300: c9ee d3bd 887d 83bd c8bb 80bd a368 dabd
00000310: d482 1d3d 324c 80bd 131f 54bd eba4 9bbc
00000320: ae36 c53d 6ef5 75bd da69 f3bd 457a 1cbd
00000330: 441a 5dbc 597a 20bd f77b 483d 42d2 2b3d
00000340: 80e2 0bbd 3eb2 583d 0920 6cbd 3d25 d0bd
00000350: 9d10 23bc 65e0 e7bd a989 8bbd 0052 f5bb
00000360: 09ed a5bc 6402 863e fde6 413d 274c a83d
00000370: 777c e0bd bdb9 13be 9f36 c4bc d753 553c
00000380: e680 713d 2bf3 d1bc 3fbb 01ba 5fdf 2c3c
00000390: f3ed 1ebe 97b8 823d 35f8 01be f537 1c3d
000003a0: 90e4 24bd 96bb c6bc 7e38 20bd 5ca5 bd3d
000003b0: a80c 8bbd 6362 153d b8ee 9a3d 09f7 2ebb
000003c0: 382e e73d 81e5 82bd 104d ff3d 1e4c 0fbe
000003d0: b978 193b bd73 94bd 9bc3 843d 261c 743d
000003e0: 0e19 abbd e7cf 503d 5324 233d e878 293d
000003f0: 0b9e 913c 1e98 32bd 7a15 be3c 46a3 3fbd
0.054650325 -0.023621364 -0.052333623 0.050497506 -0.07149388 -0.11043025 0.0480062 -0.037382346
-0.07406669 -0.023843514 -0.02005597 0.055751022 0.04720725 -0.085203506 0.046423953 -0.04263893
-0.07213816 0.016015721 0.032708056 0.04716235 -0.013479209 0.060508687 -0.0051989877 0.024142819
0.007724911 0.04495187 0.028831972 0.0073345494 -0.06428226 0.12960947 -0.0036590698 -0.107225925
0.0139579 -0.03214326 0.06188563 -0.04768498 -0.059696224 -0.05223731 -0.047503978 0.05093833
0.12393959 0.025626894 0.01841323 0.06422399 0.03987039 -0.07479342 0.06827017 -0.08465142
0.054089207 -0.0036596186 0.020223012 -0.031444173 0.067279354 0.022988072 0.00999369 0.16979115
-0.06865308 -0.084240995 -0.04175763 -0.16812727 0.08359362 -0.02944228 -0.11957948 -0.051824
0.09564273 0.037681907 0.12139014 0.030955877 -0.014520036 -0.014422039 0.024034072 0.05925885
-0.104564495 -0.08800634 -0.07142185 0.041137457 -0.1769412 -0.117877305 -0.06125608 -0.02558535
0.10321381 0.011572554 -0.015334977 0.012416308 0.024112994 0.040750798 0.042640705 0.029438328
-0.0053372122 -0.0026858274 0.06317586 -0.00033057362 -0.0753283 0.029604042 -0.15295999 -0.0553526
-0.17810774 0.13984151 -0.04360554 0.037972443 -0.030992098 0.08883156 0.12096569 -0.083091766
-0.015237161 0.04247251 -0.043239776 0.007868304 0.05737847 -0.022789216 0.017736526 0.021517504
-0.025747405 0.08218917 -0.109892204 0.099526875 0.08278255 0.0958251 0.0031385152 -0.10716237
0.060566287 0.026781963 -0.09617593 -0.0905112 0.07609488 0.011723774 -0.04935022 0.07759697
-0.015179713 -0.04567271 0.11856643 -0.017477602 0.028468333 -0.15277344 -0.11279047 0.08855824
0.06836735 0.10394486 0.050457194 -0.10613285 -0.044775806 0.036131117 -0.06764435 -0.046756588
0.0069280243 -0.08141341 -0.034249518 0.040993918 0.02030153 -0.0441617 -0.0011005428 -0.1400431
-0.07438657 0.043289658 0.053203225 -0.18142411 -0.069014035 -0.031830627 0.027804676 0.015452032
-0.03216501 0.010241218 -0.01925457 0.021701481 0.0028558224 0.012317869 -0.06182498 -0.08595933
0.05900921 -0.047875162 0.053250536 -0.017368639 0.09289273 -0.12446622 -0.08309873 -0.003055987
-0.009469151 0.017570157 -0.078529306 0.1351384 0.03458853 0.020543776 -0.088275455 -0.038475428
0.024747543 0.04918618 0.12882611 0.019099394 -0.0076223654 -0.04769351 0.0050138473 -0.024944324
-0.10348279 -0.064204276 -0.062858164 -0.10664489 0.038454846 -0.06264533 -0.051787447 -0.018999537
0.0962957 -0.060048513 -0.11885424 -0.038202543 -0.013495032 -0.03917918 0.048946347 0.041948564
-0.034151554 0.05290436 -0.05764774 -0.10163353 -0.009952691 -0.11322097 -0.06813366 -0.007486582
-0.020254629 0.261737 0.04733943 0.0821765 -0.1096124 -0.14426322 -0.023951827 0.013020477
0.058960818 -0.025628647 -0.00049488613 0.010551303 -0.15520458 0.06382864 -0.1269234 0.038139302
-0.040257037 -0.02425937 -0.039116375 0.092600554 -0.06789523 0.036470782 0.07565063 -0.0026697537
0.112881124 -0.06391431 0.124658704 -0.1399388 0.0023417904 -0.07248638 0.06482621 0.059597157
-0.08354388 0.05097952 0.039829563 0.04137507 0.017775556 -0.0436021 0.0232036 -0.04678657

l2.bias f4 [300]
00000000: e58b 95bc 14c2 e0bc a99b 0f3c 33f5 6fbd
00000010: c37e 673c bded 01bd d710 cdbc abb7 96bd
00000020: 1d2e 4ebd 5652 c73c 18ef b9bd 0e21 9b3b
00000030: 0fb3 71bd 0ea5 dd3d e9b1 6cbd 0b26 5dbd
00000040: 84e0 83bd 88be 6fbd f296 b5bc 0419 b73c
00000050: 1b75 283d 82f8 0a3d ab16 ca3b 65d5 9abd
00000060: df69 fc3c 2d53 063b 6b56 76bd 7dba df3c
00000070: a8db 77bd 72f9 04bc 826c 4cbd fc7a d03d
00000080: 12a6 47bd fd9b 56bd 80e4 b6bc f60e 6abc
00000090: 0a47 153d bfce 02bd 9440 de3c e1c4 413d
000000a0: 4cce c93d f320 debb fabb 0fbd 833c 2abc
000000b0: dbc5 073d 6e39 4fbc 0662 d9bb 106b ac3c
000000c0: 914f c03c 8b81 05bd cc7a 86bc 34a0 a4bc
000000d0: dd1a 813c 1769 4abd 1569 3ebc 0f90 14bd
000000e0: 34ce 61bd f550 20bd aa9d d6bb 573b 9e3c
000000f0: e997 a83c 8834 97bd a785 85bd 1e94 443a
00000100: e340 c9bb 59b1 4dbd 4eb0 21bd e3ef f93c
00000110: ad4e ab3c 87bb 7bbd d538 2bbd 6965 5c3d
00000120: 3d22 5fbd 183a 073d 2deb 82bd 05c9 5ebc
00000130: f04d 143d 613a b53c 4ae2 5f3c d968 dd3c
00000140: 0cea 40bd 78e3 51bc c18a 44bd 0360 d5bc
00000150: 5c62 b73c 96b1 25bd e8f8 9dbd 210e d9bd
00000160: 13df 9d3d 395e c83a a343 883d 8311 0e3c
00000170: ee6a 12bd fee7 41bc ced9 15bd c8ce e33c
00000180: 9acb 783d 3d3e 9e3d 8bfa 8e3d e10e 7c3a
00000190: f5f9 6ebd 7946 413d c884 20bd a66a 05bb
000001a0: 6ffc f9bc c3c3 20bd b814 c7bc d3c8 0e3d
000001b0: e93d 3ebd 8555 b73a e422 eebb 2393 bb3b
000001c0: 84fb 8cbc c6d7 513b 0659 503d 76ca 4f3d
000001d0: b50b 55bd afc9 9cbc b115 46bd 906c d0bb
000001e0: fb28 8d3c fc90 e9bc 4f8a e7bc 05cf 79bd
000001f0: aa6f 78bb b27c 933c 0276 5e3d f4be 17bd
00000200: ffe2 ae3d 88aa 26bd bad3 e5bc 9b94 51bc
00000210: 4403 ae3d b7f0 203d 1b1b 0ebd 9fb7 65bd
00000220: 45a3 063d 7468 dcbc fcd3 313b 9569 3b3b
00000230: 6617 b4bd 29a3 b6bd 8b69 90bd 09d8 30bc
00000240: 0efe 603c 4a91 98bd 6225 743c 43b3 34bc
00000250: ff44 a83c 2e9b 673d 4af5 80bc 3c3e 8bbd
00000260: a910 dc3a 39b2 023c f0b3 22bd ee76 dcbc
00000270: 2f7c afbc a701 8d3b 5d95 6bbb f326 35bd
00000280: dcaf aebc 6797 37bd 2928 33bc 5f05 733d
00000290: db5a 4d3c 81e5 e8bc 5d82 2b3d b0a6 6c3d
000002a0: f654 ff3b dae4 6f3c 2469 853b 954e af3c
000002b0: ab7e 4b3d 36c8 1abd 97fa 9d3b 8c7a a53c
000002c0: 3276 01bd 39c4 4e3d fbcf 70bd 953f c1bb
000002d0: 2578 ad3d 6ffe bc38 ff44 fcbc 9e0a 18bd
000002e0: 1b8f b0bb 2112 bcbd 12b0 4e3d 05be 933c
000002f0: fcb1 5e3c 358f f53c 7c27 17bd 4a73 e5bc
00000300: ce12 ed3c e7bf fcbc b6e4 693c ee7f a1bc
00000310: 4391 82bd 96c7 94bd f4a1 c6bb 7698 2bbd
00000320: 2392 ac3b f562 c0bc 031b 92bd 87c2 b33c
00000330: 6135 3abd 6817 16bd 5fbb 1f3d 6300 e5bc
00000340: c946 04bc 393b 36bd d6f9 a53d 687a 333c
00000350: 6514 b7bd 5f1f 393c b577 81bc b9a3 d4bb
00000360: c26d 1a3d ab86 01bc bbe3 933b 21a7 83ba
00000370: a14e 0c3b b07e 913b 2653 80bd f8fc 26bd
00000380: c987 2fbd c4cb d43b e17e 163d a4ef 0ebc
00000390: f915 c53c bd7b acbc 6bd6 8ebd 2e10 c8bc
000003a0: 951c 623d 8a6a b4bb 80c4 8f3c 994f 27bd
000003b0: 0038 81bd c4ef 20bd cbc4 c7bc 1086 5b3d
000003c0: ac80 46bd d7c7 1e3d 3e9e 61bd 0860 52bd
000003d0: 5d29 80bd c8e9 6d3d 5375 95bc f1f7 7a3d
000003e0: 24b8 98bd 1039 7a3c f850 ff3b 8a0f 4abd
000003f0: 0928 5abc 33da 58bd 75df 193c b9d7 e93c
-0.018255183 -0.027436294 0.00876514 -0.05858345 0.014129343 -0.031720866 -0.025032444 -0.07359251
-0.050336946 0.024331253 -0.09078807 0.004734165 -0.059008654 0.10822497 -0.057786856 -0.05399136
-0.06439307 -0.058531314 -0.022166703 0.022350796 0.041127305 0.0339284 0.006167253 -0.07560233
0.030812202 0.0020496354 -0.06014101 0.027310604 -0.060512215 -0.008116113 -0.04990817 0.101797074
-0.04874236 -0.052394856 -0.022325754 -0.0142857935 0.0364447 -0.03193545 0.027130403 0.0473069
0.09853801 -0.00677883 -0.035091378 -0.010390404 0.033147674 -0.01264797 -0.0066339998 0.021047145
0.02347544 -0.032594245 -0.016415976 -0.020095922 0.01575988 -0.049416628 -0.011621733 -0.036270197
-0.05512829 -0.039139707 -0.0065495567 0.019315405 0.020580249 -0.073830664 -0.06519633 0.0007498878
-0.0061417683 -0.05021796 -0.039474778 0.030509895 0.020911539 -0.061458137 -0.041802246 0.05380765
-0.05447601 0.033014387 -0.063925125 -0.0135977315 0.03620714 0.022122564 0.013664791 0.027027534
-0.047098204 -0.01281058 -0.04798389 -0.026046759 0.022385769 -0.040452562 -0.07713491 -0.10598398
0.07708564 0.001528687 0.06653526 0.008671167 -0.035746507 -0.011835096 -0.036584668 0.027808562
0.060741045 0.07726715 0.06981381 0.0009615254 -0.058343846 0.04718635 -0.03918913 -0.0020357757
-0.030515878 -0.039249193 -0.024301872 0.03485949 -0.04644576 0.0013987279 -0.007267343 0.005724327
-0.017209776 0.003201948 0.05086615 0.05073019 -0.052013118 -0.019139139 -0.04836053 -0.006360598
0.017231455 -0.028511517 -0.028264193 -0.060988445 -0.0037908354 0.018003795 0.05431176 -0.03704734
0.0853939 -0.040689975 -0.02805506 -0.012791778 0.084967166 0.039292064 -0.03469382 -0.056083318
0.03287055 -0.026905276 0.002713441 0.0028596867 -0.087935254 -0.08917839 -0.07051381 -0.010793694
0.013732446 -0.07449587 0.014901491 -0.011029067 0.020540712 0.056544475 -0.015741963 -0.0679898
0.0016789633 0.007977062 -0.039722383 -0.026912179 -0.02142152 0.0043031755 -0.0035947182 -0.044226598
-0.02132409 -0.044822123 -0.010934868 0.059331294 0.012533869 -0.028429748 0.04187237 0.057776153
0.0077921106 0.014641965 0.0040713716 0.021399776 0.049681347 -0.037788592 0.0048211324 0.020200036
-0.03160686 0.0504801 -0.058792096 -0.005897472 0.084701814 9.0119305e-05 -0.030794619 -0.0371195
-0.0053881533 -0.09183145 0.050460882 0.018034944 0.0135922395 0.029975513 -0.03690289 -0.028009076
0.02893963 -0.030853225 0.01427572 -0.019714322 -0.06375363 -0.072646305 -0.006061787 -0.041893445
0.0052664443 -0.023484686 -0.07134058 0.021943344 -0.045461062 -0.036643416 0.03899705 -0.027954286
-0.008073517 -0.044490073 0.08104293 0.010954477 -0.08939437 0.011298983 -0.015804151 -0.006489244
0.03770233 -0.0079056425 0.0045132316 -0.0010044315 0.0021409171 0.004440151 -0.06265859 -0.040768594
-0.042854104 0.0064940173 0.036742095 -0.008724127 0.024058329 -0.021055097 -0.06974491 -0.024421778
0.05520304 -0.0055058645 0.017549753 -0.040847395 -0.06309509 -0.03929116 -0.02438583 0.05359465
-0.048462555 0.0387648 -0.055082552 -0.051361114 -0.062578894 0.05808428 -0.018244421 0.06127161
-0.07456997 0.015272394 0.0077916346 -0.049331225 -0.013315209 -0.052942466 0.009391655 0.028545247

l3.weight f4 [2, 300]
00000000: 5836 f3bd e5b7 1a3c 0c3f c83c 3ac1 5b3d
00000010: 36aa f13d 0430 3e3d fa74 5b3d 5629 293d
00000020: 406b 7f3c 11cb d5bb 7416 b3bd 5e4f 873c
00000030: 593e 693e cf29 953d da66 09ba 7b7d 4ebd
00000040: c487 a4bd 716a b33c 1934 2b3d 8232 2e3d
00000050: b40e eb3d d183 4ebd 92e5 4abd 95f6 20bc
00000060: f036 d2bd 8d27 0f3d 0a61 93bc e54c 8e3d
00000070: b78f b13c 9494 26bc 846f 94bd efda ab3d
00000080: ab6d cd3a 9508 0bbd 6701 113c 1f5d c3bb
00000090: 2996 dabc 80b7 b53e 9f49 a53d 4dd5 15bd
000000a0: 98a7 be3d 40c8 4c3d 0106 203d 593b 1d3c
000000b0: a6b9 313d 76a9 6bbc 17a5 bf3e 2191 25ba
000000c0: 0ad1 843d 1928 963d 7aa3 a43c 079f cb3b
000000d0: 1cf5 edbc a0bc 5b3c b9b5 33bd 6e74 1a3c
000000e0: 89f6 2e3d 61bd a3bc c2a8 d13c b7c1 003c
000000f0: abdd 05be 8e89 d9bc 193f 183e 489c c3bd
00000100: a254 cfbc 90d3 2e3c 848e 393c 4516 213c
00000110: c0b4 5fb6 fa7a c63c 23ed 0d3d 7c70 8abd
00000120: 0d5c eb3c 13c2 993c 9994 81bd ea4a feb8
00000130: 3475 133f 580c e43d 1d66 d8bd c1ba 6cbe
00000140: 0d12 44bd e2a7 f43b 59e4 7cbd 35f8 813c
00000150: 0907 c93c 6476 3dbd eb58 3e3f 7715 5d3f
00000160: a616 fd3d a479 3e3e 7061 983e a673 833b
00000170: e3c1 6c3c 2564 f93b 5927 0b3c 5931 cf3d
00000180: 122f 973b ac4b 6dbc 60d3 553c c805 e7bc
00000190: 33c3 7bbc c3fd fe3d 4ba7 22bd 8dc0 923e
000001a0: 4ab4 983c 0d6e efbc ba5d ecbc f080 983a
000001b0: 8f1c 22bd 0636 453c aec2 62be 670e a3bc
000001c0: b1e7 58bd aa97 0fbd 68cb d63d b77a a13d
000001d0: b938 e83c a747 d9bc 6fa4 013d 544d 5cbc
000001e0: f190 5d3e 86fb 973c 3d5f 90bd dbff a8bc
000001f0: e8f4 f0bd 571f f6bd 082c fdbc 57ca b13d
00000200: 66db ab3d 0b29 43bd e0a8 b93b 5cb4 3dbd
00000210: 91fb e03d 3223 3fbd 9fef 8d3d 5a22 cfbc
00000220: 677c 66be 7afa 04bd b20a 183d 88ed 4a3f
00000230: 5d4c 49bd 041f f2bc e892 bbbc e50c fcbc
00000240: 63eb f23c 695d e2bb 6af5 22bd 69a5 363f
00000250: a7dd b0bd f5d3 b93d b7c5 1bbe 0de1 6ebb
00000260: a9bd 4abc 2089 1a3d 26b9 cf3c 5775 283e
00000270: d9db 3bbc c7f1 33be c664 383d 5db2 a53c
00000280: ae97 1dbd 566d 413d b42a 8fbc 36f1 cf3d
00000290: 2e79 df3d 1c5f 1f3d 0cca 563b 38e0 013e
000002a0: d30e 013d 5be7 093c cff5 f3bd aaed a23c
000002b0: 774b ce3d a518 113c 9b38 84ba 60fe 90bc
000002c0: bf69 2ebd ef98 31bd 44be 073f a09f e83c
000002d0: b69c 863d dd67 c2bd ba49 5e3c 6d2b 6e3a
000002e0: 16fd 20be 7749 32bd 1aa7 463b 45e3 943c
000002f0: 826d adbd 246d 4dbc 05b2 2e3c 06d7 c9bc
00000300: e8ca debd f8ac 0dbd 035e 553d 9f78 533c
00000310: 420e 20bd 768d 1bbd c601 02ba ba37 913d
00000320: 2f6e 0b3c 3a05 23bd 7cbf b03a 75c8 953d
00000330: b814 9d3c 49c7 20bc cf10 ebba 1569 2abd
00000340: 6ba6 17bd bac0 b43c d1e9 ea3d c5f2 4a3d
00000350: 2e70 a8bc d646 503d 4b45 883f d900 da3e
00000360: dc4f cb3d f24f 1e3c 7b6c ddbc 76bd 09bd
00000370: ed4d e9bd 9ff4 ce3c 65c6 9abd 8e4c ba3c
00000380: 38b3 fcba eff0 3e3a 10c9 a83c b5a9 93bc
00000390: d9fd 1a3d 41b6 9d3e 7bb7 cc3e d0cc 143d
000003a0: 18af b3bd 18f4 313d d21b 06bd f97e 0ebe
000003b0: 68f7 abbc f0a1 c43b 5b58 11bc ca1f 253e
000003c0: e617 18be 3d41 66bd 3177 c8bc 5882 383d
000003d0: b199 393d 519b 0fbd 8a92 bfbb 6938 963d
000003e0: eff5 103d a55a ff3b 4c67 cc3c 0b96 bd3c
000003f0: a9b5 3ebd 78d8 15bc 9bb4 253f bb9b 71be
-0.118755996 0.009443258 0.024444126 0.053651072 0.11800043 0.04643251 0.053578354 0.041299187
0.015589535 -0.0065244515 -0.08744517 0.016517337 0.2277769 0.07283365 -0.00052414613 -0.050412636
-0.08033708 0.021901341 0.04179773 0.042528637 0.11477414 -0.05041868 -0.04953534 -0.009824415
-0.10264385 0.034949828 -0.017990608 0.0694826 0.021674974 -0.01016726 -0.072478324 0.08391368
0.0015672942 -0.03394373 0.008850432 -0.0059620286 -0.02668293 0.35491562 0.08070683 -0.036580373
0.0930931 0.04999566 0.039068226 0.009596669 0.04338994 -0.014383664 0.3743064 -0.00063158764
0.064851835 0.07331867 0.020097483 0.006214026 -0.029047541 0.013411671 -0.043874476 0.009427173
0.042715583 -0.019987764 0.025593165 0.007858685 -0.13072841 -0.026554849 0.1486782 -0.09551293
-0.02530891 0.010670558 0.011325482 0.00983197 -3.33348e-06 0.024228562 0.03464998 -0.06759736
0.028730417 0.0187693 -0.06327171 -0.00012125618 0.5760071 0.11135167 -0.105663516 -0.23118116
-0.047868777 0.0074663023 -0.061741207 0.015865425 0.024539487 -0.046255484 0.7435443 0.8636088
0.123578355 0.1860109 0.2976184 0.004011589 0.014450523 0.007610815 0.008493268 0.10116834
0.0046137655 -0.014483374 0.013050884 -0.028200999 -0.015366363 0.12450745 -0.039710324 0.2866253
0.018640656 -0.029227281 -0.028853286 0.0011635106 -0.039578017 0.012036806 -0.22144577 -0.019904329
-0.052955333 -0.035056747 0.104880154 0.07884734 0.02834736 -0.026523424 0.031650957 -0.013446171
0.21637322 0.018552553 -0.07049415 -0.020629814 -0.11765462 -0.12017696 -0.030904785 0.086811714
0.08391456 -0.047646564 0.0056658834 -0.046314582 0.109854825 -0.046664424 0.0693047 -0.025284935
-0.22508393 -0.032465436 0.037119575 0.79268694 -0.04914509 -0.029555805 -0.022897199 -0.030767867
0.029653257 -0.006908108 -0.039784826 0.71346146 -0.08636027 0.09073631 -0.15212141 -0.0036450059
-0.01237432 0.03772843 0.02535684 0.16451012 -0.01146599 -0.175727 0.04501798 0.020226652
-0.03847473 0.04722341 -0.017476417 0.10153429 0.10911785 0.038909063 0.0032774238 0.12683189
0.031508278 0.008416976 -0.11912119 0.019888718 0.100729875 0.008855973 -0.001008767 -0.01769942
-0.042581316 -0.04335874 0.530247 0.028396428 0.06572859 -0.094924666 0.0135673825 0.00090854504
-0.15721545 -0.043527093 0.0030312003 0.018174777 -0.084681526 -0.012538228 0.01066256 -0.024638664
-0.10878545 -0.034588784 0.05209161 0.012907176 -0.039076097 -0.037976705 -0.00049593707 0.07090707
0.008510157 -0.039799906 0.0013484801 0.07313625 0.019174919 -0.009813138 -0.0017934086 -0.04160412
-0.037023943 0.022064555 0.11470378 0.04954793 -0.020561304 0.050848804 1.0646147 0.42578772
0.09927341 0.009662615 -0.027029267 -0.03362795 -0.11391816 0.025263129 -0.07557372 0.022741582
-0.0019279486 0.00072838267 0.020603687 -0.018025259 0.037839744 0.3080311 0.39983734 0.036328137
-0.08773631 0.043445677 -0.032741375 -0.13915624 -0.020991996 0.0060007498 -0.008871163 0.16125408
-0.14852867 -0.05621456 -0.024470897 0.04504618 0.045312587 -0.03506023 -0.0058463262 0.07334978
0.03539079 0.007792788 0.0249516 0.023142835 -0.046559963 -0.009145848 0.6472871 -0.23594563

l3.bias f4 [2]
00000000: 7f44 9a3d c37b 413d
0.07532596 0.04723717
