models_backup/actor_550.pth (torch, 529709 bytes, 6 tensors)

l1.weight f4 [400, 26]
-0.07584956 -0.15159161 -0.1890239 0.14366403 0.12807809 0.019949408 0.06403582 0.0034478807
-0.092974335 0.013593126 0.11999928 -0.21707772 -0.24299462 0.15860106 -0.22815673 0.12850551
0.14313862 -0.178864 0.1437691 0.23070787 0.31687796 0.22423938 -0.12634401 -0.14352721
0.019712145 0.16746487 0.13459258 0.17435902 0.027106557 0.12946208 -0.0058818823 0.06560765
0.12662548 -0.15441969 -0.118248984 -0.16314383 -0.18372081 -0.29758304 -0.1268628 -0.10314631
-0.305606 0.024187826 -0.15825358 0.05419554 0.05780879 -0.04254813 0.17139407 -0.1654164
0.0599279 -0.20378812 0.13112573 -0.24394555 0.1426765 0.16474847 0.22211215 -0.030760447
-0.13842723 0.06519638 0.043047715 0.12732603 -0.030819986 -0.050985757 -0.035293654 0.08925178
-0.25073093 0.078023694 0.00020182198 -0.23810029 -0.11296316 -0.06882701 -0.17407653 0.10891253
0.07495688 -0.1372894 0.13667959 -0.07769054 0.08692683 0.15752675 0.10399956 0.09981002
0.10248248 0.15251818 -0.021516556 0.040027935 0.08099742 0.036684103 0.11497541 -0.04517649
-0.041011926 -0.14216757 0.075604655 -0.08958066 -0.21144366 -0.11033964 -0.13263007 -0.022674568
-0.22705771 0.047593273 -0.13020797 0.0748525 0.14225611 -0.1714208 0.06528881 0.133902
0.013360017 -0.023977617 0.065828964 0.10004859 -0.006851025 -0.017719574 0.03366586 0.24067977
0.0053781373 -0.084982835 -0.25287625 -0.042160112 -0.20450807 -0.16082186 0.063453786 -0.10339567
0.07613395 0.07684692 -0.049848415 -0.036448758 -0.18390444 0.023144154 -0.2424461 -0.10897942
-0.006955349 -0.28799874 0.025059562 0.11138452 -0.06467654 -0.080422096 0.1470038 0.06392485
0.104067035 -0.03779135 0.03234695 -0.017097019 0.0069961655 -0.1921231 -0.10649655 0.00016654162
-0.12833877 -0.14192234 0.12713686 0.15619157 0.08005913 -0.09387394 -0.104385234 0.0022727717
0.16876696 0.12498485 -0.10432889 -0.06946783 -0.07567753 -0.10760626 0.0077738827 -0.062829286
-0.30104557 -0.18752486 -0.25903428 -0.2621508 -0.12974314 0.11622775 0.13638945 -0.23939662
-0.26785094 0.18886888 0.03710759 -0.1287439 0.22490165 0.17039584 -0.0629728 0.20032464
0.19603088 -0.09272601 -0.002889607 0.11659752 -0.036238994 0.09626883 -0.14965953 -0.1317076
0.076597914 0.011216387 0.16906053 0.21305628 0.19596544 -0.22241148 0.11828682 0.057882387
0.0178321 -0.061190784 0.10108368 0.017935181 -0.13744783 0.0880766 -0.1080791 -0.13083091
-0.29523176 -0.115942806 0.07578907 -0.28882083 -0.0055833166 -0.32287687 0.26520658 0.10319706
-0.16694175 0.19637263 0.18718316 0.18869168 -0.090562046 0.17965505 0.019008407 0.14509983
-0.1430543 0.18463813 -0.07185163 -0.17947453 -0.18570872 -0.028849987 0.039400496 0.018655704
0.04549951 -0.024228763 -0.016526155 0.16100733 0.0767366 -0.08238849 0.072819784 0.18469307
0.19984865 0.17578673 -0.12639748 0.15361103 0.05012813 0.13599905 -0.12266735 0.029198233
0.04362678 0.020992247 -0.14029591 -0.15894985 -0.02510362 -0.16040695 -0.28801307 -0.18119669
-0.27359343 -0.12281156 0.074940115 0.1336108 0.12249603 -0.002145271 0.006268294 0.12224248
00000000: 0457 9bbd d53a 1bbe 7b8f 41be aa1c 133e
00000010: e726 033e f16c a33c 3625 833d d7f5 613b
00000020: 5469 bebd b4b5 5e3c 2fc2 f53d 9f49 5ebe
00000030: 95d3 78be 5168 223e eba1 69be f396 033e
00000040: ee92 123e 2028 37be 3538 133e af3e 6c3e
00000050: d43d a23e 029f 653e 5360 01be ccf8 12be
00000060: 5d7b a13c e97b 2b3e a3d2 093e 2c8b 323e
00000070: 920e de3c b591 043e cebc c0bb 4e5d 863d
00000080: 1caa 013e 3220 1ebe 862c f2bd 2d0f 27be
00000090: 4f21 3cbe ce5c 98be 52e8 01be 5f3e d3bd
000000a0: 6478 9cbe 8c25 c63c 3a0d 22be 24fc 5d3d
000000b0: e9c8 6c3d f346 2ebd ed81 2f3e eb62 29be
000000c0: f576 753d d5ad 50be d345 063e ddcc 79be
000000d0: ca19 123e d3b3 283e 5e71 633e 55fd fbbc
000000e0: debf 0dbe ae85 853d cd52 303d c161 023e
000000f0: 327a fcbc 71d6 50bd 1490 10bd a3c9 b63d
00000100: ce5f 80be e3ca 9f3d 2da0 5339 90d0 73be
00000110: 3b59 e7bd 2df5 8cbd 1e41 32be 880d df3d
00000120: fe82 993d 9895 0cbe bcf5 0b3e 381c 9fbd
00000130: b206 b23d b14e 213e b9fd d43d 3269 cc3d
00000140: 56e2 d13d ba2d 1c3e 7d43 b0bc 55f4 233d
00000150: fae1 a53d 1242 163d 3a78 eb3d fc0a 39bd
00000160: 1ffc 27bd 6094 11be 9dd6 9a3d 1176 b7bd
00000170: b084 58be c0f9 e1bd 2dd0 07be 04c0 b9bc
00000180: d181 68be 2af1 423d 3d55 05be 444c 993d
00000190: 96ab 113e ef88 2fbe 24b6 853d 9b1d 093e
000001a0: f9e3 5a3c b56c c4bc 56d1 863d 46e6 cc3d
000001b0: 907e e0bb a428 91bc 36e5 093d c274 763e
000001c0: 163b b03b 7b0b aebd ff78 81be 15b0 2cbd
000001d0: 906a 51be 7cae 24be 0ff4 813d 1cc1 d3bd
000001e0: 1eec 9b3d eb61 9d3d da2d 4cbd 4b4b 15bd
000001f0: 7251 3cbe cf98 bd3c ca43 78be 9a30 dfbd
00000200: b2e9 e3bb 9274 93be b649 cd3c 911d e43d
00000210: 2275 84bd 57b4 a4bd 2a88 163e 08eb 823d
00000220: 1921 d53d 1acb 1abd 3c7e 043d 0c0f 8cbc
00000230: 1740 e53b ebbb 44be dd1a dabd ada1 2e39
00000240: 3d6b 03be 1754 11be 2a30 023e aff0 1f3e
00000250: 0bf6 a33d fb40 c0bd edc7 d5bd c8f2 143b
00000260: 3fd1 2c3e 0ff8 ff3d 63aa d5bd 2645 8ebd
00000270: d2fc 9abd ac60 dcbd 0ebc fe3b a4ac 80bd
00000280: a522 9abe 8406 40be 24a0 84be a138 86be
00000290: 63db 04be d108 ee3d ada9 0b3e 6324 75be
000002a0: c223 89be d866 413e 21fe 173d 71d5 03be
000002b0: 9e4c 663e 3f7c 2e3e e2f7 80bd e721 4d3e
000002c0: 52bc 483e 22e7 bdbd 905f 3dbb aeca ee3d
000002d0: 576f 14bd 9828 c53d 5940 19be 5bde 06be
000002e0: 5edf 9c3d f0c4 373c 341e 2d3e 6d2b 5a3e
000002f0: 2aab 483e d6bf 63be 5c40 f23d 1516 6d3d
00000300: a014 923c 30a3 7abd f604 cf3d cdec 923c
00000310: 20bf 0cbe 8161 b43d 9358 ddbd 8af8 05be
00000320: 9e28 97be 6c73 edbd 4d37 9b3d 53e0 93be
00000330: 41f4 b6bb 1e50 a5be 28c9 873e fb58 d33d
00000340: c7f2 2abe e815 493e f1ac 3f3e 6438 413e
00000350: 9878 b9bd 7ef7 373e 85b7 9b3c 0d95 143e
00000360: d47c 12be c711 3d3e f326 93bd 2cc8 37be
00000370: 6d2a 3ebe cf56 ecbc 6a62 213d d9d3 983c
00000380: b25d 3a3d 667b c6bc dc61 87bc 1bdf 243e
00000390: 1428 9d3d 4cbb a8bd 8a22 953d 2e20 3d3e
000003a0: 20a5 4c3e 7001 343e 576e 01be 364c 1d3e
000003b0: 2753 4d3d 5643 0b3e 0539 fbbd 2231 ef3c
000003c0: ffb1 323d eff7 ab3c bba9 0fbe c0c3 22be
000003d0: 1ba6 cdbc b841 24be 7376 93be a08b 39be
000003e0: 7014 8cbe a184 fbbd 347a 993d 45d1 083e
000003f0: 33df fa3d ad97 0cbb 4366 cd3b 445a fa3d

l1.bias f4 [400]
-0.10226158 -0.017625766 -0.21625972 -0.17713083 0.19315615 0.14326726 0.15505257 0.011432304
0.04396806 0.0074794646 -0.1290766 0.2065727 -0.08503829 0.090823665 -0.16673017 -0.10661823
-0.11418418 -0.10526923 0.05454886 -0.067408726 -0.08607156 -0.13940383 0.12807536 -0.12082783
-0.18644512 -0.044918362 -0.15798552 -0.22499146 0.115973085 0.1899353 -0.2570842 0.051643007
0.10020769 -0.11720592 -0.0133194 -0.17951268 -0.03524194 0.08623816 0.26602763 0.11687657
-0.17644294 -0.18432328 0.14183702 -0.17944433 0.22763284 -0.00069321494 -0.03178238 0.048032522
-0.16240813 -0.18481505 0.1257298 0.13242988 0.24783106 0.07786014 -0.14333327 -0.06262771
-0.14649296 -0.07117674 0.07845929 -0.21173584 0.03604946 -0.069805264 -0.12932895 -0.08315867
-0.0073142243 0.058534384 0.1330901 -0.009374025 -0.172735 0.030944863 -0.05836013 0.021305287
-0.06784063 -0.03738503 0.13222967 0.08100557 -0.02557778 -0.1496066 0.10061148 0.1449427
0.21842292 -0.10982084 0.076957636 -0.11723649 -0.069498494 -0.18732364 0.11516864 -0.1952957
-0.23289376 -0.12315145 0.19683476 0.15771669 0.26576945 -0.19916958 0.11242604 -0.11233462
0.20069496 0.0986057 0.022876224 0.014206143 0.07480022 -0.16527824 0.06282859 -0.09707262
0.116569996 -0.09140844 -0.04309193 0.16129641 -0.087412655 -0.15589643 0.012972754 -0.19435866
-0.06477458 -0.17682877 -0.16879372 0.11511656 -0.057598956 0.08556792 0.19826105 -0.057561364
0.04267872 0.055140484 -0.09859449 0.25055996 0.04438584 -0.051082492 0.18036328 -0.021916505
-0.02093084 0.16764176 0.04698782 -0.13248776 0.06653552 0.0047410317 0.0013701629 0.13917682
0.08493568 0.054689243 0.19073685 -0.07311176 -0.08154396 -0.03810977 -0.017616982 -0.17719087
0.09957911 -0.004166539 0.1638327 -0.18092258 0.11758236 -0.100193486 0.0039991164 0.025195075
-0.047840334 0.017194873 0.0045141224 0.07806972 0.1547541 0.15428549 0.1043732 0.0488496
-0.019616058 0.18481451 -0.018839834 -0.15317775 0.19724505 0.14295171 -0.14384678 0.12425866
-0.12157489 0.082882196 -0.14366195 0.16598809 0.07827583 0.08141163 0.04383146 0.13829121
0.10946384 -0.075485855 0.03487279 0.09389883 0.13582109 -0.009262477 0.13457789 0.15393238
0.12696671 -0.043634556 0.10355896 -0.017745538 0.08941381 -0.0773419 0.053507537 -0.010800692
0.14695576 0.016620468 -0.102239296 0.0068554385 0.102382794 0.16999666 -0.017164135 -0.20103693
-0.1259206 -0.14216885 -0.11976802 0.05360238 -0.14187066 0.2305884 -0.18863364 -0.080926426
-0.182216 0.054662727 -0.13518222 0.10172897 0.13495527 0.087371066 -0.04332514 -0.04638275
0.13767444 0.011032832 -0.011969955 -0.10029989 -0.08141568 -0.054405253 -0.1576333 -0.00082582206
-0.097883426 -0.057312023 0.13483898 0.0076491437 0.08224044 -0.03769581 0.08525756 -0.0017204221
-0.1764957 0.14068678 0.06230927 0.14130099 -0.052848108 0.17428276 0.10016645 -0.04357057
0.056614872 -0.0596795 -0.09097025 0.089700975 0.07023071 -0.2139372 -0.036942914 0.18666849
-0.1310333 -0.10962077 0.18188517 -0.113941856 -0.082268775 -0.12334768 0.07899156 -0.1474074
00000000: 856e d1bd e963 90bc 3073 5dbe c961 35be
00000010: baca 453e a7b4 123e 1ac6 1e3e 8f4e 3b3c
00000020: da17 343d 4c16 f53b a82c 04be cb87 533e
00000030: 8e28 aebd c201 ba3d 50bb 2abe a95a dabd
00000040: 65d9 e9bd 6597 d7bd a06e 5f3d 960d 8abd
00000050: 4946 b0bd e1bf 0ebe 3026 033e 9574 f7bd
00000060: 78eb 3ebe 51fc 37bd f5c6 21be 2964 66be
00000070: 4c83 ed3d 667e 423e 8aa0 83be 9e87 533d
00000080: b039 cd3d a809 f0bd 9d39 5abc 2cd2 37be
00000090: da59 10bd a29d b03d c634 883e fc5c ef3d
000000a0: 75ad 34be 3ebf 3cbe b93d 113e 41c0 37be
000000b0: 9518 693e deb8 35ba 3e2e 02bd c0bd 443d
000000c0: 514e 26be 2840 3dbe 50bf 003e b39b 073e
000000d0: 6dc7 7d3e 2375 9f3d f5c5 12be f542 80bd
000000e0: 4002 16be 1cc5 91bd 44af a03d 48d1 58be
000000f0: 99a8 133d 10f6 8ebd cf6e 04be 184f aabd
00000100: 29ac efbb c0c1 6f3d c548 083e 8395 19bc
00000110: 72e1 30be 1580 fd3c 080b 6fbd 6d88 ae3c
00000120: 07f0 8abd 0c21 19bd 3767 073e 40e6 a53d
00000130: 7e88 d1bc 7932 19be 640d ce3d dc6b 143e
00000140: 42aa 5f3e c0e9 e0bd f79b 9d3d af19 f0bd
00000150: 3a55 8ebd c5d1 3fbe 89dd eb3d 99fb 47be
00000160: b47b 6ebe d436 fcbd 0d8f 493e 7c80 213e
00000170: ef12 883e 1cf3 4bbe a03f e63d b10f e6bd
00000180: fb82 4d3e c9f1 c93d eb66 bb3c e2c0 683c
00000190: dc30 993d b33e 29be 47ac 803d 03ce c6bd
000001a0: 40bc ee3d 5934 bbbd 2a81 30bd e32a 253e
000001b0: 6805 b3bd 50a3 1fbe ad8b 543c f505 47be
000001c0: 89a8 84bd 9a12 35be 43d8 2cbe 3bc2 eb3d
000001d0: e2ec 6bbd 3c3e af3d f204 4b3e 77c5 6bbd
000001e0: e2cf 2e3d fdda 613d e8eb c9bd 6549 803e
000001f0: edcd 353d e03b 51bd 27b1 383e 3e8a b3bc
00000200: 2777 abbc 48aa 2b3e 4d76 403d dfaa 07be
00000210: c643 883d a85a 9b3b 0a97 b33a 5e84 0e3e
00000220: c2f2 ad3d d401 603d 8550 433e 9ebb 95bd
00000230: 8500 a7bd fd18 1cbd 7d51 90bc 8671 35be
00000240: 22f0 cb3d 7687 88bb c2c3 273e c543 39be
00000250: 05cf f03d 3e32 cdbd 050b 833b e765 ce3c
00000260: 3af4 43bd 43dc 8c3c 34eb 933b 04e3 9f3d
00000270: dc77 1e3e 04fd 1d3e 9ec1 d53d 8516 483d
00000280: dbb1 a0bc 0440 3d3e ff55 9abc a1da 1cbe
00000290: 9bfa 493e ef61 123e 924c 13be 537b fe3d
000002a0: 42fc f8bd 24be a93d 1e1c 13be c8f8 293e
000002b0: 144f a03d 24bb a63d 9e88 333d 369c 0d3e
000002c0: 942e e03d 5498 9abd c5d6 0e3d 084e c03d
000002d0: af14 0b3e a5c1 17bc c9ce 093e 73a0 1d3e
000002e0: 9003 023e 26ba 32bd b816 d43d 175f 91bc
000002f0: 961e b73d 6e65 9ebd b82a 5b3d 63f5 30bc
00000300: 927b 163e a627 883c d662 d1bd 96a3 e03b
00000310: 12ae d13d 9b13 2e3e cd9b 8cbc a0dc 4dbe
00000320: 54f1 00be b694 11be f048 f5bd 2b8e 5b3d
00000330: 8b46 11be 5e1f 6c3e 2d29 41be c1bc a5bd
00000340: d596 3abe 06e6 5f3d 356d 0abe 4757 d03d
00000350: b731 0a3e 9aef b23d b475 31bd d7fb 3dbd
00000360: 87fa 0c3e 0dc3 343c a11d 44bc 076a cdbd
00000370: 44bd a6bd 0bd8 5ebd a06a 21be fb7b 58ba
00000380: 1b77 c8bd 03c0 6abd 3b13 0a3e aba5 fa3b
00000390: ad6d a83d ec66 1abd 849b ae3d c97f e1ba
000003a0: 4abb 34be 3210 103e 0138 7f3d 35b1 103e
000003b0: 4277 58bd 2e77 323e 1124 cd3d 0e77 32bd
000003c0: ffe4 673d 7e72 74bd 9c4e babd 25b5 b73d
000003d0: 1ed5 8f3d 5a12 5bbe 7451 17bd 0626 3f3e
000003e0: 982d 06be db80 e0bd 1b40 3a3e 595a e9bd
000003f0: 887c a8bd b59d fcbd 54c6 a13d f7f1 16be

l2.weight f4 [300, 400]
0.056529164 -0.023621364 -0.052713074 0.0505065 -0.063848205 -0.11389395 0.054091267 -0.0290133
-0.07264418 -0.023843514 -0.019883571 0.058544673 0.04720354 -0.06725677 0.047728322 -0.05153816
-0.06341193 0.016015721 0.027307888 0.041466117 -0.016459988 0.060508687 -0.006151279 0.020425372
-0.0059572817 0.03897929 0.027758198 0.0073345494 -0.07380209 0.12179396 -0.005252418 -0.10368351
0.01013754 -0.03214326 0.06396292 -0.054749846 -0.052639928 -0.058554873 -0.053361204 0.046561763
0.11905971 0.023305822 0.012040645 0.060641624 0.035127655 -0.07233597 0.07131411 -0.07103126
0.054427 -0.0033018624 0.007952053 -0.03321837 0.06305542 0.019380953 0.00999369 0.16321912
-0.07659255 -0.0833183 -0.04175763 -0.16833599 0.08218443 -0.027192088 -0.104985006 -0.051824
0.09024867 0.029258428 0.11609448 0.026993537 -0.015048027 0.0038918643 0.015709661 0.05662369
-0.096707135 -0.075759366 -0.06983267 0.03900619 -0.17181993 -0.11664374 -0.060080383 -0.026467973
0.10097324 0.021983886 -0.02075855 0.012416308 0.020918002 0.040750798 0.027094193 0.021447003
-0.0054853526 0.0025337643 0.06752128 -0.0031699566 -0.06255199 0.029604042 -0.15570213 -0.059445236
-0.18188928 0.14142096 -0.044257738 0.038355876 -0.03415765 0.08648683 0.11551702 -0.06868872
-0.013392688 0.037991483 -0.049736872 0.01077671 0.054013826 -0.01879085 0.012460983 0.014271035
-0.025747405 0.08218917 -0.10717652 0.09730846 0.08380682 0.0958251 -0.0032424373 -0.10099108
0.054787103 0.03092847 -0.104329765 -0.088845864 0.07142089 0.011723774 -0.041114293 0.071584284
-0.008507523 -0.031790804 0.11746207 -0.017477602 0.027262492 -0.14346637 -0.12096305 0.08431023
0.062325474 0.09418672 0.050712954 -0.10569842 -0.053854607 0.033596672 -0.068014234 -0.036555234
0.009380863 -0.06903691 -0.035710555 0.040993918 0.032743588 -0.035471074 -0.0018524069 -0.14209265
-0.0670854 0.04416229 0.041673895 -0.17952994 -0.07297974 -0.03820519 0.012003762 0.015452032
-0.027563563 0.007140257 -0.027134659 0.008807904 -0.0031659186 0.0098712025 -0.07505636 -0.08953457
0.054175913 -0.041900292 0.049920794 -0.023434082 0.07804349 -0.120357886 -0.08424994 -0.008203895
-0.011981426 0.019369269 -0.06961783 0.1286461 0.03392793 0.016079497 -0.085536085 -0.040957715
0.02141764 0.04918618 0.12350843 0.02873242 -0.0044868276 -0.047936443 0.0050138473 -0.014150266
-0.11157098 -0.0644605 -0.062858164 -0.089886494 0.036876135 -0.056206588 -0.042956498 -0.018625744
0.11112633 -0.075504504 -0.12857841 -0.031966377 -0.013495032 -0.039730784 0.048946347 0.03436541
-0.03397996 0.040999584 -0.057204373 -0.092854984 -0.013254152 -0.114489034 -0.0597785 -0.007486582
-0.02760539 0.26633218 0.042681016 0.08346424 -0.1048957 -0.13497101 -0.024527656 0.0050044614
0.052957114 -0.030740142 0.0050284644 0.008611297 -0.15193532 0.06225713 -0.13395897 0.03629286
-0.05365316 -0.023997162 -0.04694282 0.07683049 -0.05615312 0.031072564 0.07169559 0.0028074074
0.11964278 -0.06391431 0.13033247 -0.1317386 0.0003364954 -0.061760616 0.05652053 0.06310934
-0.08887784 0.051748876 0.042530447 0.043059997 0.011901317 -0.047555543 0.023900341 -0.03779449
00000000: 208b 673d 9781 c1bc aae9 57bd e7df 4e3d
00000010: d9c2 82bd 3b41 e9bd ce8e 5d3d 4dad edbc
00000020: 79c6 94bd 7953 c3bc dfe2 a2bc 8acc 6f3d
00000030: 8058 413d ebbd 89bd c67e 433d ad19 53bd
00000040: 1dde 81bd 6733 833c cbb4 df3c 60d8 293d
00000050: 19d7 86bc f5d7 773d ab90 c9bb 1c53 a73c
00000060: 4d35 c3bb bfa8 1f3d 2965 e33c a956 f03b
00000070: 8d25 97bd 1d6f f93d 7a1c acbb 0558 d4bd
00000080: ed17 263c a7a8 03bd fefe 823d 6041 60bd
00000090: f79c 57bd 3cd7 6fbd 4791 5abd 8cb7 3e3d
000000a0: 94d5 f33d daeb be3c 2046 453c 5a63 783d
000000b0: 04e2 0f3d e224 94bd 220d 923d d678 91bd
000000c0: d9ee 5e3d 0f64 58bb 5449 023c fc0f 08bd
000000d0: 3323 813d cec4 9e3c 93bc 233c ea22 273e
000000e0: 8edc 9cbd c9a2 aabd 0c0a 2bbd 4560 2cbe
000000f0: 4f50 a83d f1c1 debc 6102 d7bd 6745 54bd
00000100: 4bd4 b83d 5faf ef3c f1c2 ed3d 8d21 dd3c
00000110: 008c 76bc a60e 7f3b 8cb1 803c 3eee 673d
00000120: 640e c6bd ba27 9bbd 6e04 8fbd f4c4 1f3d
00000130: 90f1 2fbe eae2 eebd d916 76bd 5dd3 d8bc
00000140: 0fcb ce3d 8d17 b43c d60d aabc c56d 4b3c
00000150: 3b5c ab3c 4fea 263d a4f4 dd3c a0b1 af3c
00000160: 79be b3bb 830d 263b 9948 8a3d 0cbf 4fbb
00000170: 421b 80bd 2d84 f23c 6170 1fbe d97c 73bd
00000180: 2f41 3abe a8d0 103e 9a47 35bd 0d1b 1d3d
00000190: e4e8 0bbd 0220 b13d 3094 ec3d acac 8cbd
000001a0: 016d 5bbc f59c 1b3d e4b8 4bbd cc90 303c
000001b0: 9a3d 5d3d 45ef 99bc 2729 4c3c 0fd1 693c
000001c0: 39ec d2bc cc52 a83d 5d7f dbbd a849 c73d
000001d0: e9a2 ab3d f33f c43d 127f 54bb 69d4 cebd
000001e0: 7168 603d b45d fd3c d8aa d5bd d2f4 b5bd
000001f0: 1e45 923d 1215 403c 7667 28bd c89a 923d
00000200: 2363 0bbc 1337 02bd f48f f03d 302d 8fbc
00000210: 9755 df3c d9e8 12be 7abb f7bd d8aa ac3d
00000220: ff48 7f3d f8e4 c03d 63b8 4f3d 6a78 d8bd
00000230: a696 5cbd aa9c 093d 0c4b 8bbd f1ba 15bd
00000240: 31b2 193c 3963 8dbd 3b45 12bd 3de9 273d
00000250: 241e 063d 1e4a 11bd 76cc f2ba bc80 11be
00000260: 1264 89bd 84e3 343d 3fb2 2a3d b2d6 37be
00000270: 6776 95bd 0c7d 1cbd 6dab 443c 852a 7d3c
00000280: fbcc e1bc d1f8 e93b 8149 debc 074f 103c
00000290: 4d7b 4fbb d3ba 213c 26b7 99bd e75d b7bd
000002a0: 90e7 5d3d a49f 2bbd bf79 4c3d d5f8 bfbc
000002b0: 44d5 9f3d 327e f6bd 3c8b acbd a169 06bc
000002c0: be4d 44bc 4dac 9e3c cb93 8ebd cebb 033e
000002d0: 03f8 0a3d 26b9 833c 8b2d afbd 47c3 27bd
000002e0: 0c74 af3c 7377 493d fdf1 fc3d 4160 eb3c
000002f0: 3d06 93bb 0159 44bd 334b a43b 84d6 67bc
00000300: 537f e4bd de03 84bd c8bb 80bd 6916 b8bd
00000310: 6e0b 173d e138 66bd 27f3 2fbd 0495 98bc
00000320: 3496 e33d 1ba2 9abd 0faa 03be 2def 02bd
00000330: 441a 5dbc bfbc 22bd f77b 483d bfc2 0c3d
00000340: 922e 0bbd 2eef 273d 224f 6abd c12a bebd
00000350: f127 59bc 3a79 eabd 4dda 74bd 0052 f5bb
00000360: b324 e2bc b15c 883e 4ad2 2e3d 4def aa3d
00000370: 8fd3 d6bd d735 0abe 39ee c8bc 77fc a33b
00000380: 8fe9 583d c0d2 fbbc d1c5 a43b 6616 0d3c
00000390: ef94 1bbe 5501 7f3d 8a2c 09be d2a7 143d
000003a0: 6ac3 5bbd b295 c4bc 1d47 40bd 4e59 9d3d
000003b0: d000 66bd e48b fe3c 23d5 923d 7bfc 373b
000003c0: 4607 f53d 81e5 82bd e075 053e 7ce6 06be
000003d0: a66b b039 b3f8 7cbd 1282 673d 783f 813d
000003e0: 9605 b6bd a1f6 533d 6834 2e3d ae5f 303d
000003f0: befd 423c 9ac9 42bd a6ca c33c 65ce 1abd

l2.bias f4 [300]
-0.019858412 -0.03444 0.00876514 -0.05858345 0.015020534 -0.029455125 -0.025032444 -0.06647997
-0.049950037 0.022509716 -0.093434855 0.0078721205 -0.055163663 0.10736806 -0.057786856 -0.055528425
-0.06405084 -0.058531314 -0.022166703 0.027306242 0.041592415 0.0339284 0.008652418 -0.06664405
0.029365 -0.0020423543 -0.05931961 0.020894391 -0.058588844 -0.008129187 -0.0472912 0.10650587
-0.04874236 -0.044515673 -0.021486757 -0.014150979 0.030769104 -0.0375607 0.028676018 0.050786786
0.09736306 -0.005644199 -0.035091378 -0.010390404 0.033147674 -0.014811682 -0.011698847 0.016482605
0.02347544 -0.031533062 -0.016415976 -0.020095922 0.018025652 -0.049416628 -0.0110374885 -0.034161497
-0.05512829 -0.034959402 -0.008049119 0.019315405 0.022869837 -0.071746424 -0.057622593 0.0027850978
-0.006090033 -0.049860798 -0.039474778 0.030509895 0.025550593 -0.062939845 -0.041802246 0.05176091
-0.05447601 0.033014387 -0.06527674 -0.00686814 0.028514255 0.01783821 0.013818852 0.028866969
-0.047098204 -0.01281058 -0.04644821 -0.026046759 0.022385769 -0.040452562 -0.077796124 -0.09811735
0.07682199 0.0067525106 0.061023578 0.008553621 -0.035746507 -0.011835096 -0.03491371 0.024137303
0.05978001 0.07678515 0.070570804 -0.00954688 -0.058343846 0.050424352 -0.039016265 -0.0099334605
-0.030515878 -0.034593638 -0.013124916 0.03485949 -0.04644576 0.0013987279 -0.006807492 0.005724327
-0.01535763 0.003534016 0.04626406 0.05420252 -0.052013118 -0.009628812 -0.04836053 0.005504034
0.016408807 -0.02793135 -0.022624087 -0.060988445 -0.0016061747 0.015338293 0.054655872 -0.030764122
0.08127374 -0.039694592 -0.02805506 -0.01340177 0.08439979 0.033749435 -0.027082676 -0.04791067
0.032772325 -0.026905276 0.002713441 -0.0032806874 -0.08800247 -0.084767096 -0.06951139 -0.010793694
0.013732446 -0.07023356 0.014901491 -0.012360991 0.027096301 0.053888295 -0.016026754 -0.063514
0.0016789633 0.00046204883 -0.039722383 -0.018104672 -0.022262169 0.0017013844 -0.0035947182 -0.04360051
-0.022202343 -0.042263184 -0.010550642 0.0610988 0.0056565707 -0.027312176 0.043146513 0.055553395
0.0077921106 0.014641965 0.009077251 0.021399776 0.0369935 -0.040356614 0.0050962367 0.027530981
-0.025641488 0.046267666 -0.05662119 -0.005897472 0.09380424 0.0059205536 -0.030794619 -0.0371195
-0.008402623 -0.08699222 0.052103266 0.018034944 0.013693441 0.03946643 -0.03690289 -0.022930136
0.030385364 -0.030853225 0.012020024 -0.020816592 -0.060712185 -0.065543495 -0.0021488834 -0.038727317
0.007468905 -0.025857428 -0.0687802 0.019941185 -0.045461062 -0.036643416 0.03899705 -0.027954286
-0.0057889973 -0.041379288 0.081614755 0.010954477 -0.08061693 0.011298983 -0.015936807 -0.0015528208
0.037456486 -0.0079056425 0.006122643 -0.004548599 -0.0020521402 0.004440151 -0.06541401 -0.040768594
-0.03485079 0.008576941 0.036742095 -0.0065749646 0.024058329 -0.017636418 -0.06418136 -0.024421778
0.05427321 -0.004183279 0.023007127 -0.03673825 -0.06309509 -0.03929116 -0.02438583 0.05388437
-0.048212316 0.045681693 -0.055082552 -0.051361114 -0.061325587 0.055652194 -0.018244421 0.06720622
-0.07036755 0.015272394 0.0046568853 -0.049331225 -0.014731615 -0.052942466 0.0088489875 0.017835697
00000000: 1cae a2bc f510 0dbd a99b 0f3c 33f5 6fbd
00000010: b018 763c e04b f1bc d710 cdbc a726 88bd
00000020: 6998 4cbd 4c66 b83c c65a bfbd 11fa 003c
00000030: 4bf3 61bd c9e3 db3d e9b1 6cbd c671 63bd
00000040: 162d 83bd 88be 6fbd f296 b5bc 57b1 df3c
00000050: cf5c 2a3d 82f8 0a3d dfc2 0d3c ad7c 88bd
00000060: de8e f03c 05d9 05bb 1ff9 72bd b72a ab3c
00000070: dbfa 6fbd 4830 05bc 6bb4 41bd c01f da3d
00000080: 12a6 47bd 1156 36bd ff04 b0bc 82d9 67bc
00000090: 7d0f fc3c 40d9 19bd f8e9 ea3c ce05 503d
000000a0: 4966 c73d f9f2 b8bb fabb 0fbd 833c 2abc
000000b0: dbc5 073d b2ac 72bc 85ac 3fbc 8706 873c
000000c0: 914f c03c d028 01bd cc7a 86bc 34a0 a4bc
000000d0: 88aa 933c 1769 4abd 95d6 34bc edec 0bbd
000000e0: 34ce 61bd 9731 0fbd 74e0 03bc 573b 9e3c
000000f0: 8659 bb3c caef 92bd ab05 6cbd 3086 363b
00000100: e68e c7bb d63a 4cbd 4eb0 21bd e3ef f93c
00000110: 7a4f d13c 9be6 80bd d538 2bbd 3f03 543d
00000120: 3d22 5fbd 183a 073d d0af 85bd 220e e1bb
00000130: ba96 e93c 7021 923c 7768 623c 6c7a ec3c
00000140: 0cea 40bd 78e3 51bc 7a40 3ebd 0360 d5bc
00000150: 5c62 b73c 96b1 25bd 9353 9fbd c0f1 c8bd
00000160: d954 9d3d 2a44 dd3b dcf3 793d 7d24 0c3c
00000170: ee6a 12bd fee7 41bc ae01 0fbd 98bb c53c
00000180: e2db 743d 8841 9d3d 6d87 903d 846a 1cbc
00000190: f5f9 6ebd c489 4e3d 85cf 1fbd f4bf 22bc
000001a0: 6ffc f9bc 0fb2 0dbd e309 57bc d3c8 0e3d
000001b0: e93d 3ebd 8555 b73a 6211 dfbb 2393 bb3b
000001c0: 929e 7bbc f39a 673b 627f 3d3d 7603 5e3d
000001d0: b50b 55bd 2ac2 1dbc b115 46bd 2f5b b43b
000001e0: c36b 863c 49d0 e4bc 2656 b9bc 05cf 79bd
000001f0: 4886 d2ba 774d 7b3c d6de 5f3d 0a05 fcbc
00000200: d972 a63d cc96 22bd bad3 e5bc 1993 5bbc
00000210: ccd9 ac3d d93c 0a3d 7ddc ddbc fb3d 44bd
00000220: 463c 063d 7468 dcbc fcd3 313b cd00 57bb
00000230: a43a b4bd 5f9a adbd fd5b 8ebd 09d8 30bc
00000240: 0efe 603c 9dd6 8fbd 6225 743c c185 4abc
00000250: 10f9 dd3c f9b9 5c3d 8a4a 83bc a113 82bd
00000260: a910 dc3a 253f f239 f0b3 22bd 4050 94bc
00000270: 275f b6bc fd00 df3a 5d95 6bbb 7396 32bd
00000280: b0e1 b5bc 291c 2dbd 9adc 2cbc bc42 7a3d
00000290: c15a b93b c9bd dfbc 66ba 303d f58b 633d
000002a0: f654 ff3b dae4 6f3c c0b8 143c 954e af3c
000002b0: 7f86 173d fa4c 25bd 55fe a63b a788 e13c
000002c0: 190e d2bc 2a83 3d3d 9feb 67bd 953f c1bb
000002d0: 701c c03d 3401 c23b ff44 fcbc 9e0a 18bd
000002e0: 28ab 09bc fa28 b2bd 3c6a 553d 05be 933c
000002f0: 745a 603c 8da7 213d 7c27 17bd fbd7 bbbc
00000300: baea f83c e7bf fcbc a2ef 443c 8f87 aabc
00000310: 57ad 78bd ab3b 86bd 48d4 0cbb 89a0 1ebd
00000320: b7bd f43b f5d2 d3bc a2dc 8cbd b25b a33c
00000330: 6135 3abd 6817 16bd 5fbb 1f3d 6300 e5bc
00000340: a1b1 bdbb 547d 29bd a325 a73d 687a 333c
00000350: 7d1a a5bd 5f1f 393c e88d 82bc 0588 cbba
00000360: f96b 193d ab86 01bc 74a0 c83b 6a0c 95bb
00000370: 337d 06bb b07e 913b c8f7 85bd f8fc 26bd
00000380: b4bf 0ebd 4c86 0c3c e17e 163d cd72 d7bb
00000390: f915 c53c 407a 90bc 8471 83bd 2e10 c8bc
000003a0: 964d 5e3d e313 89bb 7179 bc3c d97a 16bd
000003b0: 0038 81bd c4ef 20bd cbc4 c7bc dbb5 5c3d
000003c0: 477a 45bd ba1c 3b3d 3e9e 61bd 0860 52bd
000003d0: 8a30 7bbd 8ef3 633d 5375 95bc 6aa3 893d
000003e0: dd1c 90bd 1039 7a3c c998 983b 8a0f 4abd
000003f0: df5c 71bc 33da 58bd 58fb 103c 2b1c 923c

l3.weight f4 [2, 300]
-0.109494664 0.011018407 0.024444126 0.053651072 0.112978294 0.047255263 0.053578354 0.043464147
0.016540475 0.0002477268 -0.08015456 0.018139448 0.22846931 0.07328473 -0.00052414613 -0.049531687
-0.07488042 0.021901341 0.04179773 0.047460377 0.11515467 -0.05041868 -0.047842413 -0.008963784
-0.098797455 0.02563295 -0.009167501 0.07310844 0.025124788 -0.006171156 -0.07995936 0.08265459
0.0015672942 -0.03322681 0.01293016 -0.0059788204 -0.025539262 0.34802252 0.08023772 -0.035762466
0.09160101 0.051219366 0.039068226 0.009596669 0.04338994 -0.0070924773 0.36706632 -0.0010059208
0.064851835 0.077730514 0.020097483 0.006214026 -0.028107159 0.013411671 -0.03329482 0.011203449
0.042715583 -0.021732554 0.027649889 0.007858685 -0.120410286 -0.031177504 0.14377077 -0.09413981
-0.025119666 0.011768249 0.011325482 0.00983197 -0.0070088045 0.01960527 0.03464998 -0.062116783
0.028730417 0.0187693 -0.04999239 -0.0031462063 0.55888015 0.109865285 -0.10496012 -0.21820316
-0.047868777 0.0074663023 -0.051548284 0.015865425 0.024539487 -0.046255484 0.70548755 0.8442719
0.12357537 0.18081051 0.291017 0.014309547 0.014450523 0.007610815 0.0057669617 0.09839548
0.009613346 -0.010438022 0.017149124 -0.01402653 -0.015366363 0.11929257 -0.034325108 0.28279397
0.018640656 -0.029147487 -0.029004723 0.0011635106 -0.039578017 0.012036806 -0.20243125 -0.019904329
-0.039461486 -0.034492027 0.103269264 0.07818367 0.02834736 -0.022367788 0.031650957 -0.013892875
0.21704283 0.010326376 -0.070502624 -0.020629814 -0.11742454 -0.115359284 -0.027113736 0.08442199
0.08276266 -0.047725383 0.0056658834 -0.04625999 0.10613574 -0.045012735 0.06818316 -0.023684002
-0.20541933 -0.032465436 0.037119575 0.78042126 -0.027202915 -0.031695113 -0.01462331 -0.030767867
0.029653257 -0.012614037 -0.039784826 0.6897198 -0.08338079 0.08791974 -0.13841128 -0.0015211125
-0.01237432 0.041133735 0.02535684 0.15912645 -0.008598341 -0.1597334 0.04501798 0.022914533
-0.03283573 0.051806003 -0.014527982 0.099254616 0.10832214 0.04145121 0.007536892 0.12453863
0.031508278 0.008416976 -0.11587096 0.019888718 0.10276473 0.010311617 0.002655659 -0.017988257
-0.04231714 -0.040773094 0.5248953 0.028396428 0.0642406 -0.09549707 0.0135673825 0.00090854504
-0.15150797 -0.03858068 0.0050437646 0.018174777 -0.07252913 -0.011854236 0.01066256 -0.024527878
-0.108329214 -0.034588784 0.056040727 0.017033063 -0.03864072 -0.038404286 0.002220174 0.07206042
0.012630852 -0.028603023 0.0028276388 0.07307441 0.019174919 -0.009813138 -0.0017934086 -0.04160412
-0.036726452 0.019281553 0.119598106 0.04954793 -0.020900697 0.050848804 1.0462523 0.42633626
0.10000285 0.009662615 -0.026792059 -0.031435568 -0.09913485 0.025263129 -0.0662874 0.022741582
0.001775812 -0.012582933 0.020603687 -0.015176086 0.037839744 0.30417958 0.41171402 0.036328137
-0.08475777 0.041674137 -0.032796755 -0.135755 -0.020991996 0.0060007498 -0.008871163 0.16646722
-0.1484294 -0.05738547 -0.024470897 0.04504618 0.04645532 -0.033057068 -0.0058463262 0.07245743
0.029817946 0.007792788 0.028322635 0.023142835 -0.042033095 -0.009145848 0.6439343 -0.23151362
00000000: bd3e e0bd 8c86 343c 0c3f c83c 3ac1 5b3d
00000010: 2a61 e73d bc8e 413d fa74 5b3d 7607 323d
00000020: e47f 873c 54e1 8139 1328 a4bd 2e99 943c
00000030: dcf3 693e 4e16 963d da66 09ba bde1 4abd
00000040: e85a 99bd 716a b33c 1934 2b3d d065 423d
00000050: 36d6 eb3d d183 4ebd 68f6 43bd d6dc 12bc
00000060: 5256 cabd 31fc d13c 4933 16bc e1b9 953d
00000070: 80d2 cd3c 6937 cabb bcc1 a3bd cf46 a93d
00000080: ab6d cd3a d618 08bd 06d9 533c fbe9 c3bb
00000090: b737 d1bc 0230 b23e ac53 a43d aa7b 12bd
000000a0: 4f99 bb3d 66cb 513d 0106 203d 593b 1d3c
000000b0: a6b9 313d 0368 e8bb 1ef0 bb3e 1ad9 83ba
000000c0: 0ad1 843d 2d31 9f3d 7aa3 a43c 079f cb3b
000000d0: fc40 e6bc a0bc 5b3c 2660 08bd ac8e 373c
000000e0: 89f6 2e3d 7808 b2bc 0582 e23c b7c1 003c
000000f0: ab99 f6bd f767 ffbc a538 133e 5fcc c0bd
00000100: c2c7 cdbc 9dcf 403c 848e 393c 4516 213c
00000110: 1daa e5bb 3b9b a03c 23ed 0d3d 2b6e 7ebd
00000120: 0d5c eb3c 13c2 993c d2c4 4cbd 9530 4ebb
00000130: c512 0f3f 0d01 e13d 55f5 d6bd a670 5fbe
00000140: 0d12 44bd e2a7 f43b 4b24 53bd 35f8 813c
00000150: 0907 c93c 6476 3dbd d59a 343f 3422 583f
00000160: 1515 fd3d 6426 393e 2e00 953e 9772 6a3c
00000170: e3c1 6c3c 2564 f93b c8f8 bc3b 9283 c93d
00000180: 4c81 1d3c 3d04 2bbc 527c 8c3c 88cf 65bc
00000190: 33c3 7bbc aa4f f43d 7c98 0cbd 5fca 903e
000001a0: 4ab4 983c b6c6 eebc 509b edbc f080 983a
000001b0: 8f1c 22bd 0636 453c 234a 4fbe 670e a3bc
000001c0: 5ea2 21bd 8347 0dbd d67e d33d c31e a03d
000001d0: b938 e83c a73c b7bc 6fa4 013d f19e 63bc
000001e0: 7a40 5e3e f62f 293c ae63 90bd dbff a8bc
000001f0: 477c f0bd 7d41 ecbd a01d debc 70e5 ac3d
00000200: 787f a93d b17b 43bd e0a8 b93b 1e7b 3dbd
00000210: b25d d93d 465f 38bd 9da3 8b3d f404 c2bc
00000220: 7259 52be 7afa 04bd b20a 183d b0c9 473f
00000230: a6d8 debc bcd2 01bd 9c96 6fbc e50c fcbc
00000240: 63eb f23c 1bab 4ebc 6af5 22bd 7a91 303f
00000250: 8cc3 aabd 440f b43d b0bb 0dbe 1160 c7ba
00000260: a9bd 4abc d97b 283d 26b9 cf3c 0bf2 223e
00000270: 0ee0 0cbc 2791 23be c664 383d 42b7 bb3c
00000280: c27e 06bd 8832 543d c606 6ebc 0146 cb3d
00000290: 00d8 dd3d bec8 293d 08f8 f63b 1c0e ff3d
000002a0: d30e 013d 5be7 093c c14d edbd aaed a23c
000002b0: 5176 d23d 0ef2 283c 910a 2e3b 1c5c 93bc
000002c0: bd54 2dbd b001 27bd 8a5f 063f a09f e83c
000002d0: 9390 833d f893 c3bd ba49 5e3c 6d2b 6e3a
000002e0: e824 1bbe c606 1ebd 2a46 a53b 45e3 943c
000002f0: 278a 94bd 4538 42bc 05b2 2e3c b0ee c8bc
00000300: b5db ddbd f8ac 0dbd f68a 653d ec88 8b3c
00000310: bb45 1ebd d04d 1dbd 5780 113b 6a94 933d
00000320: a2f1 4e3c e350 eabc e84f 393b 09a8 953d
00000330: b814 9d3c 49c7 20bc cf10 ebba 1569 2abd
00000340: 7a6e 16bd 59f4 9d3c daef f43d c5f2 4a3d
00000350: f037 abbc d646 503d 98eb 853f bf48 da3e
00000360: 4bce cc3d f24f 1e3c 057b dbbc 95c2 00bd
00000370: 3607 cbbd 9ff4 ce3c b0c1 87bd 8e4c ba3c
00000380: 5dc2 e83a a528 4ebc 10c9 a83c 1ea5 78bc
00000390: d9fd 1a3d 6dbd 9b3e 2ecc d23e d0cc 143d
000003a0: 7b95 adbd 80b2 2a3d e455 06bd 5c03 0bbe
000003b0: 68f7 abbc f0a1 c43b 5b58 11bc 6276 2a3e
000003c0: e0fd 17be 070d 6bbd 3177 c8bc 5882 383d
000003d0: ef47 3e3d d966 07bd 8a92 bfbb 9064 943d
000003e0: c444 f43c a55a ff3b df04 e83c 0b96 bd3c
000003f0: e52a 2cbd 78d8 15bc e1d8 243f e811 6dbe

l3.bias f4 [2]
0.075951435 0.047065485
00000000: 6d8c 9b3d bdc7 403d
