models/actor_200.pth (torch, 532909 bytes, 6 tensors)

l1.weight f4 [400, 28]
0	0x3dd675d9	0.104716964
1	0xbe3d1607	-0.18465434
2	0x3e30a4ce	0.17250368
3	0xbe8d8a86	-0.27644747
4	0xbd282c9b	-0.041058164
5	0x3e56dd62	0.20982888
6	0xbbe3d904	-0.0069533605
7	0xbc8c8656	-0.0171539
8	0x3e52bdb4	0.20580178
9	0xbe0eeba7	-0.13957082
10	0x3cf820e3	0.03028912
11	0x3e36c62f	0.17849039
12	0xbccb9598	-0.024851605
13	0x3c9ddcdb	0.019270351
14	0xbd1017c5	-0.03517892
15	0x3e49c1f8	0.197029
16	0x3e3b52bc	0.1829328
17	0xbbceec9c	-0.006314827
18	0x3dc7de1e	0.09759162
19	0xbdeeaf18	-0.1165449
20	0xbe552054	-0.20813113
21	0xbe46ecab	-0.19426219
22	0xbd794242	-0.060854204
23	0x3dea843b	0.11451002
24	0x3d898040	0.06713915
25	0xbd3336b2	-0.043753333
26	0xbddaf440	-0.10691118
27	0xbc8310cb	-0.015999218
28	0x3e53d416	0.20686373
29	0x3d7159af	0.05892342
30	0xbebce4e1	-0.3689337
31	0xbda10582	-0.07862379
32	0x3e1e2673	0.15444355
33	0x3e28db5d	0.1648993
34	0x3de82435	0.11335031
35	0xbc7e0457	-0.015503964
36	0xbd40e863	-0.04709662
37	0xbc74cc76	-0.014941325
38	0xbd34d6c4	-0.04415013
39	0xbde01afd	-0.109426476
40	0x3d763661	0.060110454
41	0xbc861ae9	-0.016370254
42	0x3e20721f	0.15668534
43	0x3df0e228	0.11761886
44	0xbe3f2d7a	-0.18669692
45	0x3d7f0ce8	0.062268168
46	0xbe6634e6	-0.22481117
47	0xbdfa8edb	-0.12234279
48	0x3c94d172	0.018166278
49	0xbe5709e6	-0.2099987
50	0x3dc80610	0.09766781
51	0xbc2d837e	-0.010590432
52	0x3d48486a	0.048897184
53	0xbcc7f07b	-0.024406662
54	0x3d862439	0.06549878
55	0x3e98d2b3	0.2984825
56	0xbdeaa1e7	-0.11456662
57	0xbe4eb624	-0.20186669
58	0xbe57e013	-0.21081571
59	0x3d74d4ce	0.05977326
60	0xbe20ad0c	-0.15691012
61	0x3e54c5f0	0.20778632
62	0x3e5d4e9d	0.2161202
63	0xbcc7ff95	-0.024413863
64	0xbd451f86	-0.048125766
65	0xbdacfe89	-0.08446986
66	0x3e3d5eba	0.18493167
67	0xbddbd945	-0.107348
68	0x3e578909	0.21048369
69	0x3ceb626a	0.02873345
70	0x3e01f221	0.12690021
71	0x3df96c2c	0.12178835
72	0xbd077e22	-0.033079274
73	0xbd9ea422	-0.077461496
74	0xbce30f88	-0.027717367
75	0x3e1179bb	0.14206593
76	0x3e5d02f2	0.21583155
77	0xbddcd16c	-0.107821316
78	0x3d8f915f	0.07010149
79	0xbd914dcf	-0.07094919
80	0xbec800e3	-0.39063177
81	0x3e242299	0.16028823
82	0xbde0de3d	-0.109798886
83	0xbd25410e	-0.040345244
84	0x3ddf1a0c	0.1089364
85	0xbd67a055	-0.05654939
86	0x3dd657be	0.10465954
87	0x3d22d889	0.039757285
88	0xbd722e77	-0.059126344
89	0xbe08bb51	-0.13352706
90	0x3dc07358	0.09397
91	0xbe034439	-0.12818994
92	0x3e036bb3	0.12834053
93	0x3e1d79f8	0.15378559
94	0xbde23756	-0.11045711
95	0x3df613f4	0.120155245
96	0xbe8edbfd	-0.27902213
97	0xbe3961f2	-0.1810377
98	0xbe94211d	-0.28931513
99	0x3dadb114	0.084810406
100	0x3e893ea0	0.26805592
101	0xbdacfa6c	-0.08446202
102	0xbde0e8da	-0.10981913
103	0x3e146711	0.14492442
104	0x3d5c75a9	0.053823147
105	0x3dabf612	0.083965436
106	0x3d8a81f5	0.067630686
107	0xbdcf351f	-0.10117554
108	0x3c62e631	0.013848827
109	0xbd4546f3	-0.048163366
110	0x3e26cb91	0.16288592
111	0x3d86c0ee	0.06579767
112	0x3d3c2d85	0.04594185
113	0xbe1b38b7	-0.15158354
114	0xbdd56c6a	-0.10421069
115	0x3ea1c4c1	0.31595424
116	0x3e1caddf	0.15300702
117	0xbbeddb28	-0.0072587915
118	0xbd7ef51e	-0.06224548
119	0x3e4d67fb	0.20059197
120	0xbe374f16	-0.17901263
121	0xbde07481	-0.10959721
122	0xbd18d711	-0.03731448
123	0xbe26f8bf	-0.16305827
124	0xbd052111	-0.032502238
125	0xbc8b0812	-0.016971622
126	0xbd29778a	-0.041373767
127	0x3c920264	0.017823406
128	0x3dda61af	0.10663163
129	0x3e0d06f7	0.13772188
130	0xbce56e6f	-0.02800676
131	0x3e1a08ef	0.1504247
132	0x3de62712	0.11237921
133	0xbe34d7ab	-0.17660396
134	0xbe4f5490	-0.20247102
135	0x3d7e2b30	0.062052906
136	0xbe07ad48	-0.13249695
137	0xbe3b38c9	-0.1828338
138	0xbde846b5	-0.11341611
139	0x3ae56fc0	0.0017504618
140	0x3ccd2d6d	0.025046075
141	0xbd8489c7	-0.064715914
142	0xbdaabf76	-0.083372995
143	0xbce352fa	-0.027749527
144	0x3deed6b0	0.11662042
145	0xbda8c058	-0.08239812
146	0xbd58c7ef	-0.052925047
147	0xba6b9c78	-0.0008987854
148	0x3d9dce5e	0.07705377
149	0xbdb564b6	-0.088571
150	0xbe4988d2	-0.19681099
151	0x3e383e03	0.17992406
152	0x3e61b419	0.22041358
153	0xbe124c61	-0.14286949
154	0x3b402f4d	0.0029325068
155	0xbe43370e	-0.1906397
156	0xbdb091a5	-0.086215295
157	0xbe03edad	-0.12883635
158	0x3d92ecc3	0.07174065
159	0xbe1aedd8	-0.15129793
160	0x3db147bc	0.0865626
161	0x3c51244f	0.012765004
162	0x3e03edd2	0.1288369
163	0x3e299d6e	0.16563961
164	0x3d503fd9	0.05084214
165	0x3da54dd5	0.08071486
166	0x3e67e067	0.22644196
167	0xbe8d1466	-0.27554625
168	0xbc79c2ee	-0.015244229
169	0xbe840af5	-0.2578961
170	0x3da42fc0	0.0801692
171	0x3d5aabd7	0.053386535
172	0x3e2bb160	0.16766882
173	0x3e719b89	0.23594488
174	0x3df36d30	0.1188606
175	0x3cacff51	0.021117838
176	0xbe118128	-0.14209425
177	0x3db8ec8a	0.09029491
178	0x3de1acbc	0.110192746
179	0xbd8b601b	-0.0680544
180	0xbe1a6f3f	-0.150815
181	0x3df15d09	0.11785323
182	0x3de2d864	0.110764295
183	0xbe32e26d	-0.17469187
184	0x3df78cf2	0.1208743
185	0xbe08ea99	-0.13370742
186	0xbd9e7876	-0.0773782
187	0xbdb03ecf	-0.0860573
188	0xbe2cf7b9	-0.16891374
189	0xbe0db9e1	-0.13840438
190	0xbe1b424c	-0.15162009
191	0x3d3a6a73	0.045511674
192	0xbe59e702	-0.21279529
193	0xbea4e1c1	-0.32203487
194	0x3e3a5e62	0.18200067
195	0x3e90f868	0.2831452
196	0xbda1ae71	-0.078946
197	0xbd8eb6fc	-0.06968495
198	0xbe6645b5	-0.22487529
199	0x3e0fa782	0.14028743
200	0xbc8149df	-0.015782295
201	0x3df241f6	0.11828987
202	0x3de11d17	0.109918766
203	0xbb423d25	-0.0029638496
204	0xbdd0c264	-0.10193327
205	0xbdff71f7	-0.12472909
206	0xbd1febca	-0.039043225
207	0xbd70feca	-0.058836736
208	0x3e38e74c	0.18056983
209	0x3d4be434	0.04977818
210	0xbd9ad94a	-0.07560976
211	0xbe60cf54	-0.2195409
212	0xbda66b7d	-0.081259705
213	0xbe397cf9	-0.1811408
214	0x3e4f2a42	0.20230964
215	0x3d0e4523	0.034733903
216	0x3a4e8681	0.0007878319
217	0xbe179974	-0.14804631
218	0x3da5bf4e	0.08093129
219	0x3b344cee	0.0027511674
220	0xbea499ee	-0.3214869
221	0xbe83e2d3	-0.2575899
222	0x3e3e198a	0.1856443
223	0xbed004f5	-0.40628782
224	0xbb617be8	-0.003440613
225	0xbdd95f5c	-0.106138915
226	0xbdcaec38	-0.099083364
227	0xbdb6d758	-0.08927792
228	0x3cbd6c48	0.023122922
229	0x3e0db2a0	0.13837671
230	0x3d960574	0.07325259
231	0xbe0679d7	-0.13132416
232	0x3dd23639	0.102642484
233	0x3e2a2337	0.16614996
234	0xbe38fd90	-0.18065476
235	0x3e4d118a	0.20026222
236	0x3cfb8a9d	0.030705744
237	0xbe16119e	-0.14655158
238	0x3dbf3a7c	0.09337327
239	0x3df47a47	0.11937385
240	0xbd21ffb9	-0.039550517
241	0xbe27cf29	-0.16387619
242	0x3e57938c	0.21052378
243	0x3e4cfbb0	0.20017886
244	0x3e1e34aa	0.15449777
245	0xbe08bc40	-0.13353062
246	0x3dc47e9a	0.0959446
247	0xbe157bde	-0.14598033
248	0xbe789252	-0.24274567
249	0x3e6cb1a6	0.23114643
250	0x3d89975a	0.06718321
251	0x3d920d35	0.07131425
252	0xbcd7575c	-0.026286773
253	0x3aecc120	0.0018062927
254	0x3dfe1bc9	0.12407643
255	0xbe222803	-0.15835576

l1.bias f4 [400]
0	0xbde8960b	-0.113567434
1	0xbd2d394b	-0.042290967
2	0xbde45848	-0.11149651
3	0x3e027563	0.12740092
4	0xbdffc587	-0.12488847
5	0xbe2ffad8	-0.17185533
6	0xbe311a40	-0.1729517
7	0x3c2af2c0	0.010433853
8	0xbe2aa653	-0.1666501
9	0xbd8db742	-0.06919719
10	0xbe5bdac8	-0.21470177
11	0x3cf645ed	0.03006264
12	0xbe027cac	-0.12742871
13	0xbe0f6cc5	-0.14006336
14	0xbdcada34	-0.099049
15	0x3dff590c	0.12468156
16	0xbded4966	-0.11586265
17	0xbe420c41	-0.18949987
18	0xbde905df	-0.11378073
19	0x3d815ba5	0.06316308
20	0x3da3e61d	0.08002875
21	0xbde8e37e	-0.11371516
22	0xbd5a163f	-0.05324387
23	0xbe460576	-0.1933802
24	0xbd0a9d46	-0.033841394
25	0x3d79d7a2	0.06099666
26	0xbe29c50d	-0.16579075
27	0x3e252c98	0.16130292
28	0x3d44dd15	0.048062403
29	0x3dd5ca85	0.10439018
30	0x3e059ccf	0.13048099
31	0xbc1ca928	-0.009561814
32	0x3da6e825	0.08149747
33	0x3db09a8c	0.086232275
34	0xbd863eca	-0.06554945
35	0xbda9e152	-0.082949296
36	0xbd9a4af4	-0.075338274
37	0x3c4bdb8d	0.012442482
38	0xbd7cf7bc	-0.061759695
39	0x3d9eeacf	0.0775963
40	0xbc29939d	-0.010350135
41	0xbdeecbd2	-0.116599694
42	0xbe24283a	-0.1603097
43	0xbd6d51b4	-0.057939246
44	0x3d8f398a	0.069933966
45	0xbc8938d6	-0.016750734
46	0xbe39f31e	-0.18159148
47	0x3de8798e	0.1135131
48	0x3d76eb78	0.060283154
49	0x3e113b39	0.14182748
50	0xbe461a83	-0.19346051
51	0x3dbc7125	0.09201268
52	0x3df79731	0.12089384
53	0xbe2afc99	-0.16697921
54	0x3dfb6d05	0.12276653
55	0xbe017573	-0.1264246
56	0x3db1c321	0.08679796
57	0xbe213f84	-0.15746886
58	0xbe0d4099	-0.13794173
59	0xbdd5d0c8	-0.104402125
60	0x3d27dd25	0.040982384
61	0x3d609548	0.054829866
62	0xbdf86f3a	-0.1213059
63	0xbda301c5	-0.07959322
64	0x3e3676e9	0.17818798
65	0x3ddd01b4	0.107913405
66	0xbd60cd3d	-0.05488323
67	0xbdd9bdd7	-0.10631912
68	0xbe23a2a1	-0.15980007
69	0xbce4ad14	-0.027914561
70	0x3ddbca5e	0.10731958
71	0x3db46bae	0.08809601
72	0xbccb58ee	-0.024822678
73	0xbe15a380	-0.14613152
74	0xbd802f13	-0.06258979
75	0xbc807a87	-0.015683426
76	0xbe021207	-0.1270219
77	0xbc59c5d5	-0.013291796
78	0xbda1ba77	-0.078968935
79	0x3dd0f376	0.102026865
80	0x3d397a5f	0.045282718
81	0xbe44a9f4	-0.19205457
82	0xbe173401	-0.14765932
83	0xbbfe84c6	-0.0077672927
84	0x3db61831	0.08891333
85	0x3e2ca694	0.1686042
86	0x3bd9f876	0.0066519333
87	0x3d099aad	0.033594776
88	0xbe210b9c	-0.15727085
89	0x3df9f917	0.12205713
90	0x3bd8936c	0.006609371
91	0xbd3dd707	-0.046347644
92	0x3d4f4bbb	0.05060933
93	0x3e621f23	0.2208219
94	0x3d3a5d1b	0.04549895
95	0xbe042d61	-0.12907936
96	0x3dc3c2a7	0.09558611
97	0x3df8349c	0.121194094
98	0x3ddbe131	0.10736311
99	0xbe3fe537	-0.18739782
100	0x3dd4f0ca	0.10397489
101	0x3dc3e8b9	0.09565873
102	0x3e33a032	0.17541578
103	0x3e08c17e	0.13355061
104	0x3dad9341	0.08475352
105	0xbdfa9fa5	-0.12237481
106	0xbe21d5fa	-0.15804282
107	0xbdec3962	-0.115343824
108	0x3c579722	0.013158591
109	0xbd9f6487	-0.07782846
110	0x3e2384a4	0.15968567
111	0x3cee0288	0.029053941
112	0xbe02b4ba	-0.12764254
113	0x3d82bd6e	0.06383787
114	0x3da1eb04	0.07906154
115	0x3e53ae47	0.2067195
116	0x3ca17351	0.019708307
117	0x3d107ce5	0.03527536
118	0xbca0c4b7	-0.019625051
119	0xbd1375cb	-0.036001008
120	0xbe19e2b0	-0.1502788
121	0xbd0208fa	-0.031746842
122	0x3e1eeaad	0.15519209
123	0x3b078a5c	0.0020681834
124	0xbcac4cea	-0.02103277
125	0xbe10ccae	-0.14140579
126	0x3c8e098a	0.017338533
127	0xbc70fadc	-0.014708247
128	0x3e2f928c	0.17145747
129	0x3e1d324a	0.15351215
130	0xbe12d4b1	-0.14338948
131	0xbe286b93	-0.16447286
132	0x3e42ba18	0.19016302
133	0xbc506bdd	-0.012721029
134	0x3dd49682	0.103802696
135	0x3d3ee4b7	0.04660484
136	0xbd8c4cc5	-0.0685058
137	0xbe01a99b	-0.12662356
138	0xbb1ca811	-0.0023903886
139	0xbd02265f	-0.031774875
140	0x3dbab1b5	0.09115926
141	0xbd4fa040	-0.050689936
142	0x3d47c707	0.04877379
143	0xbe2f79b6	-0.17136273
144	0x3d0493fd	0.032367695
145	0xbe41888c	-0.18899745
146	0x3d101858	0.035179466
147	0xbde62147	-0.11236816
148	0xbe037e74	-0.12841207
149	0x3e65cd40	0.22441578
150	0xbe492a94	-0.19645149
151	0x3c3a6967	0.011377669
152	0x3e531496	0.20613322
153	0xbdc8f91f	-0.09813141
154	0xbd11ec2e	-0.03562563
155	0xbd6c7126	-0.057725094
156	0xbc360592	-0.0111097265
157	0xbd97037f	-0.07373714
158	0xbe3e93ec	-0.18611115
159	0x3ce21864	0.027599521
160	0x3dbb4936	0.09144823
161	0x3da0d510	0.078531384
162	0x3e2777ef	0.16354345
163	0xbe2acfd5	-0.16680844
164	0xbe30c01e	-0.17260787
165	0xbce29417	-0.027658505
166	0xbe15915a	-0.14606228
167	0xbd13dfbb	-0.036102038
168	0xbe15cea1	-0.14629604
169	0xbe07112d	-0.13190146
170	0x3db07d1f	0.08617615
171	0x3d8503ed	0.064948894
172	0x3e16c2bf	0.14722727
173	0x3dccbd99	0.099971004
174	0x3d02ba76	0.031916104
175	0xbdb8796b	-0.09007534
176	0x3dee32d2	0.11630787
177	0xbd043dc2	-0.03228546
178	0xbe4193ae	-0.18903992
179	0xbe22c7e3	-0.15896563
180	0xbdccd56e	-0.10001646
181	0xbd70b764	-0.058768645
182	0x3e73ce77	0.23809229
183	0xbdddb44e	-0.10825406
184	0x3d9d8db5	0.07693044
185	0x3e23370f	0.15938972
186	0x3d57cb7c	0.052684292
187	0x3e1a6971	0.15079285
188	0xbdab882b	-0.08375581
189	0x3bf0cc33	0.007348561
190	0xbe356ced	-0.17717333
191	0x3e138394	0.14405662
192	0xbd83c6de	-0.06434415
193	0x3e17a65d	0.14809556
194	0x3d8d649e	0.06903957
195	0x3e2d9dfb	0.16954796
196	0xbe11df30	-0.14245296
197	0xbdc1facd	-0.094716646
198	0xbd9df618	-0.07712954
199	0xbcbba036	-0.022903543
200	0x3e1b088d	0.1513998
201	0x3d1d8bda	0.03846345
202	0xbdc576e6	-0.09641819
203	0x3d4fe018	0.05075082
204	0x3e47e1e1	0.1951976
205	0x3d54932c	0.051898167
206	0xbdfd437f	-0.123663895
207	0xbe3f46c0	-0.18679333
208	0x3e5d95f2	0.21639231
209	0xbdb3bb9c	-0.08776018
210	0x3e443a8c	0.19162959
211	0xbdb39706	-0.0876904
212	0x3deee812	0.11665358
213	0xbe400cf0	-0.18754935
214	0xbd9187ed	-0.07106004
215	0xbd7fc012	-0.062439032
216	0xbdeb1189	-0.11477954
217	0x3e1d9872	0.15390185
218	0xbcbb08b1	-0.022831293
219	0x3dd1acb0	0.10238016
220	0xbd81ff68	-0.06347543
221	0xbda117cb	-0.07865866
222	0xbe1492de	-0.1450915
223	0xbe294003	-0.16528325
224	0xbd1d9cf3	-0.038479757
225	0x3e35899b	0.17728274
226	0xbd12758e	-0.03575664
227	0xbe012099	-0.12610091
228	0x3e0457bb	0.12924092
229	0xbe63e602	-0.2225571
230	0x3ce10ca0	0.02747184
231	0xbe56c34e	-0.2097294
232	0x3dcd6e9d	0.100308634
233	0xbdbe925d	-0.0930526
234	0xbe58cec6	-0.21172628
235	0xbe21c2ba	-0.15796939
236	0x3db772d6	0.0895745
237	0xbd674d2c	-0.05647008
238	0x3dcb6d12	0.09932913
239	0xbe687297	-0.22699963
240	0xbe1ad805	-0.15121467
241	0xbe133372	-0.14375094
242	0xbe41c1f2	-0.1892164
243	0xbe16caaa	-0.14725748
244	0xbda574bb	-0.08078905
245	0xbe525f2a	-0.20544115
246	0xbe078b9b	-0.13236849
247	0x3de84af9	0.11342425
248	0x3cac0984	0.021000631
249	0xbdd9002d	-0.10595737
250	0xbe2e3cf2	-0.17015436
251	0xbe044c80	-0.12919807
252	0xbc7738fa	-0.015089268
253	0x3dc80c20	0.09767938
254	0x3d94fe19	0.07275028
255	0x3d00042a	0.03125397

l2.weight f4 [300, 400]
0	0xbd667e37	-0.05627271
1	0xbc1a0fb0	-0.009403154
2	0x3e931352	0.28725678
3	0xbe2a2d67	-0.16618882
4	0x3d437e8b	0.047728103
5	0x3eb0ec31	0.345552
6	0xbe489ed1	-0.19591834
7	0x3dcdaaf5	0.10042373
8	0x3d9192e7	0.071080975
9	0xbd1ae067	-0.037811663
10	0x3e51e292	0.20496586
11	0x3e5ca5a0	0.21547556
12	0x3d024f3b	0.03181384
13	0xbda79160	-0.08182025
14	0x3d52f8ea	0.051506914
15	0x3e0f630a	0.14002624
16	0x3d320530	0.04346198
17	0x3cdd3bdc	0.027006082
18	0x3c742b40	0.01490289
19	0x3cc15975	0.023602227
20	0xbcc7c4d3	-0.024385845
21	0xbe09449c	-0.13405079
22	0x3df66483	0.1203089
23	0x3d700b98	0.058604807
24	0x3d528db1	0.05140466
25	0xbca00b89	-0.01953675
26	0x3d4f7b3c	0.050654635
27	0x3cb00fc3	0.02149189
28	0x3d0a22c8	0.033724576
29	0x3d1f959f	0.03896105
30	0xbe54c927	-0.20779859
31	0xbdea57b6	-0.11442511
32	0xbcc98377	-0.02459882
33	0x3da1f295	0.07907597
34	0x3ee1e12e	0.4411711
35	0xbdb0713d	-0.086153485
36	0x3dd0d471	0.1019677
37	0xbe2cb0e0	-0.16864347
38	0xbe3fb252	-0.18720368
39	0xbeabe831	-0.33575585
40	0x3e120f68	0.1426369
41	0xbac46e67	-0.0014986516
42	0xbd319e0f	-0.043363627
43	0xbb650be7	-0.0034949721
44	0xbde1355e	-0.10996507
45	0xbcb47c03	-0.02203179
46	0x3e47496a	0.19461599
47	0xbf06fe8c	-0.5273216
48	0x3ce09995	0.027416984
49	0xbbac7409	-0.005262856
50	0xbdde3b9d	-0.10851214
51	0xbd543782	-0.05181075
52	0x3e23bc9d	0.15989919
53	0x3d0a4966	0.033761404
54	0xbd83ffb0	-0.06445253
55	0x3c96fafc	0.018430226
56	0x3cfe0ecc	0.031012915
57	0x3c5e0865	0.013551806
58	0xbccb6859	-0.02483003
59	0x3e1fb2b5	0.15595515
60	0x3e25e7fe	0.16201779
61	0xbdb2dd61	-0.08733631
62	0x3e40f09d	0.18841787
63	0x3de3fc44	0.111321
64	0xbdb017ef	-0.08598315
65	0xbd7093da	-0.058734752
66	0xbd5833c9	-0.05278376
67	0x3d8f7c5b	0.07006141
68	0x3d1b1b04	0.03786756
69	0x3e7a6bcd	0.24455185
70	0x3dcd646d	0.1002892
71	0xbd6a1300	-0.057147026
72	0x3db809bf	0.08986234
73	0xbd11c102	-0.035584457
74	0xbeeff4e7	-0.46866533
75	0xbdaf5a89	-0.0856219
76	0xbbea7587	-0.0071551236
77	0x3e28ad19	0.16472282
78	0xbe2ed7ae	-0.17074463
79	0x3e708e42	0.23491767
80	0x3ee8b7df	0.45452783
81	0x3d696311	0.056979243
82	0xbde1d5a2	-0.11027075
83	0xbe5bf545	-0.21480282
84	0xbd77cb21	-0.060496453
85	0xbcb06298	-0.021531388
86	0xbdd98f17	-0.10622995
87	0xbb338d2e	-0.0027397382
88	0x3c616d7d	0.013759014
89	0x3e7f3022	0.24920705
90	0x3d8230d3	0.06356969
91	0x3b5ea50b	0.0033972885
92	0xbcf616fe	-0.03004026
93	0xbe4b03f2	-0.19825724
94	0xbdac0e30	-0.084011436
95	0xbc8e168e	-0.01734474
96	0xbec95150	-0.3931985
97	0x3e8eb209	0.27870205
98	0xbcdf2955	-0.027241388
99	0x3ea648a5	0.32477298
100	0xbcd5b463	-0.026086992
101	0xbd5a5a7c	-0.05330895
102	0xbd9c3062	-0.07626416
103	0xbe552d41	-0.20818044
104	0xbec59ebd	-0.3859767
105	0xbd0711b9	-0.032975886
106	0x3d973cfe	0.0738468
107	0xbd55e078	-0.052216023
108	0x3da33595	0.07969204
109	0x3df1e827	0.11811858
110	0xbd4f0b30	-0.05054778
111	0xba4360f1	-0.0007453105
112	0x3b3825e7	0.0028098763
113	0xbe1f6b9a	-0.1556839
114	0xbc827baa	-0.015928108
115	0xbd005519	-0.031331155
116	0xbd9f5405	-0.07779697
117	0x3dbb86f7	0.09156602
118	0xbe836f79	-0.25670984
119	0x3cb8ebb3	0.022573328
120	0x3e93943c	0.2882403
121	0x3d2ea60c	0.042638823
122	0x3e7b4169	0.2453667
123	0xbd3fac43	-0.04679514
124	0x3d88645a	0.066597655
125	0x3e7376e9	0.2377583
126	0xbd0aabc3	-0.03385521
127	0x3d217e59	0.039427135
128	0x3d7a3431	0.06108493
129	0xbd15f6eb	-0.036612432
130	0xbd3b2646	-0.045690797
131	0x3c94cdb7	0.018164499
132	0xbdce4063	-0.100708745
133	0x3e30fa35	0.17282946
134	0xbda27cba	-0.07933946
135	0xbda51414	-0.0806047
136	0xbe026beb	-0.1273648
137	0xbd43c835	-0.047798354
138	0xbd0f08e8	-0.034920603
139	0xbe91fcf9	-0.28513315
140	0xbd5b2602	-0.053503044
141	0x3c824953	0.015904104
142	0xbde15bdf	-0.11003851
143	0xbe897e71	-0.2685428
144	0xbe6f4dd0	-0.23369527
145	0xbe5bd036	-0.21466145
146	0x3d71451f	0.05890381
147	0xbdb5a313	-0.088689946
148	0x3cf683c0	0.03009212
149	0xbe88e4ed	-0.26737157
150	0xbd398ae3	-0.04529847
151	0xbe947324	-0.28994095
152	0x3ebf7308	0.3739245
153	0x3dbd5eb4	0.09246579
154	0xbc7202ef	-0.014771207
155	0x3efdc5a0	0.49564838
156	0xbc990955	-0.018681208
157	0xbcb4cf4b	-0.022071501
158	0xbc93ee52	-0.018057976
159	0xbc94327d	-0.018090481
160	0x3d2cc708	0.042182
161	0xbba42c8c	-0.005010193
162	0x3e581a66	0.2110382
163	0x3d4b5f12	0.049651213
164	0xbd3ac697	-0.045599546
165	0xbe479dac	-0.19493741
166	0x3c9ba3c9	0.018998997
167	0x3d36967b	0.044577103
168	0x3e4c09be	0.19925591
169	0x3ca2abb4	0.019857265
170	0x3ccbf54b	0.024897238
171	0xbdd4d43d	-0.10392044
172	0xbe18605c	-0.14880508
173	0x3ddad312	0.1068479
174	0x3d829bd9	0.06377382
175	0x3ed24b60	0.41073132
176	0x3da56333	0.080755614
177	0x3d2319f0	0.039819658
178	0x39026088	0.00012433727
179	0xbcedf1f0	-0.029046029
180	0xbe5e54e7	-0.21712075
181	0x3d3edb95	0.04659613
182	0xbe1c3680	-0.15255165
183	0x3e0c6fc4	0.1371451
184	0xbd58756d	-0.05284636
185	0xbdd0adeb	-0.10189422
186	0x3da7c5ff	0.08192062
187	0x3e0132c3	0.1261702
188	0xbd12d956	-0.0358518
189	0x3c906637	0.017626865
190	0xbe81fffa	-0.25390607
191	0xbebcd6b3	-0.36882553
192	0xbde9c043	-0.11413624
193	0x3d56524a	0.05232457
194	0xbe151936	-0.14560398
195	0x3e8f27bf	0.2796001
196	0xbeb9ccb1	-0.3628898
197	0xbd4c324d	-0.049852658
198	0x3deb495f	0.11488604
199	0xbe6a5ec3	-0.22887711
200	0xbd920ec9	-0.07131726
201	0xbdf61329	-0.12015373
202	0xbd04048d	-0.032230902
203	0x3b96c468	0.00460105
204	0xbda11fa2	-0.078673616
205	0x3eb27ac6	0.34859294
206	0xbe7a17b5	-0.24423106
207	0x3e335bc1	0.1751547
208	0xbd97b55c	-0.074076384
209	0xbd238d5d	-0.039929736
210	0x3e073b5e	0.1320624
211	0xbe384ec8	-0.17998803
212	0x3d6b78cf	0.05748826
213	0x3b66cb2f	0.0035216322
214	0xbdf8a9e1	-0.12141777
215	0xbd01ea9f	-0.031717893
216	0xbe50e87b	-0.20401184
217	0xbdee8101	-0.11645699
218	0x3d5636ac	0.052298233
219	0xbe77e8cd	-0.242099
220	0xbbc9069e	-0.006134822
221	0xbe7d3cf6	-0.24730286
222	0xbdd40c5e	-0.10353921
223	0x3dfcc645	0.123425044
224	0x3d8cbbc0	0.06871748
225	0x3d5a580f	0.053306635
226	0x3b522c00	0.0032069683
227	0xbd98d729	-0.074629135
228	0x3ce9675c	0.028491668
229	0x3e035558	0.12825525
230	0xbe685232	-0.22687605
231	0xbc395cd0	-0.011313632
232	0xbe55e94c	-0.20889777
233	0x3d556c00	0.05210495
234	0x3e06ee0b	0.13176744
235	0xbcb7fd87	-0.022459758
236	0xbe1519f6	-0.14560685
237	0x3d40a343	0.0470307
238	0xbdda4028	-0.10656768
239	0x3d8fc58e	0.070201024
240	0x3db75184	0.08951095
241	0xbd4c1c3a	-0.049831606
242	0x3c418216	0.0118108
243	0xbc83c994	-0.01608733
244	0xbd0d9e92	-0.034575053
245	0xbebad884	-0.36493313
246	0x3d8aa938	0.06770557
247	0xbd315310	-0.043292105
248	0xbd38e12c	-0.045136616
249	0xbba712aa	-0.0050986605
250	0x3cf2829d	0.029603297
251	0xbf415caf	-0.7553205
252	0xbe759587	-0.23982821
253	0x3e6f256d	0.2335412
254	0x3d4e4d9e	0.05036699
255	0x3df6a1a2	0.12042548

l2.bias f4 [300]
0	0x3d21c4a8	0.039494187
1	0xbcc7240a	-0.024309177
2	0xbcfb11c9	-0.030648129
3	0xbd7d77af	-0.061881717
4	0xbc52bed1	-0.012862877
5	0xbcc60b11	-0.024175199
6	0x3d837118	0.06418055
7	0xbd4fd272	-0.050737806
8	0x3be43b7e	0.0069651
9	0xbd7f88cd	-0.062386323
10	0xbbfcf3f9	-0.0077195135
11	0xba35c50d	-0.0006933965
12	0x3d83fcf1	0.06444729
13	0xbd856d1f	-0.06514954
14	0xbd388e89	-0.045057807
15	0xbc0fe117	-0.008781693
16	0xbb025b88	-0.0019890983
17	0xbce00aa8	-0.027348831
18	0x3c9670f6	0.01836441
19	0xbcdb2493	-0.026750838
20	0xbc90e638	-0.017687902
21	0xbc5dca62	-0.013537021
22	0xbd002db9	-0.031293605
23	0xbd5e89cb	-0.05433063
24	0xbd2d1c31	-0.042263214
25	0x3d5302ed	0.051516462
26	0xbd1c0348	-0.038089067
27	0xbc0fd6fa	-0.008779282
28	0xbd675c71	-0.056484643
29	0xbd05c5c1	-0.032659296
30	0xbbab6541	-0.0052305763
31	0x3ca7e9a6	0.020497154
32	0x3d7468d9	0.059670303
33	0x3d858223	0.06518962
34	0xbcfb8f67	-0.030708028
35	0x3c111110	0.008854166
36	0xbcc35bd0	-0.02384749
37	0x3da95054	0.082672745
38	0xbd0d43b0	-0.03448838
39	0x3cc14b40	0.023595452
40	0x3d53f36f	0.05174583
41	0x3d1dcbfa	0.038524605
42	0x3c3dfe3d	0.01159626
43	0x3bc82de6	0.006108987
44	0x3d474357	0.048648205
45	0x3c74055e	0.014893858
46	0xbd4acf19	-0.04951391
47	0xbda1d6c0	-0.079022884
48	0xbd2cdaac	-0.04220073
49	0xbd88050b	-0.06641587
50	0x3d03147c	0.032001957
51	0x3ccd6667	0.025073243
52	0xbd1ee0f3	-0.038788747
53	0xbda371f3	-0.079807185
54	0xbd02208b	-0.031769317
55	0xbc165014	-0.009174366
56	0xbabf8fef	-0.0014615039
57	0xbc1db706	-0.009626156
58	0xbd1bbe7b	-0.038023453
59	0xbce06d84	-0.027395971
60	0x3cd0581c	0.025432639
61	0xbd20e255	-0.039278347
62	0xbd4c8e0e	-0.04994016
63	0xbc8fdd5d	-0.017561609
64	0xbbbbfc89	-0.0057368916
65	0x3d4fdf5f	0.050750133
66	0xbcca1213	-0.024666822
67	0x3c388c3e	0.011263905
68	0x3c93e07a	0.018051375
69	0xbb99c54b	-0.0046927086
70	0x3d1313a1	0.03590739
71	0x3dbbebd9	0.09175844
72	0xbbc3df96	-0.0059775813
73	0xbc585fe3	-0.013206455
74	0xbd415d2e	-0.047208004
75	0x3c8bb004	0.017051704
76	0xbd1c3a26	-0.038141392
77	0xbd5943a9	-0.05304304
78	0x3ca150f7	0.019691927
79	0x3c512d5d	0.012767163
80	0xbcbb899f	-0.022892771
81	0x3c9e80b2	0.019348476
82	0x3d8df228	0.06930953
83	0xbc454992	-0.012041466
84	0xbcb6f814	-0.02233509
85	0x3cc68741	0.024234416
86	0xbd695d07	-0.056973483
87	0xbd0bafc5	-0.034103174
88	0x3d86ec4b	0.06588038
89	0x3aca069a	0.0015413344
90	0xbd831412	-0.064003125
91	0x3c622158	0.013801895
92	0xbcf860cd	-0.030319596
93	0xbd3e4da5	-0.046460766
94	0x38fda046	0.00012093833
95	0x3cabc338	0.020967111
96	0xbd8162cf	-0.06317674
97	0xbc7922c7	-0.0152060455
98	0xbd6afe79	-0.05737159
99	0xbc75d214	-0.0150037
100	0x3b2d76b1	0.002646845
101	0xbd78dc8c	-0.060757205
102	0x3d4b2336	0.049594127
103	0xbd658a7e	-0.05604028
104	0xbc4f1a6c	-0.012640577
105	0xbd26f322	-0.040759213
106	0x3bd03ded	0.0063550384
107	0xbc3684e9	-0.011140087
108	0xbac1f5f2	-0.0014798029
109	0x3d05e0ed	0.03268521
110	0xbd15e9d5	-0.036599953
111	0xbd514a11	-0.051096026
112	0x3c787b73	0.015166151
113	0xbcc50c3e	-0.02405369
114	0xbc961dc7	-0.018324746
115	0x3d14c8cc	0.036324307
116	0xbd3e8c72	-0.046520658
117	0x3d196073	0.037445497
118	0xbd9eb2e6	-0.07748966
119	0x3bdc2315	0.0067180493
120	0xbcbb2697	-0.02284555
121	0x3da83339	0.08212895
122	0xbc3db7cc	-0.011579465
123	0xbcb70296	-0.0223401
124	0xbce7dc01	-0.028303148
125	0x3ca181dd	0.019715244
126	0xbb4243b8	-0.0029642414
127	0x3c804755	0.015659014
128	0x3c4e3feb	0.012588481
129	0x3b4771e6	0.003043288
130	0xbda12616	-0.078685924
131	0xbca7d4e0	-0.020487249
132	0x3d605a6b	0.05477373
133	0xbc8e585f	-0.017376123
134	0x3c83be3b	0.01608192
135	0xba199c88	-0.0005859812
136	0x3cc11218	0.023568198
137	0xbd56883e	-0.052376024
138	0x3a13a15e	0.00056316506
139	0x3cbcf582	0.023066286
140	0xbca9e23e	-0.020737763
141	0x3abb4734	0.0014288188
142	0xbc505aee	-0.012716992
143	0x3cb8ee1d	0.022574479
144	0x3da4411e	0.080202326
145	0xbc23c674	-0.009996045
146	0xbd50fd4d	-0.051022816
147	0x3d118658	0.03552851
148	0xbd3a2579	-0.045445893
149	0xbb50d54b	-0.0031865414
150	0xbcefb640	-0.029261708
151	0xbbb723fe	-0.0055890074
152	0x3d54a1a2	0.051911958
153	0xbcf4b589	-0.029871719
154	0xbddef05d	-0.108856894
155	0xbd7c916f	-0.061662134
156	0x3da91edb	0.08257838
157	0xbc00514b	-0.007831882
158	0x3c1c4e81	0.009540201
159	0xbc9a8605	-0.018862734
160	0x3d6ee1b1	0.058320705
161	0xbbd87b08	-0.0066064633
162	0xbd69e5e1	-0.057103995
163	0x3c9a7347	0.018853797
164	0x3cb77346	0.022393834
165	0x3cf1a216	0.029496234
166	0x3a19723b	0.00058535085
167	0xbc819abe	-0.015820857
168	0x3dacd45c	0.08438942
169	0xbd159433	-0.036518287
170	0x3cad56c6	0.02115954
171	0xbd625224	-0.055254117
172	0xbd771262	-0.060320266
173	0xbce9c189	-0.028534668
174	0x3db26c5d	0.08712075
175	0x3a0047e9	0.0004893528
176	0xbd11ed87	-0.035626914
177	0xbd364d7c	-0.04450749
178	0xbd9fd6e1	-0.07804657
179	0xbd38074d	-0.044928838
180	0xbd324dd5	-0.043531258
181	0xbd11c7f9	-0.0355911
182	0x3d575450	0.05257064
183	0xbd36abe8	-0.044597536
184	0xbce58c30	-0.028020948
185	0xbd1bf9fa	-0.038080193
186	0xbdb9a5b4	-0.090648085
187	0x3adab4ed	0.0016686
188	0x3d5713b2	0.052509017
189	0xbdf2a391	-0.11847604
190	0x3c1eb205	0.009685998
191	0xbd0cef6a	-0.03440801
192	0xbd448bcc	-0.047984883
193	0x3d122ca1	0.035687093
194	0x3d88ac4e	0.066734895
195	0xbb91c12c	-0.0044480767
196	0x3ca8d016	0.020607036
197	0xbc47154b	-0.012151073
198	0x3d9e1a16	0.07719819
199	0xbd012494	-0.031529024
200	0xbd4fe4bb	-0.050755244
201	0xbd394e4d	-0.04524069
202	0xbb58212a	-0.0032978752
203	0x3ca244fa	0.019808281
204	0xbc9c707c	-0.019096605
205	0x3d29187c	0.041283116
206	0xbd477783	-0.04869796
207	0xbcfc7dd4	-0.030821718
208	0xbc0a708a	-0.008449683
209	0x3cae14fa	0.021250237
210	0xbca0f144	-0.019646294
211	0xbc38c9ac	-0.011278551
212	0xbc4c62aa	-0.012474695
213	0xbcf37c76	-0.029722434
214	0x3d0f1dc6	0.034940504
215	0x3c221b06	0.009894138
216	0xbce11dde	-0.027480062
217	0xbd0f123f	-0.03492951
218	0xbce2fb73	-0.027707791
219	0x3cf47254	0.029839672
220	0xbd1296d9	-0.03578839
221	0xbd434e00	-0.04768181
222	0x3d1697b9	0.036765788
223	0xbd767493	-0.060169768
224	0xbbf0d73f	-0.007349878
225	0xbbe50b85	-0.0069898986
226	0x3c4248cf	0.011858179
227	0xbd4e1583	-0.050313484
228	0x3cbfba07	0.023404134
229	0xbd20eb15	-0.03928669
230	0x3dbcee4a	0.092251375
231	0xbd43d513	-0.047810625
232	0x3c1d5458	0.009602629
233	0xbd53430f	-0.051577624
234	0x3d254b52	0.040355034
235	0x3cbddc4c	0.023176335
236	0xbc7a6a70	-0.015284166
237	0xbd934735	-0.07191316
238	0x3d8dc136	0.06921618
239	0xbcb83bc4	-0.022489436
240	0xbbb1130e	-0.005403883
241	0xbc2611e4	-0.010136101
242	0x3cb7be4c	0.022429608
243	0xbcc364e2	-0.023851816
244	0xbce587c4	-0.02801884
245	0x3c556d9f	0.013026624
246	0xbcaaa91e	-0.020832594
247	0x3cb7f8bc	0.022457473
248	0xbd5a77f7	-0.053337064
249	0x3d4d395c	0.05010353
250	0x3c2c6627	0.010522402
251	0xbd878229	-0.06616623
252	0xbc924757	-0.017856283
253	0x3a56f874	0.00082004745
254	0x3bb4cd72	0.005517655
255	0x3c822782	0.01588798

l3.weight f4 [2, 300]
0	0x3f900ff6	1.1254871
1	0x3ccd99ba	0.025097717
2	0xbf42212b	-0.7583186
3	0x3c47de4e	0.012198998
4	0x3c7c94f9	0.015416377
5	0xbd3ba59e	-0.04581224
6	0x3e607d11	0.21922709
7	0xbd245428	-0.04011932
8	0x3cf66a28	0.030079916
9	0xbd2e3bc1	-0.042537455
10	0x3c79130e	0.015202297
11	0x3cdbacfc	0.026815884
12	0xbe9afc57	-0.30270645
13	0xbe1da70b	-0.15395753
14	0xbd3c2403	-0.04593278
15	0x3c6362ce	0.013878537
16	0x3d1710da	0.036881305
17	0xbd3b697a	-0.045754887
18	0xbd009d65	-0.031400103
19	0xbd0d4abf	-0.03449511
20	0x3ce063e5	0.027391383
21	0xbe42ebb5	-0.19035228
22	0x3ca87f5b	0.02056854
23	0x3d9b4bbf	0.07582807
24	0x3cd9a9f4	0.026570298
25	0x3f2232da	0.63358843
26	0xbd162fbe	-0.036666624
27	0xbd8e0d78	-0.06936163
28	0x3e56beab	0.20971172
29	0xbf0f9d27	-0.5609917
30	0x3f11e38e	0.56987846
31	0x3e24f167	0.16107713
32	0x3ea373d6	0.31924313
33	0x3f29741b	0.6619279
34	0x3d1c0758	0.03809294
35	0x3e4d610f	0.20056556
36	0xbcac9ccf	-0.021070866
37	0x3ea7b812	0.32757622
38	0x3f0f9ad5	0.5609563
39	0x3eadcc1e	0.33944792
40	0x3c54feb9	0.013000184
41	0x3dc8d7d9	0.09806795
42	0x3d455895	0.04818018
43	0xbe780887	-0.24222003
44	0x3e02efae	0.12786743
45	0x3ea37b1b	0.3192986
46	0xbcb42fa7	-0.021995379
47	0x3c48d098	0.012256764
48	0x3d40ac52	0.047039337
49	0x3db67810	0.08909619
50	0xbe557653	-0.20845918
51	0x3e86eb0a	0.26351196
52	0xbe49d21e	-0.1970906
53	0xbdea9202	-0.1145363
54	0x3d41595d	0.047204364
55	0xbd1d42b4	-0.03839369
56	0x3d5918fa	0.053002335
57	0xbd4bf254	-0.04979165
58	0xbef384c2	-0.47562224
59	0x3e304173	0.17212467
60	0x3b4b0a9d	0.0030981668
61	0x3c2bdc4d	0.0104895355
62	0x3ccc99f7	0.02497576
63	0x3e1ef327	0.15522443
64	0x3d832795	0.06404034
65	0x3eef0b3c	0.4668826
66	0x3bc37489	0.00596482
67	0xbb82549b	-0.003977371
68	0x3d12f4b1	0.035877887
69	0xbc3dc43b	-0.0115824295
70	0xbe9ed965	-0.31025234
71	0x3fb0f08b	1.3823408
72	0x3cb8475a	0.02249496
73	0x3d1d31ac	0.03837745
74	0x3d2b8756	0.041877113
75	0x3de93422	0.11386897
76	0x3f766e26	0.96261823
77	0x3a8ebaff	0.0010889469
78	0x3d05a8d8	0.032631725
79	0xbec946ea	-0.39311916
80	0xbd0c592b	-0.034264725
81	0xbba8b49e	-0.0051484844
82	0xbc856fc6	-0.01628865
83	0x3f1d91a4	0.61550355
84	0x3dacbf2c	0.08434901
85	0x3d3b40c1	0.04571605
86	0xbd0de840	-0.03464532
87	0x3d0986e5	0.03357591
88	0x3db71412	0.08939375
89	0xbeb43f18	-0.35204387
90	0xbe55ca15	-0.2087787
91	0x3db47aa5	0.08812455
92	0x3ca86dbe	0.020560142
93	0xbe33ddb8	-0.17565048
94	0xbe2a367f	-0.16622351
95	0xbca28bed	-0.019842112
96	0xbd6ea90a	-0.058266677
97	0x3e4fccdf	0.20292996
98	0x3d083f29	0.03326336
99	0xbe65ef0e	-0.22454473
100	0xbe2ec1af	-0.17066072
101	0xbbc43f99	-0.0059890267
102	0xbd05a789	-0.032630477
103	0x3c415235	0.011799385
104	0xbdd0ede3	-0.10201623
105	0x3d8636ba	0.06553407
106	0xbcf35b4e	-0.029706623
107	0xbda5b232	-0.08090629
108	0x3d47179e	0.048606507
109	0xbcc0b4ed	-0.023523772
110	0x3c43de86	0.011954909
111	0xbcc56218	-0.024094626
112	0xbce03a56	-0.027371567
113	0xbee9b588	-0.4564631
114	0x3f78c38f	0.971734
115	0xbe009fbb	-0.12560932
116	0xbb138900	-0.0022512078
117	0x3d659ff0	0.05606073
118	0xbdbdf2a4	-0.09274796
119	0xbc6d4188	-0.014480956
120	0x3b8fc52d	0.004387519
121	0x3f3ab608	0.7293401
122	0xbd34f348	-0.044177324
123	0xbd3cd035	-0.046097
124	0x3c5975a3	0.013272676
125	0x3f13a642	0.57675564
126	0x3caef3d2	0.021356497
127	0xbcafd75c	-0.021464996
128	0xbc1222a5	-0.008919393
129	0xbe6507e5	-0.22366293
130	0x3db9e383	0.090765975
131	0x3d7365be	0.0594232
132	0x3d850e58	0.064968765
133	0x3c2c503e	0.010517178
134	0x3cbb610e	0.022873428
135	0x3e1cd3b0	0.15315127
136	0x3f42964b	0.7601058
137	0x3d08e370	0.033420026
138	0x3cda6217	0.026658101
139	0xbdf94583	-0.121714614
140	0xbef37eb4	-0.47557604
141	0xbc1cbef0	-0.009567007
142	0x3d04c7bd	0.032417048
143	0xbd900f6d	-0.07034192
144	0x3d4650d4	0.048416927
145	0x3e32a8d4	0.17447215
146	0xbec726a5	-0.3889667
147	0xbe8b0619	-0.2715309
148	0xbe9cc065	-0.30615535
149	0x3c00d750	0.0078638345
150	0xbdd4ac7e	-0.10384463
151	0xbc96459e	-0.018343743
152	0x3e397952	0.18112686
153	0xbcc70ada	-0.024297167
154	0x3de39a34	0.11113396
155	0xbd1938fc	-0.03740786
156	0x3ea2f513	0.31827602
157	0xbcdfd9a6	-0.027325463
158	0xbe6cc104	-0.23120505
159	0xbe8bf377	-0.27334186
160	0x3e5f4d7b	0.218069
161	0x3c7b3d89	0.015334495
162	0x3b12adae	0.0022381353
163	0x3cd78ea2	0.02631313
164	0xbe2935d1	-0.16524436
165	0x3cf2035a	0.029542614
166	0xbc5d608d	-0.013511789
167	0x3c2fe5f3	0.0107359765
168	0x3f278a9c	0.65445876
169	0xbe965bd1	-0.29366925
170	0xbeda70c0	-0.42664146
171	0xbce32a05	-0.027729997
172	0x3ce4fbe3	0.02795214
173	0xbd18f423	-0.037342202
174	0x3db0d191	0.086337216
175	0x3d3dbc6d	0.046322275
176	0x3d4ba386	0.049716495
177	0xbbba712a	-0.0056897597
178	0x3eb04dfc	0.34434497
179	0xbf1b8702	-0.6075288
180	0x3d22471c	0.039618596
181	0xbd1e0223	-0.038576256
182	0xbda7422a	-0.08166917
183	0xbca70d3a	-0.02039205
184	0xba51456b	-0.00079830614
185	0xbe000f5c	-0.12505859
186	0xbed64a51	-0.41853574
187	0x3f68820a	0.90823424
188	0xbcd58f0e	-0.02606919
189	0xbeffebdd	-0.49984637
190	0xbbef3ca9	-0.0073009324
191	0x3d1a8b4b	0.037730496
192	0x3d22122f	0.039568122
193	0x3bd64888	0.006539408
194	0x3e23f59d	0.16011663
195	0xba13d0bf	-0.00056387106
196	0x3c4bd03f	0.012439786
197	0xbbc717b1	-0.0060758223
198	0x3e177034	0.14788896
199	0x3c3e1743	0.011602226
200	0xbd1204d3	-0.035649132
201	0x3f299d9e	0.6625613
202	0xbeec7537	-0.46183178
203	0x3d93bb05	0.072134055
204	0x3d15214e	0.036408715
205	0xbd93ba43	-0.07213261
206	0xbcb2ce8e	-0.021827009
207	0xbe4f3bec	-0.20237702
208	0x3d2434a4	0.040089265
209	0x3eaa6fa2	0.33288294
210	0xbc63618c	-0.013878237
211	0x3d0bcb4c	0.034129426
212	0xbd98ed2a	-0.074671105
213	0x3ba62017	0.0050697434
214	0xbe247df3	-0.16063671
215	0xbd68acab	-0.056805294
216	0x3dbe2dea	0.09286101
217	0xbdb886e5	-0.09010104
218	0x3ec7644b	0.38943705
219	0xba3f14e1	-0.0007289183
220	0x3d4fe5ef	0.05075639
221	0xbd4843c8	-0.048892766
222	0xbd41b6ef	-0.0472936
223	0xbd0b82b0	-0.03406018
224	0x3c49dfdb	0.012321438
225	0xbd50bed4	-0.050963238
226	0x3e2fec91	0.17180087
227	0xbd32ff2a	-0.043700375
228	0xbc94099e	-0.018070992
229	0xbdac85de	-0.08423971
230	0x3c12f118	0.008968614
231	0xbc702ec1	-0.0146595845
232	0xbea4c9b0	-0.32185125
233	0x3cab417a	0.020905245
234	0x3f895a74	1.0730729
235	0xbbd0e162	-0.006374524
236	0x3b3506f0	0.0027622543
237	0xbe752b19	-0.23942222
238	0xbcb0be6f	-0.02157518
239	0x3ef71fd5	0.48266473
240	0xbe7681a4	-0.24072891
241	0x3cf536f7	0.029933436
242	0x3d201169	0.039079104
243	0x3cc29750	0.023753792
244	0x3b7ed9f0	0.0038887225
245	0xbcd41d46	-0.025892865
246	0x3a38a015	0.0007042897
247	0xba999f1c	-0.0011720392
248	0xbd302226	-0.043001316
249	0x3e31d641	0.17366888
250	0x3e1b1cf7	0.15147768
251	0x3e18a9a8	0.14908469
252	0x3f0d0dd2	0.55099213
253	0xbe95853d	-0.29203215
254	0x3f265ad0	0.6498232
255	0xbdc7059d	-0.097178675

l3.bias f4 [2]
0	0xbc31a126	-0.010841643
1	0x3ca9e5b8	0.020739421
