models/actor_180.pth (torch, 532909 bytes, 6 tensors)

l1.weight f4 [400, 28]
0.09620806 -0.1914362 0.17615694 -0.2793173 -0.043552026 0.19539379 -0.010043902 -0.010186631
0.20883965 -0.13779862 0.016698401 0.17787285 -0.02665268 0.018007942 -0.051740136 0.18733841
0.16952336 -0.01041693 0.10681962 -0.10612224 -0.19950956 -0.186495 -0.066047505 0.12074162
0.06668721 -0.0753495 -0.10687582 -0.0016604352 0.22060412 0.069388196 -0.3496339 -0.08555326
0.14779897 0.16157629 0.122641884 0.008116555 -0.033201292 -0.0013761478 -0.03440094 -0.09753723
0.06935233 -0.007101725 0.16910197 0.12628591 -0.16367379 0.09050706 -0.2036383 -0.10795763
0.02902325 -0.18800329 0.12390609 0.0127139855 0.067024276 -0.022928912 0.09610203 0.29401064
-0.1281803 -0.20406188 -0.2063307 0.057096545 -0.16143993 0.1918182 0.21030068 -0.03602491
-0.059498366 -0.0940275 0.17582583 -0.12183373 0.19889206 0.018384723 0.1194633 0.11937997
-0.04462643 -0.10477362 -0.033354495 0.14247452 0.20927149 -0.1204018 0.051850434 -0.08853619
-0.3745529 0.14783135 -0.118938826 -0.040672213 0.10084103 -0.06447502 0.089926586 0.048330266
-0.051504396 -0.11798697 0.08991955 -0.12575188 0.10712508 0.11209324 -0.11848131 0.122922875
-0.26923725 -0.19502652 -0.28184947 0.08548166 0.25839162 -0.08518239 -0.10451757 0.14999323
0.052934643 0.08251229 0.06584614 -0.110082194 0.0075874063 -0.049541213 0.11938473 0.05403345
0.047223594 -0.14825645 -0.1109672 0.31166312 0.15489294 -0.0047071306 -0.050405927 0.2116018
-0.16721606 -0.099202275 -0.031023802 -0.14545758 -0.0037874253 -0.0135562485 -0.03094235 0.031255636
0.12452099 0.15601467 -0.020825323 0.15509729 0.1146618 -0.16905695 -0.1949411 0.06728474
-0.12985234 -0.18180014 -0.10569381 -0.006547378 0.034368113 -0.055734206 -0.08749149 -0.0462257
0.1162905 -0.08506612 -0.062022176 -0.0070170765 0.08699333 -0.067002416 -0.17554654 0.15496597
0.212833 -0.12752347 0.018271262 -0.16140765 -0.085250184 -0.11247203 0.09965263 -0.13614884
0.09617809 0.036427587 0.14186881 0.18066825 0.06145017 0.057531524 0.1953708 -0.26285914
-0.025728479 -0.25535297 0.09339593 0.064321764 0.17233413 0.23257826 0.11572203 0.0473908
-0.12845083 0.09921623 0.12204421 -0.057825074 -0.13246718 0.13908723 0.14508058 -0.134884
0.16485813 -0.098318145 -0.052106623 -0.059164446 -0.13974184 -0.11095924 -0.13650995 0.04921529
-0.18177438 -0.30971485 0.22170226 0.31227317 -0.073090665 -0.07444541 -0.23671839 0.13301338
-0.025003958 0.104654565 0.10199709 -0.01250919 -0.10903935 -0.13479076 -0.048031352 -0.050940916
0.18220915 0.059958655 -0.06470125 -0.20667301 -0.06201032 -0.16178538 0.21737117 0.05044722
0.015150738 -0.1413428 0.079815894 0.01611221 -0.29255432 -0.25222328 0.18003678 -0.39091647
-0.010673295 -0.11334924 -0.10319157 -0.091186225 0.03403015 0.13449469 0.064982064 -0.12857932
0.10616151 0.16662648 -0.17918003 0.18675923 0.025556577 -0.1413475 0.099141754 0.13769998
-0.032298837 -0.17347889 0.19902441 0.1838907 0.14891307 -0.13326947 0.09474154 -0.14727756
-0.22058071 0.20524386 0.030811034 0.052081037 -0.026286773 0.0018062927 0.12407643 -0.15835576
00000000: bb08 c53d da07 44be 7c62 343e ad02 8fbe
00000010: 9c63 32bd 4f15 483e 2e8f 24bc d4e5 26bc
00000020: 10da 553e 151b 0dbe 16cb 883c 4d24 363e
00000030: b956 dabc 6485 933c 77ed 53bd a4d5 3f3e
00000040: 8897 2d3e c5ab 2abc 3fc4 da3d 9e56 d9bd
00000050: 3c4c 4cbe 8cf8 3ebe ea43 87bd 6247 f73d
00000060: 4e93 883d d750 9abd b6e1 dabd f6a2 d9ba
00000070: 0ce6 613e 661b 8e3d 3703 b3be 8c36 afbd
00000080: 9d58 173e 4174 253e ab2b fb3d 4dfb 043c
00000090: 14fe 07bd dc5f b4ba 00e8 0cbd 99c1 c7bd
000000a0: 9808 8e3d 96b5 e8bb 1129 2d3e 1851 013e
000000b0: 1a9a 27be c45b b93d 8f86 50be e418 ddbd
000000c0: 2bc2 ed3c ef83 40be 7ac2 fd3d 524e 503c
000000d0: 0644 893d 6ad5 bbbc 24d1 c43d 9088 963e
000000e0: b241 03be 99f5 50be 5b48 53be 11de 693d
000000f0: 8250 25be fd6b 443e 1059 573e db8e 13bd
00000100: 8fb4 73bd 7d91 c0bd b00b 343e f683 f9bd
00000110: 5caa 4b3e 8f9b 963c 2da9 f43d 7c7d f43d
00000120: 34ca 36bd 8d93 d6bd b99e 08bd d7e4 113e
00000130: 444b 563e 3895 f6bd 1f61 543d 7652 b5bd
00000140: 66c5 bfbe 1a61 173e 3396 f3bd e897 26bd
00000150: be85 ce3d 7b0b 84bd 6e2b b83d f5f5 453d
00000160: 46f6 52bd 27a3 f1bd be27 b83d 1ac5 00be
00000170: 6564 db3d 2491 e53d 54a6 f2bd fdbe fb3d
00000180: 77d9 89be 08b5 47be 934e 90be 0211 af3d
00000190: e84b 843e 1b74 aebd 4f0d d6bd d397 193e
000001a0: ffd1 583d 34fc a83d 57da 863d c672 e1bd
000001b0: c79f f83b baeb 4abd fb7f f43d 2e52 5d3d
000001c0: 876d 413d 8ad0 17be c542 e3bd 4f92 9f3e
000001d0: 419c 1e3e 463e 9abb 7276 4ebd 24ae 583e
000001e0: b03a 2bbe 902a cbbd a125 febc d5f2 14be
000001f0: 7436 78bb 071b 5ebc d07a fdbc e905 003d
00000200: dc04 ff3d 4fc2 1f3e de99 aabc d3d1 1e3e
00000210: ced3 ea3d 441d 2dbe a49e 47be 95cc 893d
00000220: 03f8 04be d129 3abe ff75 d8bd 638b d6bb
00000230: 94c5 0c3d 8d49 64bd bd2e b3bd 2957 3dbd
00000240: b729 ee3d 2537 aebd f70a 7ebd 81ef e5bb
00000250: 8f29 b23d 9038 89bd 79c2 33be 66af 1e3e
00000260: e5f0 593e 8395 02be 9dad 953c 0c48 25be
00000270: a697 aebd bc57 e6bd ae16 cc3d 9a6a 0bbe
00000280: 05f9 c43d 1835 153d 0f46 113e 1901 393e
00000290: 2cb3 7b3d 2da6 6b3d 480f 483e 7995 86be
000002a0: 88c4 d2bc a0bd 82be 5e46 bf3d 21bb 833d
000002b0: 5c78 303e ff28 6e3e acff ec3d db1c 423d
000002c0: 9d88 03be e131 cb3d 51f2 f93d fcd9 6cbd
000002d0: 7aa5 07be e26c 0e3e 0190 143e 081f 0abe
000002e0: 92d0 283e 065b c9bd c16d 55bd 6b56 72bd
000002f0: 7c18 0fbe 993e e3bd 44c9 0bbe f995 493d
00000300: 1023 3abe f292 9ebe eb05 633e 45e2 9f3e
00000310: 8fb0 95bd d676 98bd 4e66 72be a934 083e
00000320: 1ad5 ccbc 2255 d63d dae3 d03d 58f3 4cbc
00000330: 0650 dfbd 9706 0abe 86bc 44bd 6ca7 50bd
00000340: 0995 3a3e 3597 753d 1782 84bd 17a2 53be
00000350: 89fe 7dbd 11ab 25be 8c96 5e3e bfa1 4e3d
00000360: cd3a 783c 2bbc 10be 8476 a33d c1fd 833c
00000370: aec9 95be 6923 81be 905b 383e 3426 c8be
00000380: 0bdf 2ebc a523 e8bd 1a56 d3bd d8bf babd
00000390: 3363 0b3d fab8 093e 5115 853d 4caa 03be
000003a0: 356b d93d 22a0 2a3e f87a 37be d03d 3f3e
000003b0: 075c d13c 66bd 10be d50a cb3d 3901 0d3e
000003c0: c94b 04bd 73a4 31be 0ecd 4b3e d84d 3c3e
000003d0: ab7c 183e cb77 08be da07 c23d eecf 16be
000003e0: e9df 61be 722b 523e 6c67 fc3c ed52 553d
000003f0: 5c57 d7bc 20c1 ec3a c91b fe3d 0328 22be

l1.bias f4 [400]
-0.11573711 -0.02392313 -0.12029007 0.12200113 -0.113701954 -0.16780055 -0.15903981 0.011396311
-0.16486931 -0.06919719 -0.229846 0.015867094 -0.12742871 -0.1315701 -0.08664049 0.140125
-0.11586265 -0.18770804 -0.11378073 0.064553134 0.08619504 -0.11337188 -0.05508457 -0.18604597
-0.03417885 0.057117794 -0.16579075 0.16323727 0.045785848 0.09724183 0.1309517 -0.0048372406
0.075005524 0.073530115 -0.07075771 -0.090992525 -0.083646715 0.016259335 -0.06319882 0.08087044
-0.013386818 -0.116599694 -0.1603097 -0.057939246 0.05525223 -0.016750734 -0.18874481 0.11089293
0.057393786 0.13505696 -0.17359756 0.08357464 0.11378931 -0.16697921 0.13738692 -0.1264246
0.0862431 -0.15746886 -0.13498703 -0.10033779 0.03628658 0.06805845 -0.12278808 -0.07657379
0.18493408 0.112229094 -0.041400537 -0.09572384 -0.15556283 -0.044107012 0.0994686 0.10405816
-0.0087634595 -0.14613152 -0.060923215 -0.007591701 -0.13330264 -0.015184931 -0.09003945 0.10576691
0.037627943 -0.16490667 -0.15801525 -0.00196498 0.09056028 0.1672174 0.025139073 0.040173635
-0.15103449 0.12106702 0.0044906 -0.04788366 0.07633418 0.2318102 0.043073844 -0.12907936
0.09639375 0.13534538 0.10541779 -0.18703526 0.10803565 0.08932017 0.18204615 0.13583189
0.08818722 -0.12237481 -0.15149432 -0.115636624 0.016368726 -0.0651872 0.17000186 0.03538967
-0.12764254 0.06834588 0.08184431 0.19510093 0.035224885 0.04100875 -0.015081044 -0.036001008
-0.14495906 -0.031746842 0.14966935 0.002916187 -0.026349261 -0.14959687 0.024115551 -0.0042350646
0.17737748 0.159462 -0.13442886 -0.14419201 0.19263728 -0.013692371 0.109465264 0.036554098
-0.05041552 -0.12662356 -0.006590727 -0.015653316 0.09876627 -0.050689936 0.04890615 -0.16856106
0.027800204 -0.18965265 0.05013415 -0.120289646 -0.12841207 0.2338062 -0.19645149 0.014139027
0.21151334 -0.09813141 -0.037617527 -0.053659674 -0.008469727 -0.07373714 -0.18611115 0.019043108
0.09858804 0.07805097 0.15567517 -0.16680844 -0.17260787 -0.028489865 -0.14606228 -0.043629214
-0.14858261 -0.123339534 0.09327573 0.07810755 0.13618156 0.108369306 0.04815963 -0.09154664
0.118786536 -0.03228546 -0.1882261 -0.15896563 -0.098734975 -0.050867278 0.2502448 -0.10626448
0.08460163 0.18181607 0.04825009 0.13952805 -0.074972406 0.027734067 -0.17717333 0.14245504
-0.06434415 0.15755653 0.07031944 0.16751339 -0.13547379 -0.083299376 -0.07495314 -0.028580602
0.13572177 0.045062307 -0.09641819 0.05034202 0.18985307 0.054118283 -0.12325104 -0.18422802
0.20736723 -0.08776018 0.19410513 -0.088539764 0.11023141 -0.19921528 -0.053942952 -0.062439032
-0.11814881 0.14741884 -0.025556931 0.10915424 -0.06347543 -0.076889984 -0.14188963 -0.16898787
-0.04274902 0.15838635 -0.03575664 -0.12593606 0.13570268 -0.22445272 0.044562303 -0.2097294
0.11735664 -0.0930526 -0.21111277 -0.15796939 0.11311995 -0.05647008 0.12869117 -0.20335971
-0.15121467 -0.14375094 -0.18903771 -0.14886695 -0.07166429 -0.18087137 -0.13507596 0.115429305
0.017515428 -0.10581496 -0.17015436 -0.12657842 -0.0011282585 0.10129401 0.08025181 0.042328585
00000000: 9407 edbd 71fa c3bc a45a f6bd badb f93d
00000010: 92dc e8bd e8d3 2bbe 55db 22be 98b7 3a3c
00000020: 80d3 28be 42b7 8dbd c05c 6bbe b5fb 813c
00000030: ac7c 02be 50ba 06be 9270 b1bd ee7c 0f3e
00000040: 6649 edbd 8936 40be df05 e9bd 6f34 843d
00000050: 0687 b03d 842f e8bd 5ca0 61bd d682 3ebe
00000060: 1fff 0bbd 59f4 693d 0dc5 29be ac27 273e
00000070: f189 3b3d b926 c73d 3418 063e b781 9ebb
00000080: 7f9c 993d f596 963d 6be9 90bd 4a5a babd
00000090: f84e abbd 4c32 853c 626e 81bd 679f a53d
000000a0: 6254 5bbc d2cb eebd 3a28 24be b451 6dbd
000000b0: 2a50 623d d638 89bc 5246 41be d51b e33d
000000c0: bf15 6b3d 5f4c 0a3e 8fc3 31be 2e29 ab3d
000000d0: 5f0a e93d 99fc 2abe 28af 0c3e 7375 01be
000000e0: 39a0 b03d 843f 21be 0a3a 0abe e67d cdbd
000000f0: 3da1 143d 3b62 8b3d 5178 fbbd b8d2 9cbd
00000100: 5c5f 3d3e 5ed8 e53d 9c93 29bd dc0a c4bd
00000110: dd4b 1fbe 8ea9 34bd 31b6 cb3d 721c d53d
00000120: 9d94 0fbc 80a3 15be 9f8a 79bd cec3 f8bb
00000130: 7d80 08be 38ca 78bc 9a66 b8bd 529c d83d
00000140: c21f 1a3d 4bdd 28be c0ce 21be e5c6 00bb
00000150: ab77 b93d 0a3b 2b3e 75f0 cd3c 1c8d 243d
00000160: c9a8 1abe fcf1 f73d e225 933b a821 44bd
00000170: 1855 9c3d a75f 6d3e 336e 303d 612d 04be
00000180: 166a c53d fb97 0a3e 48e5 d73d 2c86 3fbe
00000190: cb41 dd3d 7eed b63d 4e6a 3a3e 8417 0b3e
000001a0: 809b b43d a59f fabd 5421 1bbe e5d2 ecbd
000001b0: b517 863c de80 85bd f814 2e3e c2f4 103d
000001c0: bab4 02be edf8 8b3d fd9d a73d 8ac8 473e
000001d0: f847 103d cbf8 273d 7c16 77bc cb75 13bd
000001e0: 2670 14be fa08 02bd ec42 193e 801d 3f3b
000001f0: 68da d7bc ec2f 19be fa8d c53c 4cc6 8abb
00000200: 71a2 353e 024a 233e b8a7 09be 12a7 13be
00000210: b542 453e f755 60bc 532f e03d c0b9 153d
00000220: 8180 4ebd 9ba9 01be 06f7 d7bb 623b 80bc
00000230: f845 ca3d 40a0 4fbd d151 483d 459b 2cbe
00000240: 41bd e33c 4e34 42be 7759 4d3d 6b5a f6bd
00000250: 747e 03be e46a 6f3e 942a 49be 61a7 673c
00000260: f496 583e 1ff9 c8bd d614 1abd 3fca 5bbd
00000270: 9cc4 0abc 7f03 97bd ec93 3ebe 4b00 9c3c
00000280: 87e8 c93d 30d9 9f3d 5069 1f3e d5cf 2abe
00000290: 1ec0 30be 9463 e9bc 5a91 15be 8cb4 32bd
000002a0: 0a26 18be 7099 fcbd 5907 bf3d daf6 9f3d
000002b0: 2e73 0b3e baf0 dd3d 0843 453d ce7c bbbd
000002c0: 5b46 f33d c23d 04bd 58be 40be e3c7 22be
000002d0: 9035 cabd 355a 50bd 1620 803e 31a1 d9bd
000002e0: 9f43 ad3d fe2d 3a3e e3a1 453d 71e0 0e3e
000002f0: 228b 99bd 8e32 e33c ed6c 35be bcdf 113e
00000300: dec6 83bd 8056 213e a303 903d a188 2b3e
00000310: a4b9 0abe dd98 aabd 0881 99bd de21 eabc
00000320: a6fa 0a3e 4193 383d e676 c5bd 6f33 4e3d
00000330: d868 423e 22ab 5d3d 0b6b fcbd 45a6 3cbe
00000340: 1358 543e 9cbb b3bd 7fc3 463e 5654 b5bd
00000350: 01c1 e13d 17ff 4bbe 49f3 5cbd 12c0 7fbd
00000360: 01f8 f1bd f7f4 163e c55c d1bc 428c df3d
00000370: 68ff 81bd 7f78 9dbd 844b 11be 280b 2dbe
00000380: 9919 2fbd 0830 223e 8e75 12bd 62f5 00be
00000390: a5f5 0a3e efd6 65be f686 363d 4ec3 56be
000003a0: ae58 f03d 5d92 bebd f22d 58be bac2 21be
000003b0: 6fab e73d 2c4d 67bd 9ec7 033e 873d 50be
000003c0: 05d8 1abe 7233 13be 1a93 41be 9470 18be
000003d0: bac4 92bd 5836 39be 5a51 0abe 3366 ec3d
000003e0: 847c 8f3c 84b5 d8bd f23c 2ebe c69d 01be
000003f0: 13e2 93ba 3c73 cf3d 105b a43d bd60 2d3d

l2.weight f4 [300, 400]
-0.037612803 -0.010494477 0.2660201 -0.18103115 0.029419065 0.33198997 -0.18561673 0.087621056
0.08098038 -0.037811663 0.19820778 0.24468373 0.03181384 -0.042192735 0.034191027 0.12515792
0.04346198 0.006109508 0.01490289 0.034843925 -0.014937823 -0.09688744 0.12576284 0.05465353
0.014298967 -0.022905342 0.050654635 -0.019855792 0.045469478 -0.0021360228 -0.20422956 -0.08292746
-0.031133419 0.11594284 0.39904767 -0.08141952 0.11180186 -0.17829047 -0.21798457 -0.3460818
0.13216326 -0.0014986516 -0.043363627 -0.0034949721 -0.10996507 -0.02203179 0.2156754 -0.5077566
0.024641974 -0.024676528 -0.09495432 -0.033654336 0.1419246 0.033761404 -0.067139626 0.018430226
0.027487176 0.013551806 -0.015552993 0.11975784 0.12326307 -0.09270279 0.19122787 0.10195396
-0.06961704 -0.04702514 -0.053714503 0.08007811 0.022774309 0.2046364 0.1002892 -0.070287555
0.08707683 -0.035584457 -0.47021174 -0.1015493 0.000221771 0.19944116 -0.14434452 0.22713956
0.44798166 0.036784306 -0.07651176 -0.2169069 -0.041509222 -0.035009444 -0.084849425 0.0058754976
0.016189013 0.24895933 0.012452973 0.00056661555 -0.04529678 -0.20548393 -0.070925795 -0.01734474
-0.38711643 0.26481682 -0.050755806 0.30464557 4.154976e-05 -0.05330895 -0.083424464 -0.18287297
-0.37440386 -0.032975886 0.056196112 -0.04206509 0.04999836 0.11588823 -0.027237665 0.011517878
0.0028098763 -0.15338086 -0.049550753 -0.031331155 -0.07640468 0.117009036 -0.25339168 0.022573328
0.29209006 0.042638823 0.1963023 -0.04679514 0.103279434 0.21283053 0.0008420353 0.07659878
0.041645214 -0.054939248 -0.010015222 -0.009207375 -0.105959564 0.14066075 -0.05572452 -0.08588171
-0.1500414 -0.047798354 -0.0021201146 -0.25608295 -0.10305009 0.015904104 -0.11003851 -0.2754837
-0.24303995 -0.1973243 0.065473214 -0.05213004 0.03009212 -0.250729 -0.04529847 -0.28176096
0.40479434 0.09246579 -0.027827619 0.52780485 -0.025796443 -0.022071501 -0.018057976 -0.06618117
0.055458866 0.0026645877 0.19521004 0.049651213 -0.045599546 -0.1932507 0.018998997 0.010066349
0.19911543 0.014099861 0.045752734 -0.09929334 -0.16176066 0.07679151 0.0547064 0.43226784
0.06266603 0.039819658 -0.004471256 -0.029046029 -0.2273878 0.06501199 -0.13867037 0.10582842
-0.07821894 -0.09073897 0.066759236 0.12019539 -0.048161156 0.014507533 -0.25390607 -0.35363394
-0.11413624 0.05232457 -0.14294255 0.25250608 -0.35001758 -0.046038974 0.11487662 -0.24727654
-0.03704413 -0.10033342 -0.032230902 -0.004131669 -0.09114316 0.41231847 -0.23595229 0.110929474
-0.074076384 -0.039929736 0.13981614 -0.17067842 0.053484604 -0.03385453 -0.12326548 -0.031717893
-0.17995106 -0.12647209 0.06685373 -0.22077668 -0.006134822 -0.25171933 -0.06433446 0.11383742
0.09234771 -0.016577382 0.0032069683 -0.08378813 0.027858999 0.15376903 -0.24209028 -0.011313632
-0.2203652 0.05210495 0.15801342 -0.022459758 -0.13911952 0.0470307 -0.10710418 0.08472946
0.08951095 -0.049831606 0.04115261 0.004654965 -0.042303022 -0.36558744 0.08253579 -0.028478824
-0.07891256 0.005788107 0.029603297 -0.73096657 -0.2408335 0.19053444 0.06902348 0.12677227
00000000: e20f 1abd 07f1 2bbc c933 883e 3b60 39be
00000010: 4000 f13c 97fa a93e 5012 3ebe ab72 b33d
00000020: 0bd9 a53d 67e0 1abd fbf6 4a3e 5f8e 7a3e
00000030: 3b4f 023d 4ad2 2cbd e40b 0c3d 6629 003e
00000040: 3005 323d 4532 c83b 402b 743c 81b8 0e3d
00000050: c5bd 74bc ec6c c6bd f9c7 003e 61dc 5f3d
00000060: 3746 6a3c fca3 bbbc 3c7b 4f3d 9da8 a2bc
00000070: 343e 3a3d 84fc 0bbb 8e21 51be dfd5 a9bd
00000080: 830b ffbc 7173 ed3d fa4f cc3e 47bf a6bd
00000090: 60f8 e43d c791 36be 5937 5fbe a231 b1be
000000a0: ce55 073e 676e c4ba 0f9e 31bd e70b 65bb
000000b0: 5e35 e1bd 037c b4bc 03da 5c3e 56fc 01bf
000000c0: f7dd c93c 6e26 cabc 6977 c2bd 21d9 09bd
000000d0: af54 113e 6649 0a3d 8080 89bd fcfa 963c
000000e0: c92c e13c 6508 5e3c fbd1 7ebc 9943 f53d
000000f0: 5971 fc3d f6da bdbd 3dd1 433e 3dcd d03d
00000100: 6193 8ebd 6f9d 40bd bd03 5cbd feff a33d
00000110: 3091 ba3c 348c 513e 6d64 cd3d ecf2 8fbd
00000120: 5655 b23d 02c1 11bd 98bf f0be 14f9 cfbd
00000130: 338b 6839 4e3a 4c3e 0dcf 13be 4697 683e
00000140: da5d e53e 24ab 163d 33b2 9cbd d81c 5ebe
00000150: 9305 2abd 1066 0fbd 89c5 adbd 3f87 c03b
00000160: d29e 843c 32ef 7e3e 8e07 4c3c ed88 143a
00000170: 1e89 39bd 616a 52be 8b41 91bd 8e16 8ebc
00000180: 2034 c6be 1296 873e 52e5 4fbd 81fa 9b3e
00000190: b745 2e38 7c5a 5abd 72da aabd 0d43 3bbe
000001a0: ddb1 bfbe b911 07bd e52d 663d 724c 2cbd
000001b0: 15cb 4c3d cf56 ed3d 8621 dfbc 7bb5 3c3c
000001c0: e725 383b df0f 1dbe bbf5 4abd 1955 00bd
000001d0: 0f7a 9cbd 6fa2 ef3d 8ebc 81be b3eb b83c
000001e0: d48c 953e 0ca6 2e3d 7803 493e 43ac 3fbd
000001f0: 2b84 d33d 3ff0 593e 08bc 5c3a d2df 9c3d
00000200: 2c94 2a3d fa07 61bd e316 24bc 88da 16bc
00000210: 5401 d9bd 5f09 103e 653f 64bd c0e2 afbd
00000220: 74a4 19be 35c8 43bd 9ff1 0abb 4e1d 83be
00000230: ed0b d3bd 5349 823c df5b e1bd 330c 8dbe
00000240: 77df 78be 620f 4abe d216 863d 4f86 55bd
00000250: c083 f63c 8d5f 80be e38a 39bd f942 90be
00000260: 3441 cf3e b45e bd3d bff6 e3bc 381e 073f
00000270: 1053 d3bc 4bcf b4bc 52ee 93bc fe89 87bd
00000280: d628 633d 5da0 2e3b 24e5 473e 125f 4b3d
00000290: 97c6 3abd 83e3 45be c9a3 9b3c 54ed 243c
000002a0: eae4 4b3e 1a03 673c 3867 3b3d 4f5a cbbd
000002b0: 96a4 25be de44 9d3d d113 603d 3652 dd3e
000002c0: 0c57 803d f019 233d 9d83 92bb f0f1 edbc
000002d0: 59d8 68be 0225 853d 9bff 0dbe 92bc d83d
000002e0: 4031 a0bd 5ad5 b9bd 11b9 883d 0029 f63d
000002f0: a244 45bd 01b1 6d3c faff 81be 820f b5be
00000300: 43c0 e9bd 4a52 563d 885f 12be 7a48 813e
00000310: 8135 b3be 5d93 3cbd 6f44 eb3d 1036 7dbe
00000320: 96bb 17bd 9c7b cdbd 8d04 04bd f462 87bb
00000330: 44a9 babd 681b d33e 7a9d 71be fe2e e33d
00000340: 5cb5 97bd 5d8d 23bd f62b 0f3e 53c6 2ebe
00000350: ac12 5b3d 0cab 0abd 9d72 fcbd 9fea 01bd
00000360: 1745 38be e681 01be 9cea 883d 4813 62be
00000370: 9e06 c9bb 5be1 80be c9c1 83bd 9823 e93d
00000380: cc20 bd3d 4acd 87bc 002c 523b 1c99 abbd
00000390: 8e38 e43c a175 1d3e 84e6 77be d05c 39bc
000003a0: 6aa7 61be 006c 553d 45ce 213e 87fd b7bc
000003b0: 5975 0ebe 43a3 403d 7059 dbbd a486 ad3d
000003c0: 8451 b73d 3a1c 4cbd a48f 283d ad88 983b
000003d0: ef45 2dbd 472e bbbe 8608 a93d 6c4c e9bc
000003e0: e99c a1bd 29aa bd3b 9d82 f23c a020 3bbf
000003f0: 0f9d 76be 761b 433e 2f5c 8d3d 97d0 013e

l2.bias f4 [300]
0.0384341 -0.024309177 -0.03393877 -0.061881717 -0.012862877 -0.024175199 0.055021763 -0.050737806
0.0069651 -0.062386323 -0.0077195135 -0.0006933965 0.055360176 -0.054780517 -0.045057807 -0.008781693
0.0049426043 -0.027348831 0.01836441 -0.026750838 -0.017687902 -0.0059597525 -0.031293605 -0.05262646
-0.042263214 0.039979152 -0.03615914 -0.0082927225 -0.045611545 -0.024688685 -0.006403311 0.03168506
0.07528516 0.030306315 -0.030708028 0.008651251 -0.009485674 0.0928571 -0.027381942 0.022428717
0.039114177 0.05158832 0.01159626 0.008624236 0.036228277 -0.0012717167 -0.04951391 -0.07981456
-0.04220073 -0.06632872 0.034641996 0.031398132 -0.024905587 -0.06367128 -0.031769317 -0.009174366
-0.0014615039 -0.009626156 -0.046323817 -0.03069453 0.025432639 -0.039278347 -0.04994016 -0.01596082
-0.0057368916 0.05843106 -0.024666822 0.011263905 0.018051375 -0.007878013 0.036065355 0.09003181
-0.0059775813 -0.00058758014 -0.047208004 0.008974992 -0.04828645 -0.05304304 0.019691927 -0.0019665572
-0.022892771 0.019348476 0.052457713 -0.011094514 -0.013124961 0.024234416 -0.056973483 -0.034103174
0.05318789 -0.0032277077 -0.047726505 0.01779291 -0.030319596 -0.047326446 -0.005043213 0.020967111
-0.06317674 -0.006214913 -0.05737159 -0.006177724 0.005968763 -0.060757205 0.06379239 -0.05604028
-0.026570795 -0.046165228 0.0063550384 -0.02291134 -0.0014798029 0.04692763 -0.036599953 -0.051096026
0.015166151 -0.01752938 -0.036513396 0.04819371 -0.046520658 0.037445497 -0.076599054 0.0067180493
-0.02284555 0.06769343 -0.020468984 -0.0223401 -0.028303148 0.014328729 0.006326076 0.015659014
0.012588481 0.0008656992 -0.059400927 -0.020487249 0.043780673 -0.017376123 0.04454881 0.007839345
0.01516345 -0.052376024 0.00056316506 0.015964434 -0.023557596 0.007891454 -0.012716992 0.013677678
0.07225008 0.008758902 -0.049903326 0.031449094 -0.039506376 -0.0031865414 -0.050976165 -0.0055890074
0.05139093 -0.029871719 -0.11542147 -0.061662134 0.077198625 -0.0069233812 -0.0007342419 -0.009504673
0.055107668 -0.0066064633 -0.057103995 0.018853797 0.025114054 0.029496234 0.00058535085 -0.021604592
0.07672329 -0.031048426 0.018487096 -0.055254117 -0.060320266 -0.028534668 0.07261875 0.0004893528
-0.035626914 -0.04450749 -0.076343544 -0.0404154 -0.043531258 -0.0355911 0.051616125 -0.044597536
-0.028020948 -0.040718645 -0.06817094 -0.0014853256 0.028251637 -0.11316837 0.009685998 -0.03440801
-0.039356414 0.035687093 0.07046996 -0.0044480767 0.0115432115 -0.012151073 0.07066676 -0.031529024
-0.050755244 -0.057381943 0.010289093 0.021128265 -0.024318056 0.048980556 -0.04869796 -0.030750293
-0.008449683 0.015223991 -0.019646294 -0.021851148 -0.0061715534 -0.028849773 0.025658682 0.01052474
-0.023202233 -0.023130083 -0.027629105 0.029839672 -0.03578839 -0.04768181 0.036765788 -0.060169768
-0.007349878 -0.0069898986 0.02740252 -0.050313484 0.023404134 -0.051229686 0.08591649 -0.047810625
0.019484824 -0.051577624 0.027312197 0.026384085 -0.015284166 -0.06707014 0.06290374 0.004340083
0.004899857 -0.010136101 0.022429608 -0.023851816 -0.02801884 0.01376436 -0.01128558 0.03741379
-0.053337064 0.048065696 0.009445083 -0.064526066 -0.014988161 0.007297883 0.00932876 0.011364831
00000000: 136d 1d3d 0a24 c7bc 6103 0bbd af77 7dbd
00000010: d1be 52bc 110b c6bc 805e 613d 72d2 4fbd
00000020: 7e3b e43b cd88 7fbd f9f3 fcbb 0dc5 35ba
00000030: 5ac1 623d 8961 60bd 898e 38bd 17e1 0fbc
00000040: 92f5 a13b a80a e0bc f670 963c 9324 dbbc
00000050: 38e6 90bc 074a c3bb b92d 00bd d88e 57bd
00000060: 311c 2dbd 2ec1 233d 9b1b 14bd 33de 07bc
00000070: 2cd3 3abd ed3f cabc ded2 d1bb 32c8 013d
00000080: 1b2f 9a3d f344 f83c 678f fbbc fabd 0d3c
00000090: cd69 1bbc dd2b be3d 1850 e0bc 6ebc b73c
000000a0: 3036 203d 464e 533d 3dfe 3d3c ab4c 0d3c
000000b0: 1a64 143d bbaf a6ba 19cf 4abd d175 a3bd
000000c0: acda 2cbd 5ad7 87bd c4e4 0d3d 549b 003d
000000d0: cd06 ccbc 1766 82bd 8b20 02bd 1450 16bc
000000e0: ef8f bfba 06b7 1dbc 0bbe 3dbd 1873 fbbc
000000f0: 1c58 d03c 55e2 20bd 0e8e 4cbd 44c0 82bc
00000100: 89fc bbbb 6855 6f3d 1312 cabc 3e8c 383c
00000110: 7ae0 933c c812 01bc 44b9 133d 9962 b83d
00000120: 96df c3bb d607 1aba 2e5d 41bd d80b 133c
00000130: 03c8 45bd a943 59bd f750 a13c 5be1 00bb
00000140: 9f89 bbbc b280 9e3c e6dd 563d c4c5 35bc
00000150: 140a 57bc 4187 c63c 075d 69bd c5af 0bbd
00000160: 8cdb 593d f387 53bb de7c 43bd 70c2 913c
00000170: cd60 f8bc 60d9 41bd 8941 a5bb 38c3 ab3c
00000180: cf62 81bd 78a6 cbbb 79fe 6abd 816e cabb
00000190: 9d95 c33b 8cdc 78bd 96a5 823d 7e8a 65bd
000001a0: ffaa d9bc c017 3dbd ed3d d03b 90b0 bbbc
000001b0: f2f5 c1ba 3037 403d d5e9 15bd 114a 51bd
000001c0: 737b 783c c699 8fbc 128f 15bd c566 453d
000001d0: 728c 3ebd 7360 193d f7df 9cbd 1523 dc3b
000001e0: 9726 bbbc daa2 8a3d 92ae a7bc 9602 b7bc
000001f0: 01dc e7bc 0cc3 6a3c f94a cf3b 5547 803c
00000200: eb3f 4e3c 17f0 623a 634e 73bd e0d4 a7bc
00000210: 5d53 333d 5f58 8ebc d078 363d 9970 003c
00000220: 1e70 783c 3e88 56bd 5ea1 133a d8c7 823c
00000230: dcfb c0bc 284b 013c ee5a 50bc 5718 603c
00000240: daf7 933d 7f81 0f3c 6e67 4cbd c4d0 003d
00000250: 70d1 21bd 4bd5 50bb 62cc 50bd fe23 b7bb
00000260: 4c7f 523d 89b5 f4bc 1762 ecbd 6f91 7cbd
00000270: 501a 9e3d 88dd e2bb 247a 40ba 7db9 1bbc
00000280: 94b8 613d 087b d8bb e1e5 69bd 4773 9a3c
00000290: fdbb cd3c 16a2 f13c 3b72 193a 1dfc b0bc
000002a0: 1a21 9d3d 4559 febc 4072 973c 2452 62bd
000002b0: 6212 77bd 89c1 e9bc 24b9 943d e947 003a
000002c0: 87ed 11bd 7c4d 36bd 015a 9cbd 9e8a 25bd
000002d0: d54d 32bd f9c7 11bd 6e6b 533d e8ab 36bd
000002e0: 308c e5bc 98c8 26bd 359d 8bbd 42af c2ba
000002f0: fa6f e73c d2c4 e7bd 05b2 1e3c 6aef 0cbd
00000300: 3134 21bd a12c 123d 8e52 903d 2cc1 91bb
00000310: bd1f 3d3c 4b15 47bc bcb9 903d 9424 01bd
00000320: bbe4 4fbd 5409 6bbd 9593 283c 2f15 ad3c
00000330: a936 c7bc d69f 483d 8377 47bd 0ae8 fbbc
00000340: 8a70 0abc 0c6e 793c 44f1 a0bc 2e01 b3bc
00000350: be3a cabb 5c56 ecbc 2832 d23c f66f 2c3c
00000360: 9c12 bebc 4d7b bdbc 6f56 e2bc 5472 f43c
00000370: d996 12bd 004e 43bd b997 163d 9374 76bd
00000380: 3fd7 f0bb 850b e5bb 407b e03c 8315 4ebd
00000390: 07ba bf3c 38d6 51bd fcf4 af3d 13d5 43bd
000003a0: a39e 9f3c 0f43 53bd d4bd df3c 7023 d83c
000003b0: 706a 7abc 125c 89bd add3 803d 4137 8e3b
000003c0: fb8e a03b e411 26bc 4cbe b73c e264 c3bc
000003d0: c487 e5bc e983 613c 27e7 38bc 343f 193d
000003e0: f777 5abd 89e0 443d 8dbf 1a3c 3e26 84bd
000003f0: e790 75bc 1423 ef3b a8d7 183c 8e33 3a3c

l3.weight f4 [2, 300]
1.0545481 0.025097717 -0.676861 0.012198998 0.015416377 -0.04581224 0.20930102 -0.04011932
0.030079916 -0.042537455 0.015202297 0.026815884 -0.3038645 -0.14057386 -0.04593278 0.013878537
0.036881164 -0.045754887 -0.031400103 -0.03449511 0.027391383 -0.2005444 0.02056854 0.06303058
0.026570298 0.4262877 -0.025457364 -0.07450962 0.17774287 -0.53012586 0.50191444 0.08858259
0.305105 0.5366417 0.03809294 0.22718932 -0.014244969 0.28893185 0.46887368 0.31719252
0.0005179788 0.10438371 0.04818018 -0.21231502 0.123923026 0.30600297 -0.021995379 0.010450894
0.047039337 0.075337306 -0.1933806 0.26369825 -0.18493424 -0.08464331 0.047204364 -0.03839369
0.053002335 -0.04979165 -0.42824823 0.17137311 0.0030981668 0.0104895355 0.02497576 0.1632143
0.06404034 0.34530532 0.00596482 -0.003977371 0.035877887 0.022126684 -0.26301292 1.2076628
0.02249496 0.04701655 0.041877113 0.08059436 0.936562 0.0010889469 0.032631725 -0.36227202
-0.034264725 -0.0051484844 -0.0046866625 0.57872003 0.062259827 0.04571605 -0.03464532 0.03357591
0.09862958 -0.3673878 -0.18490995 0.07965728 0.020560142 -0.15898974 -0.16382313 -0.019842112
-0.058266677 0.18227106 0.03326336 -0.19475499 -0.13451649 -0.0059890267 -0.0174091 0.011799385
-0.04420975 0.057911802 -0.029706623 -0.07939156 0.048606507 -0.0028067718 0.011954909 -0.024094626
-0.027371567 -0.42800644 0.9157514 -0.10513005 -0.0022512078 0.05606073 -0.08246927 -0.014480956
0.004387519 0.6489484 -0.03143561 -0.046097 0.013272676 0.5004589 0.02304264 -0.021464996
-0.008919393 -0.21638292 0.08473687 0.0594232 0.04444819 0.010517178 0.039175633 0.15342021
0.6219059 0.033420026 0.026658101 -0.11173631 -0.45058158 -0.0033416522 0.032417048 -0.059867464
0.049634065 0.17854635 -0.38915342 -0.26055127 -0.24768482 0.0078638345 -0.09016041 -0.018343743
0.17692377 -0.024297167 0.122643985 -0.03740786 0.30112484 -0.027325463 -0.169904 -0.2022679
0.18424533 0.015334495 0.0022381353 0.02631313 -0.1564694 0.029542614 -0.013511789 0.0069678533
0.540638 -0.26669773 -0.41176373 -0.027729997 0.02795214 -0.037342202 0.09252609 0.046322275
0.049716495 -0.0056897597 0.30533376 -0.56843066 0.039618596 -0.038576256 -0.073069625 -0.02039205
-0.00079830614 -0.08433465 -0.4193876 0.85864043 -0.040925387 -0.47256926 -0.0073009324 0.037730496
0.03560993 0.006539408 0.156549 -0.00056387106 0.008042035 -0.0060758223 0.15288639 0.011602226
-0.035649132 0.59388185 -0.44733772 0.07847864 0.03041776 -0.050655007 -0.021827009 -0.17155297
0.040089265 0.27571812 -0.013878237 0.040096488 -0.056123402 0.004436436 -0.16889364 -0.06485751
0.09168183 -0.08626225 0.32919937 -0.0007289183 0.05075639 -0.048892766 -0.0472936 -0.03406018
0.012321438 -0.050963238 0.15813297 -0.043700375 -0.018070992 -0.08035855 0.017873686 -0.0146595845
-0.2754888 0.020905245 0.8401863 -0.018945677 0.0027622543 -0.21532163 0.021001939 0.48429364
-0.24954093 0.029933436 0.039079104 0.023753792 0.0038887225 -0.020429589 0.019864393 -0.010074233
-0.043001316 0.1654779 0.14532012 0.14007093 0.49237317 -0.26613304 0.6031299 -0.07454777
00000000: 6ffb 863f ba99 cd3c c346 2dbf 4ede 473c
00000010: f994 7c3c 9ea5 3bbd 0253 563e 2854 24bd
00000020: 286a f63c c13b 2ebd 0e13 793c fcac db3c
00000030: 2194 9bbe 98f2 0fbe 0324 3cbd ce62 633c
00000040: b410 173d 7a69 3bbd 659d 00bd bf4a 0dbd
00000050: e563 e03c 835b 4dbe 5b7f a83c 2d16 813d
00000060: f4a9 d93c 6242 da3e f68b d0bc 8098 98bd
00000070: 3a02 363e 54b6 07bf 777d 003f ca6a b53d
00000080: b936 9c3e 5a61 093f 5807 1c3d 51a4 683e
00000090: bb63 69bc e0ee 933e 3610 f03e 0f67 a23e
000000a0: f8c8 073a 20c7 d53d 9558 453d 1c69 59be
000000b0: 5bcb fd3d 6cac 9c3e a72f b4bc 3a3a 2b3c
000000c0: 52ac 403d 724a 9a3d 9005 46be 7503 873e
000000d0: 675f 3dbe 7959 adbd 5d59 413d b442 1dbd
000000e0: fa18 593d 54f2 4bbd 5a43 dbbe 6f7c 2f3e
000000f0: 9d0a 4b3b 4ddc 2b3c f799 cc3c a621 273e
00000100: 9527 833d dccb b03e 8974 c33b 9b54 82bb
00000110: b1f4 123d 0543 b53c a1a9 86be b294 9a3f
00000120: 5a47 b83c 6d94 403d 5687 2b3d a80e a53d
00000130: 87c2 6f3f ffba 8e3a d8a8 053d b87b b9be
00000140: 2b59 0cbd 9eb4 a8bb 9392 99bb ff26 143f
00000150: 2904 7f3d c140 3b3d 40e8 0dbd e586 093d
00000160: 4efe c93d 411a bcbe 0959 3dbe 5b23 a33d
00000170: be6d a83c 35ce 22be 40c1 27be ed8b a2bc
00000180: 0aa9 6ebd 44a5 3a3e 293f 083d da6d 47be
00000190: b1be 09be 993f c4bb 879d 8ebc 3552 413c
000001a0: 4815 35bd ed34 6d3d 4e5b f3bc 0b98 a2bd
000001b0: 9e17 473d d1f1 37bb 86de 433c 1862 c5bc
000001c0: 563a e0bc a923 dbbe af6e 6a3f 6c4e d7bd
000001d0: 0089 13bb f09f 653d a6e5 a8bd 8841 6dbc
000001e0: 2dc5 8f3b 7b21 263f a0c2 00bd 35d0 3cbd
000001f0: a375 593c 131e 003f ebc3 bc3c 5cd7 afbc
00000200: a522 12bc 7c93 5dbe 868a ad3d be65 733d
00000210: 4e0f 363d 3e50 2c3c a176 203d 301a 1d3e
00000220: 3a35 1f3f 70e3 083d 1762 da3c 02d6 e4bd
00000230: a1b2 e6be 9fff 5abb bdc7 043d 9637 75bd
00000240: 174d 4b3d dbd4 363e 1e3f c7be fa66 85be
00000250: 17a1 7dbe 50d7 003c 05a6 b8bd 9e45 96bc
00000260: 812b 353e da0a c7bc c52c fb3d fc38 19bd
00000270: 092d 9a3e a6d9 dfbc 50fb 2dbe 511f 4fbe
00000280: cfaa 3c3e 893d 7b3c aead 123b a28e d73c
00000290: 8439 20be 5a03 f23c 8d60 5dbc 9752 e43b
000002a0: 4167 0a3f 9b8c 88be b2d2 d2be 052a e3bc
000002b0: e3fb e43c 23f4 18bd 527e bd3d 6dbc 3d3d
000002c0: 86a3 4b3d 2a71 babb b554 9c3e ac84 11bf
000002d0: 1c47 223d 2302 1ebd 87a5 95bd 3a0d a7bc
000002e0: 6b45 51ba a5b7 acbd f9b9 d6be dccf 5b3f
000002f0: 61a1 27bd 99f4 f1be a93c efbb 4b8b 1a3d
00000300: b8db 113d 8848 d63b 624e 203e bfd0 13ba
00000310: bdc2 033c b117 c7bb 408e 1c3e 4317 3e3c
00000320: d304 12bd a408 183f 7309 e5be 69b9 a03d
00000330: ab2e f93c a07b 4fbd 8ece b2bc 95ab 2fbe
00000340: a434 243d ed2a 8d3e 8c61 63bc 373c 243d
00000350: a7e1 65bd 865f 913b 74f2 2cbe 04d4 84bd
00000360: afc3 bb3d 43aa b0bd d28c a83e e114 3fba
00000370: efe5 4f3d c843 48bd efb6 41bd b082 0bbd
00000380: dbdf 493c d4be 50bd 9ced 213e 2aff 32bd
00000390: 9e09 94bc 0693 a4bd d66b 923c c12e 70bc
000003a0: de0c 8dbe 7a41 ab3c 7316 573f f733 9bbc
000003b0: f006 353b 467d 5cbe 420c ac3c 56f5 f73e
000003c0: a887 7fbe f736 f53c 6911 203d 5097 c23c
000003d0: f0d9 7e3b f45b a7bc a7ba a23c 650e 25bc
000003e0: 2622 30bd 0a73 293e ccce 143e c16e 0f3e
000003f0: 5618 fc3e 9742 88be b966 1a3f 80ac 98bd

l3.bias f4 [2]
-0.010407317 0.01964418
00000000: 7483 2abc d5ec a03c
