models/actor_80.pth (torch, 532897 bytes, 6 tensors)

l1.weight f4 [400, 28]
0.11182758 -0.15723863 0.1441549 -0.17976242 -0.053156864 0.1643851 -0.009871038 -0.036968242
0.16362871 -0.10003311 -0.023163807 0.18079962 -0.019931426 0.025112381 -0.052547265 0.14648713
0.16857523 0.056459576 0.130414 -0.06697962 -0.17558135 -0.070285395 0.0038950543 0.14977618
0.10373192 0.019282585 -0.124215476 -0.020543458 0.17317313 0.080662735 -0.1801202 -0.09752725
0.121567436 0.07554186 0.12829036 0.04107795 -0.0028549163 0.026815126 -0.00967263 -0.06318893
0.10541146 0.015140169 0.11332491 0.1086299 -0.13565959 0.14156483 -0.18197416 -0.09391171
0.06688247 -0.13374348 0.13333192 0.003561791 0.07899779 0.0322828 0.03532324 0.07140069
-0.010606546 -0.121312864 -0.16297509 0.06664094 -0.1636773 0.15760858 0.12720619 -0.06569387
-0.032766756 -0.056521486 0.18223877 -0.15044975 0.18043199 0.054611705 0.18560803 0.13927782
-0.061709154 -0.118308745 -0.018346079 0.16117345 0.15555206 -0.17215484 0.05809203 0.013585977
-0.13691159 0.07354607 -0.06661447 -0.05109062 0.06535885 -0.068873174 0.04207972 0.05233131
-0.005645942 -0.05903976 0.07578447 -0.11232553 0.081781544 0.09776826 -0.13153616 0.13938087
-0.14085874 -0.082773015 -0.17584416 0.07949788 0.17442481 -0.059949253 -0.10744659 0.047261868
0.06128402 0.08095666 0.051897727 -0.13675852 0.02616072 -0.048137773 -0.03161314 -0.13286108
0.036408253 -0.1741253 -0.1453075 0.18186581 0.0521703 -0.015558049 -0.059989378 0.14450616
-0.15840438 -0.09225844 -0.018647892 -0.12608504 0.04171807 -0.041778516 -0.045710605 0.033196397
0.08799664 0.15204254 -0.033479262 0.15700229 0.145983 -0.12534276 -0.13717602 0.10535812
-0.08746432 -0.059712097 -0.08584164 0.00536722 0.038311455 0.017438116 -0.06088621 -0.01257267
0.14857607 -0.07102541 0.015038521 0.047106512 0.124600686 0.033734735 -0.07217438 0.1333505
0.18846817 -0.10425992 0.03830551 -0.100996405 -0.017867664 0.087784715 0.042123426 -0.041050848
0.10258809 0.049730737 0.0991892 0.1468085 0.10003665 0.06381392 0.17033975 -0.022510573
-0.07872914 -0.18846248 0.13378486 0.076206155 0.14024633 0.12002598 0.061386432 0.0587527
-0.13754639 0.07721223 0.14622258 -0.041501865 -0.16559188 0.13473094 0.13654594 -0.11727629
0.18600175 -0.09464523 0.007050297 -0.031852283 -0.13122988 -0.101218335 -0.10251284 0.008404797
-0.151068 -0.102831975 0.06974604 0.11803219 -0.024131157 -0.01376429 -0.17931361 0.12057008
-0.055654682 0.056382824 0.120071754 0.011885238 -0.07398549 -0.055700008 -0.04240129 0.018206244
0.15584148 0.16113797 0.050895482 -0.15153852 0.00368768 -0.09056101 0.18259554 0.09975277
0.043840203 -0.13241889 0.08055343 0.072034925 -0.16526781 -0.11861567 0.14618097 -0.10955514
0.047684547 -0.088843256 -0.05825311 -0.17104417 -0.053167384 0.058379114 0.010177718 -0.12861887
0.12014083 0.13701846 -0.1758809 0.15900503 0.027239382 -0.11990171 0.078356385 0.14436261
-0.04359327 -0.09626861 0.11523454 0.16392061 0.12488173 -0.16572317 0.10215822 -0.07914713
-0.17412812 -0.02019715 -0.10345678 0.07267721 -0.0198371 0.008256515 0.1304923 -0.15196423
00000000: dc05 e53d 2a03 21be 589d 133e a413 38be
00000010: 03bb 59bd 9154 283e 22ba 21bc 036c 17bd
00000020: 498e 273e 29de ccbd 06c2 bdbc 8923 393e
00000030: 3b47 a3bc 7bb8 cd3c cd3b 57bd b900 163e
00000040: fc9e 2c3e 2842 673d 3f8b 053e 9c2c 89bd
00000050: 99cb 33be caf1 8fbd 2b44 7f3b ed5e 193e
00000060: 6771 d43d 83f6 9d3c af64 febd c14a a8bc
00000070: 4c54 313e 8132 a53d 6e71 38be 5ebc c7bd
00000080: 59f8 f83d b1b5 9a3d 8c5e 033e 5a41 283d
00000090: 8c19 3bbb 65ab db3c f379 1ebc 3369 81bd
000000a0: f7e1 d73d 790e 783c e416 e83d 5a79 de3d
000000b0: 59ea 0abe 5ff6 103e 6f57 3abe c854 c0bd
000000c0: adf9 883d 0df4 08be 2a88 083e f06c 693b
000000d0: 98c9 a13d f83a 043d 1aaf 103d 863a 923d
000000e0: 14c7 2dbc e172 f8bd f1e2 26be 0c7b 883d
000000f0: 069b 27be 2564 213e 5742 023e 828a 86bd
00000100: 6f36 06bd 1383 67bd cd9c 3a3e 800f 1abe
00000110: 2ac3 383e 86b0 5f3d 0810 3e3e d89e 0e3e
00000120: bdc2 7cbd db4b f2bd 844a 96bc a70a 253e
00000130: 0a49 1f3e 5c49 30be e9f1 6d3d b897 5e3c
00000140: 8d32 0cbe 529f 963d 2b6d 88bd 6644 51bd
00000150: dcda 853d 610d 8dbd c95b 2c3d 5b59 563d
00000160: 9801 b9bb add3 71bd e334 9b3d ed0a e6bd
00000170: 157d a73d ba3a c83d 6ab1 06be dcb9 0e3e
00000180: 463d 10be e684 a9bd 7e10 34be c9cf a23d
00000190: 6b9c 323e 598d 75bd f50c dcbd a995 413d
000001a0: f404 7b3d 9bcc a53d b692 543d 6d0a 0cbe
000001b0: 024f d63c 1d2c 45bd c87c 01bd bc0c 08be
000001c0: d220 153d e74d 32be 7dcb 14be 083b 3a3e
000001d0: 86b0 553d 30e7 7ebc 6cb7 75bd 6cf9 133e
000001e0: c234 22be fef1 bcbd 77c3 98bc 701c 01be
000001f0: 91e0 2a3d f31f 2bbd 0b3b 3bbd f2f8 073d
00000200: 9537 b43d 0ab1 1b3e 8d21 09bd 35c5 203e
00000210: 917c 153e da59 00be df77 0cbe ffc5 d73d
00000220: 7e20 b3bd ac94 74bd becd afbd 81df af3b
00000230: 79ec 1c3d 61da 8e3c d263 79bd 9afd 4dbc
00000240: 5324 183e c575 91bd 2164 763c c2f2 403d
00000250: a52e ff3d 6f2d 0a3d 29d0 93bd 098d 083e
00000260: cdfd 403e 3a86 d5bd 3de6 1c3d 34d7 cebd
00000270: 355f 92bc 79c8 b33d 9d89 2c3d ef24 28bd
00000280: b419 d23d 75b2 4b3d b523 cb3d f854 163e
00000290: 04e0 cc3d dfb0 823d 8b6d 2e3e 1868 b8bc
000002a0: be3c a1bd 4ffc 40be e6fe 083e f911 9c3d
000002b0: bc9c 0f3e 2ed0 f53d 5770 7b3d aca6 703d
000002c0: f6d8 0cbe 7221 9e3d 5fbb 153e dcfd 29bd
000002d0: eb90 29be e8f6 093e b3d2 0b3e 8d2e f0bd
000002e0: 3e77 3e3e 5cd5 c1bd 2e06 e73b 8a77 02bd
000002f0: 2061 06be 8f4b cfbd 40f2 d1bd 46b4 093c
00000300: 92b1 1abe 9299 d2bd 03d7 8e3d dcba f13d
00000310: b4ae c5bc 9e83 61bc fd9d 37be 72ed f63d
00000320: 2af6 63bd adf1 663d 2ee8 f53d 4dba 423c
00000330: b485 97bd b125 64bd faac 2dbd 4325 953c
00000340: e994 1f3e 5a01 253e c877 503d ea2c 1bbe
00000350: 01ad 713b 0d78 b9bd 53fa 3a3e 2e4b cc3d
00000360: c991 333d d198 07be 32f9 a43d 0c87 933d
00000370: f73b 29be c6ec f2bd 77b0 153e 725e e0bd
00000380: df50 433d 74f3 b5bd d09a 6ebd 3426 2fbe
00000390: 0bc6 59bd f01e 6f3d 71c0 263c aab4 03be
000003a0: 650c f63d 914e 0c3e 1f1a 34be 37d2 223e
000003b0: 2025 df3c 078f f5bd 5079 a03d cbd3 133e
000003c0: db8e 32bd 7a28 c5bd 1600 ec3d ceda 273e
000003d0: fec1 ff3d 56b3 29be 5438 d13d e417 a2bd
000003e0: a44e 32be 7e74 a5bc 26e1 d3bd cad7 943d
000003f0: 6a81 a2bc 5546 073c c69f 053e 839c 1bbe

l1.bias f4 [400]
-0.11122659 0.007881236 -0.11020666 0.09331362 -0.12521292 -0.12470824 -0.13783953 0.049612172
-0.13505182 -0.062746994 -0.16990378 0.035579544 -0.09951778 -0.1159071 -0.07058168 0.12612294
-0.11586265 -0.14424017 -0.11378073 0.073080964 0.11325843 -0.05766514 -0.06000213 -0.1686974
-0.030291917 0.053125884 -0.122311465 0.18167043 0.03539988 0.12962277 0.12387 -0.018330624
0.10556702 0.10611277 -0.048260104 -0.0810548 -0.08111882 0.06809925 -0.06961163 0.089614905
-0.016492957 -0.116599694 -0.11371447 -0.057939246 0.10356136 -0.0019993763 -0.17252703 0.10389651
0.045181166 0.095352106 -0.17617169 0.12536904 0.11760104 -0.1582598 0.13426945 -0.09922986
0.120269485 -0.1525501 -0.14851828 -0.09290721 0.045311715 0.041421708 -0.0803851 -0.08313841
0.16059917 0.14130613 0.009339434 -0.066178754 -0.11916284 -0.031874903 0.11153507 0.11837281
0.0030170083 -0.14613152 -0.0655268 0.010261951 -0.11856992 -7.4186144e-05 -0.061722647 0.09801718
0.022766676 -0.14766319 -0.16176428 -0.024895478 0.07494452 0.18222535 -0.009162541 0.07200064
-0.117250316 0.14100619 -0.0067772074 -0.04726863 0.10208124 0.068698265 0.07444615 -0.07318683
0.065732054 0.15079217 0.110638216 -0.1584593 0.07870821 0.095889635 0.17733355 0.113710485
0.07072607 -0.095141284 -0.10097899 -0.11412407 0.006918821 -0.05875448 0.17727885 -0.0026425407
-0.12764254 0.121767245 0.104740545 0.12502337 0.015632821 0.07396456 -0.01062164 -0.015250108
-0.092186004 -0.0017753536 0.17285293 0.06588354 -0.016064128 -0.14032932 0.061264463 0.024045413
0.11830129 0.16382052 -0.106639914 -0.18619877 0.18717548 -0.0051140906 0.026050061 0.08812555
-0.06124252 -0.089574575 -0.018254995 0.021724714 0.09097139 -0.03120326 0.087312095 -0.15981421
0.05826602 -0.18818934 0.03815349 -0.029771173 -0.12841207 0.18886542 -0.18284541 0.014899025
0.18829566 -0.08099365 -0.05605934 -0.006803836 -0.06475518 -0.004029324 -0.1683794 0.04557343
0.10076973 0.08303829 0.17279845 -0.15110898 -0.17260787 -0.02382727 -0.11625113 0.0034524605
-0.17036444 -0.12359536 0.14198557 0.109822825 0.122108616 0.1379041 0.009321006 -0.070522524
0.18782543 -0.03228546 -0.17181484 -0.15896563 -0.10175268 -0.012749023 0.13839573 -0.09946517
0.10543381 0.17254832 0.0739865 0.14956567 -0.092187494 0.064847365 -0.13113612 0.06962981
-0.011744592 0.17780024 0.086402014 0.13862024 -0.1318854 -0.07668158 -0.043618254 -0.048074335
0.12778178 0.08915704 -0.06739546 0.04665333 0.17148165 0.10524052 -0.09408989 -0.16276594
0.085067675 -0.08776018 0.1403455 -0.057137594 0.15203573 -0.17993501 -0.038425516 -0.052940655
-0.081561215 0.12592097 0.031400744 0.09612625 -0.03165079 -0.0645203 -0.08195224 -0.17576079
-0.060671583 0.13095474 -0.03575664 -0.09097274 0.09960136 -0.17581943 0.0055918735 -0.17757554
0.06613221 -0.08500086 -0.1600037 -0.15796939 0.12929858 -0.035155132 0.10860318 -0.1883951
-0.116601564 -0.14375094 -0.18650237 -0.16334075 -0.090639405 -0.15469247 -0.070722625 0.107528865
0.026135353 -0.070760764 -0.17015436 -0.1566548 0.03728452 0.102015726 0.09785123 0.09551181
00000000: c4ca e3bd 4d20 013c 08b4 e1bd 361b bf3d
00000010: d137 00be 0967 ffbd ce25 0dbe 2236 4b3d
00000020: 064b 0abe 7f81 80bd 42fb 2dbe dbbb 113d
00000030: facf cbbd b460 edbd 218d 90bd 5f26 013e
00000040: 6649 edbd b2b3 13be df05 e9bd 79ab 953d
00000050: 09f4 e73d 4832 6cbd cbc4 75bd 03bf 2cbe
00000060: c126 f8bc 879a 593d 6f7e fabd d007 3a3e
00000070: 77ff 103d d5bb 043e 8eaf fd3d 1b2a 96bc
00000080: 8633 d83d a751 d93d 63ac 45bd 0f00 a6bd
00000090: a021 a6bd 9f77 8b3d 8b90 8ebd 0588 b73d
000000a0: 3d1c 87bc d2cb eebd 22e3 e8bd b451 6dbd
000000b0: fa17 d43d f807 03bb edaa 30be b2c7 d43d
000000c0: e30f 393d f747 c33d 5a66 34be be60 003e
000000d0: d0d8 f03d db0e 22be ee7d 093e 0639 cbbd
000000e0: d94f f63d 1836 1cbe 2d15 18be 2346 bebd
000000f0: c798 393d cfa9 293d f1a0 a4bd 7844 aabd
00000100: 1c74 243e 8eb2 103e 6d04 193c ba88 87bd
00000110: a60b f4bd 428f 02bd 806c e43d 726d f23d
00000120: 00b9 453b 80a3 15be ea32 86bd be21 283c
00000130: c9d4 f2bd 6294 9bb8 e3d0 7cbd 3bbd c83d
00000140: 2e81 ba3c 0535 17be 89a5 25be 9af1 cbbc
00000150: 837c 993d 4899 3a3e 7b1e 16bc 1275 933d
00000160: ef20 f0bd ed63 103e 5613 debb c09c 41bd
00000170: f80f d13d adb1 8c3d 3977 983d fae2 95bd
00000180: 879e 863d 4369 1a3e 4a96 e23d 2843 22be
00000190: c531 a13d c961 c43d ed96 353e 0be1 e83d
000001a0: d4d8 903d 6fd9 c2bd 13ce cebd e1b9 e9bd
000001b0: 47b7 e23b 8aa8 70bd 9688 353e 7a2e 2dbb
000001c0: bab4 02be 1b61 f93d 3682 d63d 2006 003e
000001d0: 6710 803c bb7a 973d 6306 2ebc 97db 79bc
000001e0: 04cc bcbd fbb2 e8ba 5c00 313e f3ed 863d
000001f0: eb98 83bc 7db2 0fbe 72f0 7a3d e3fa c43c
00000200: f247 f23d 91c0 273e 0766 dabd e4aa 3ebe
00000210: eeaa 3f3e 1a94 a7bb f066 d53c 2b7b b43d
00000220: 70d9 7abd e072 b7bd 808b 95bc 07f8 b13c
00000230: 354f ba3d fb9d ffbc afd0 b23d 56a6 23be
00000240: 5aa8 6e3d b5b4 40be d546 1c3d ade2 f3bc
00000250: 747e 03be f065 413e d43b 3bbe 0a1b 743c
00000260: 94d0 403e 00e0 a5bd 7a9e 65bd b7f2 debb
00000270: 5d9e 84bd 6b08 84bb a66b 2cbe 34ab 3a3d
00000280: 5c60 ce3d fb0f aa3d 14f2 303e 50bc 1abe
00000290: 1ec0 30be 6831 c3bc 1315 eebd ad42 623b
000002a0: 0474 2ebe 901f fdbd aa64 113e caea e03d
000002b0: 1514 fa3d bb36 0d3e 22b7 183c 1d6e 90bd
000002c0: 4f55 403e c23d 04bd 3bf0 2fbe e3c7 22be
000002d0: b663 d0bd 47e1 50bc 9cb7 0d3e 65b4 cbbd
000002e0: aeed d73d 82b0 303e 3c86 973d be27 193e
000002f0: cccc bcbd b2ce 843d 8c48 06be 139a 8e3d
00000300: 646c 40bc 4411 363e 8af3 b03d 77f2 0d3e
00000310: f70c 07be 3b0b 9dbd 0ea9 32bd 98e9 44bd
00000320: 3ad9 023e f797 b63d a206 8abd 9017 3f3d
00000330: e398 2f3e 5788 d73d 33b2 c0bd 1dac 26be
00000340: f637 ae3d 9cbb b3bd bbb6 0f3e 1c09 6abd
00000350: 41af 1b3e e240 38be 1364 1dbd 4dd8 58bd
00000360: 9109 a7bd 6df1 003e 119e 003d d7dd c43d
00000370: 42a4 01bd 3823 84bd 93d6 a7bd a3fa 33be
00000380: c482 78bd 0019 063e 8e75 12bd ea4f babd
00000390: ccfb cb3d 020a 34be 093c b73b 5dd6 35be
000003a0: 5370 873d ee14 aebd 03d8 23be bac2 21be
000003b0: d966 043e d4fe 0fbd 586b de3d a5ea 40be
000003c0: cdcc eebd 7233 13be 7afa 3ebe cc42 27be
000003d0: 27a1 b9bd b467 1ebe 06d7 90bd 1838 dc3d
000003e0: cf19 d63c 05eb 90bd f23c 2ebe 1e6a 20be
000003f0: a7b7 183d 9fed d03d 3a66 c83d b29b c33d

l2.weight f4 [300, 400]
-0.035569787 -0.008766956 -0.039252914 -0.0037763298 -0.035115313 0.034601945 0.003841007 -0.0008795202
0.036736842 -0.037811663 -0.01210835 0.034351088 0.011511094 0.035636764 0.04716896 0.03362573
0.04346198 -0.026999265 0.01490289 0.034082253 -0.040324535 -0.014799148 0.04814274 0.033371266
0.030928826 -0.048256632 -0.002930951 -0.043925107 0.010862941 -0.0014493108 0.012143302 0.043928783
-0.01193539 0.04634431 -0.020422697 -0.020528525 0.038074393 0.005677372 -0.018731266 -0.040192623
-0.042425126 -0.0014986516 0.011338145 -0.0034949721 0.020846367 -0.02203179 0.017400784 -0.016061336
0.038606536 0.014921374 0.033374395 0.040626843 -0.04703779 0.044018425 -0.0073189735 0.0096573355
-0.015090495 0.0061189174 0.042723686 0.021037394 -0.035590626 0.048091598 0.04275439 -0.007610047
-0.017968172 0.012892825 -0.049785364 0.041226238 0.045241095 0.036892142 -0.015160245 -0.017367786
0.0024056851 -0.035584457 -0.04592064 -0.0024063827 -0.019327736 -0.0007975042 -0.02234363 0.045585074
0.012490493 0.013471293 -0.023773015 0.016688967 -0.04609211 -0.0464786 0.0052835527 -0.03924805
-0.04430574 -0.018752718 -0.030596465 -0.04954033 0.03880423 0.0009743571 0.0051311017 -0.028586006
0.0031349899 0.034914803 -0.041046124 -0.01028623 -0.04688204 -0.04420008 0.028144836 0.0071985307
0.003469223 -0.032354213 0.012037629 0.03971194 -0.0027708411 -0.013129723 -0.048348155 -0.040896077
0.0028098763 -0.006476629 -0.028007269 0.03129971 0.006926191 0.029813303 -0.016851664 0.022573328
0.045622136 0.03571083 0.035025686 -0.033689924 0.024325324 -0.04796515 0.012874502 0.045707773
0.0064572874 0.028972967 0.0014203787 0.027166648 -0.034445543 0.026137983 0.03036279 0.040464807
0.04231255 -0.04159686 -0.04513032 0.015658451 0.0087172985 0.013598949 -0.04539885 0.020880122
0.043316584 -0.025952458 0.010380072 -0.04347783 0.03009212 -0.014563197 -0.04529847 -0.04325971
0.040052332 -0.034425627 -0.033074606 0.007327616 -0.032213517 -0.01801656 -0.0046494068 -0.047950357
0.0029354095 -0.04826045 0.019564444 0.049651213 -0.045599546 0.021863103 0.0064000012 -0.021499455
-0.0186853 -0.03728593 0.036493894 0.0075154067 0.024894042 0.008876014 0.0067243758 -0.0021497966
-0.014165187 0.039819658 -0.036876228 -0.029046029 -0.0076920213 0.004500765 0.014037335 0.031023925
0.02202378 0.009909547 -0.031788755 -0.028369082 0.005910003 0.03513312 0.008592635 -0.016827399
-0.031947363 0.011514318 0.04004853 0.037050005 -0.047822174 0.0050737024 0.015943218 -0.017356236
0.012066001 0.011846143 0.0387972 0.018619282 0.0083857775 0.010328156 -0.04834907 -0.00012196899
-0.015997821 -0.039929736 0.035580028 0.008621151 0.01449281 -0.04238933 0.044050552 -0.039393228
0.034541287 -0.047456183 -0.030503048 -0.046227194 0.032328248 -0.038250655 -0.024005825 -0.004446232
0.003736794 -0.018597348 0.0032069683 0.0055791377 0.006261504 0.022849161 -0.012699515 -0.012611139
-0.021097887 0.04944861 0.02513727 -0.022459758 -0.02797897 0.039286543 0.0240075 0.0033531548
0.02915355 -0.049831606 0.049480785 0.011989015 -0.005822605 0.018842757 -0.013464386 -0.024433512
0.034385175 -0.041066963 0.029603297 0.048240025 0.04434953 0.013487673 0.039976913 0.032072384
00000000: a0b1 11bd 47a3 0fbc aac7 20bd 4d7c 77bb
00000010: 13d5 0fbd c5ba 0d3d 67b9 7b3b 9a8f 66ba
00000020: 5f79 163d 67e0 1abd 1a62 46bc bab3 0c3d
00000030: 0799 3c3c dbf7 113d 3d34 413d 22bb 093d
00000040: 3005 323d 902d ddbc 402b 743c d599 0b3d
00000050: 572b 25bd 2078 72bc 5231 453d 4fb0 083d
00000060: 735e fd3c bfa8 45bd 3315 40bb d0ea 33bd
00000070: 7afa 313c cdf6 bdba b3f4 463c abee 333d
00000080: a78c 43bc 88d3 3d3d 804d a7bc 702b a8bc
00000090: e5f3 1b3d 4009 ba3b 5072 99bc 05a1 24bd
000000a0: f8c5 2dbd 676e c4ba a0c3 393c e70b 65bb
000000b0: 00c6 aa3c 037c b4bc 178c 8e3c 1093 83bc
000000c0: e321 1e3d c778 743c 97b3 083d 5568 263d
000000d0: b3aa 40bd aa4c 343d 00d4 efbb cd39 1e3c
000000e0: 203e 77bc 3381 c83b 08ff 2e3d 9d56 ac3c
000000f0: 7ac7 11bd b2fb 443d 3a1f 2f3d b35d f9bb
00000100: fd31 93bc 6d3c 533c bdeb 4bbd d8dc 283d
00000110: ba4e 393d 371c 173d ad62 78bc e346 8ebc
00000120: b3a8 1d3b 02c1 11bd 4817 3cbd 67b4 1dbb
00000130: 3355 9ebc 9a0f 51ba fd09 b7bc 6ab7 3a3d
00000140: eda4 4c3c b3b6 5c3c a0bf c2bc 4db7 883c
00000150: 15cb 3cbd 5860 3ebd a721 ad3b 90c2 20bd
00000160: f079 35bd 4d9f 99bc 70a5 fabc cdea 4abd
00000170: 2ff1 1e3d 006c 7f3a cd22 a83b 332d eabc
00000180: 6774 4d3b d302 0f3d fb1f 28bd 9387 28bc
00000190: 6207 40bd 250b 35bd 0090 e63c a7e1 eb3b
000001a0: e75b 633b da85 04bd 7a39 453c fda8 223d
000001b0: 0097 35bb 0d1e 57bc b708 46bd a582 27bd
000001c0: e725 383b e739 d4bb 806f e5bc 2034 003d
000001d0: 1af5 e23b 073b f43c 800c 8abc b3eb b83c
000001e0: 47de 3a3d 8545 123d 1877 0f3d 72fe 09bd
000001f0: e745 c73c 1b77 44bd 93ef 523c 1338 3b3d
00000200: a797 d33b b758 ed3c 002c ba3a 978c de3c
00000210: c516 0dbd 531f d63c 63bb f83c 6dbe 253d
00000220: ed4f 2d3d 7861 2abd 92da 38bd 2746 803c
00000230: 00d3 0e3c 20ce 5e3c 25f4 39bd ca0c ab3c
00000240: bb6c 313d 409a d4bc 2d11 2a3c cf15 32bd
00000250: c083 f63c 7a9a 6ebc e38a 39bd 1831 31bd
00000260: ea0d 243d e301 0dbd 3d79 07bd 801c f03b
00000270: 52f2 03bd 7797 93bc 0d5a 98bb 9867 44bd
00000280: 0060 403b c0ac 45bd 9d45 a03c 125f 4b3d
00000290: 97c6 3abd 401a b33c 1ab7 d13b a01f b0bc
000002a0: ea11 99bc 22b9 18bd 9f7a 153d cd43 f63b
000002b0: 97ee cb3c b36c 113c 2758 dc3b 9ae3 0cbb
000002c0: 1a15 68bc f019 233d 870b 17bd f0f1 edbc
000002d0: 5a0d fcbb 277b 933b dafc 653c e325 fe3c
000002e0: 376b b43c a75b 223c ed34 02bd 4766 e8bc
000002f0: b3a8 c13b bfe7 0f3d 20c8 0c3c 9dd9 89bc
00000300: 3ddb 02bd 8da6 3c3c ed09 243d bfc1 173d
00000310: 2fe1 43bd 4d41 a63b 5a9b 823c aa2e 8ebc
00000320: 7ab0 453c 5316 423c d0e9 1e3d 7787 983c
00000330: 8064 093c 6d37 293c ad09 46bd 9ac9 ffb8
00000340: dd0d 83bc 5d8d 23bd 5dbc 113d ba3f 0d3c
00000350: 4073 6d3c 6fa0 2dbd 5a6e 343d cb5a 21bd
00000360: 2a7b 0d3d 6a61 42bd 87e1 f9bc ba58 3dbd
00000370: a06a 043d b8ac 1cbd dda7 c4bc b3b1 91bb
00000380: 00e5 743b 7759 98bc 002c 523b 33d1 b63b
00000390: 4d2d cd3b 2a2e bb3c a011 50bc f39e 4ebc
000003a0: 7ad5 acbc a08a 4a3d adec cd3c 87fd b7bc
000003b0: 2734 e5bc edea 203d 60ab c43c 9ac0 5b3b
000003c0: 6dd3 ee3c 3a1c 4cbd 5dac 4a3d 936d 443c
000003d0: 8dcb bebb 205c 9a3c ba99 5cbc ca28 c8bc
000003e0: 78d7 0c3d d535 28bd 9d82 f23c 5597 453d
000003f0: daa7 353d 67fb 5c3c d5be 233d 555e 033d

l2.bias f4 [300]
-0.00036322474 -0.017236447 -0.009292466 -0.030455714 0.011332738 -0.011281908 0.032304097 -0.033089448
0.016263014 -0.047697462 0.018448323 0.020222599 0.021716667 -0.030081064 -0.029679656 -0.00012564064
0.021824092 -0.00876804 0.033430327 -0.012671041 -0.0025870323 0.03811409 -0.014878362 -0.03125257
-0.021144127 0.03609717 -0.010701889 -0.0054139136 -0.0069248737 -0.00019615889 -0.030585146 0.023840213
0.026692737 -0.03490438 -0.019764591 0.03766774 0.012618691 0.041728914 -0.043409657 0.02004606
-0.005860424 0.020151872 0.021521062 0.01830349 0.019268787 -0.017547756 -0.03370763 -0.036300607
-0.028692162 -0.04580007 0.01423161 -0.016873926 -0.015490586 -0.029455101 -0.016396005 0.009423691
0.018279344 0.010292733 -0.02374131 0.0068248333 0.04570774 -0.009103233 -0.03180434 0.034464587
0.010101753 -0.008293003 -0.006424308 0.033079702 0.034859896 0.040185034 0.020035947 0.0059618237
0.014785868 0.014571077 -0.041889817 -0.012872952 -0.022644455 -0.035458405 0.02808525 0.023136258
-0.009542626 0.04140548 -0.024372816 -0.04056074 -0.02603494 0.04808975 -0.044837754 -0.022474665
0.046607036 -0.019325841 -0.022942573 0.02881108 -0.009707624 -0.043296892 -0.015170169 0.038620956
-0.044673044 -0.046422925 -0.03485748 -0.009837753 -0.030601991 -0.04281738 0.047639288 -0.040868875
-0.012685728 -0.0245947 0.019896269 -0.048019953 0.0036043525 0.049273282 -0.020514656 -0.02653603
0.04177918 -0.02257889 -0.03472762 0.031221777 -0.039378464 0.04003287 -0.048841726 0.031749893
-0.013494742 -0.00703761 -0.018168552 -0.00495649 -0.01320771 -0.023091799 0.010905958 0.03303529
0.034452464 -0.01753596 -0.049791913 -0.0043751895 0.046038073 0.011217159 0.04822093 0.03284623
-0.018769538 -0.049385916 0.009949005 0.006290287 -0.020423114 0.023559898 0.004431266 -4.082918e-06
-0.00061039923 0.03963188 -0.009806431 0.021028806 -0.039070673 0.006070298 -0.025682086 0.022907848
0.031562548 -0.0054373564 -0.046331316 -0.048581142 0.035799462 0.012726486 0.027712798 -0.02740099
0.03276221 0.010879946 -0.028762145 0.04188044 -0.016373444 0.043106247 0.011584038 0.021688474
-0.008584267 0.04499182 0.013043982 -0.033953156 -0.047946643 -0.008169681 0.020650977 0.011781669
-0.02136767 -0.020999415 -0.014632332 0.00033865572 -0.027800007 -0.019716222 0.04193277 -0.026606923
-0.013134504 -0.0111413 0.025175596 -0.027045174 -0.0010335505 -0.04541507 0.036371548 -0.024246616
-0.031143053 0.047710937 0.044455986 0.01674006 0.01260674 0.005081046 0.029312158 -0.026535476
-0.032081228 -0.046781637 0.026734853 0.012834198 -0.022053868 0.031365074 -0.028902 -0.04710866
0.0054157437 -0.048237003 -0.0021215917 -0.009869463 -0.034226146 -0.007927197 -0.005339682 0.007205254
-0.034282554 -0.024564957 0.027325928 0.045242686 -0.030921686 -0.036190797 0.046233334 -0.040027868
0.014337296 0.015670544 0.030210419 -0.038583834 0.04345274 -0.048336357 0.032902837 -0.027019579
0.034245778 -0.03745954 -0.021223111 0.03791075 0.009264982 -0.040103134 0.038071085 0.020588791
-0.0192554 0.0033541084 0.042217325 -0.01923359 -0.0034256459 0.03531859 -0.029506862 0.02226389
-0.03675303 0.042914327 0.04016909 -0.046022255 0.009135169 -0.003890109 0.04925525 -0.0071742656
00000000: 336f beb9 7333 8dbc 6d3f 18bc 437e f9bc
00000010: f3ac 393c c0d7 38bc 4d51 043d cd88 07bd
00000020: 033a 853c 6a5e 43bd f020 973c dda9 a53c
00000030: 27e7 b13c 906c f6bc c022 f3bc 67be 03b9
00000040: 70c8 b23c d3a7 0fbc 3dee 083d 339a 4fbc
00000050: 338b 29bb 851d 1c3d 60c4 73bc b202 00bd
00000060: 7336 adbc a0da 133d fa56 2fbc 3367 b1bb
00000070: 0dea e2bb 00b0 4db9 b38d fabc 8d4c c33c
00000080: baaa da3c e5f7 0ebd 5ae9 a1bc 7d49 1a3d
00000090: a0be 4e3c f0eb 2a3d 53ce 31bd a337 a43c
000000a0: cd08 c0bb 8a15 a53c f04c b03c 33f1 953c
000000b0: 93d9 9d3c 50c0 8fbc 0311 0abd f2af 14bd
000000c0: d30b ebbc db98 3bbd b32b 693c 303b 8abc
000000d0: 3acc 7dbc d34b f1bc ea50 86bc d365 1a3c
000000e0: 90be 953c daa2 283c 237d c2bc daa2 df3b
000000f0: 0a38 3b3d ba25 15bc 4545 02bd bd2a 0d3d
00000100: d381 253c 60df 07bc 0083 d2bb 957e 073d
00000110: 40c9 0e3d 1099 243d 6d22 a43c 675b c33b
00000120: 6d40 723c 87bb 6e3c a894 2bbd 13e9 52bc
00000130: dd80 b9bc d53c 11bd 0a13 e63c 4088 bd3c
00000140: ad58 1cbc cb98 293d 80a9 c7bc 0523 26bd
00000150: 3a47 d5bc c2f9 443d cba7 37bd ca1c b8bc
00000160: 05e7 3e3d 3a51 9ebc 10f2 bbbc 3705 ec3c
00000170: ba0c 1fbc 1558 31bd 4d8c 78bc 0231 1e3d
00000180: 15fb 36bd f725 3ebd b8c6 0ebd 872e 21bc
00000190: 07b1 fabc 4761 2fbd 6a21 433d 1f66 27bd
000001a0: cdd7 4fbc d37a c9bc 80fd a23c 92b0 44bd
000001b0: 0037 6c3b c8d2 493d 5a0e a8bc 1762 d9bc
000001c0: a520 2b3d 5df7 b8bc 8d3e 0ebd d0c4 ff3c
000001d0: 504b 21bd 82f9 233d 430e 48bd 2d0c 023d
000001e0: 0d19 5dbc c09b e6bb 37d6 94bc 0d6a a2bb
000001f0: 2765 58bc 032b bdbc e7ae 323c 0350 073d
00000200: 071e 0d3d 93a7 8fbc 9bf2 4bbd c05d 8fbb
00000210: 6b92 3c3d 2dc8 373c 4f83 453d c589 063d
00000220: 93c2 99bc e348 4abd 2701 233c c01e ce3b
00000230: 604e a7bc b000 c13c 2734 913b 0000 89b6
00000240: 3303 20ba 0a55 223d 27ab 20bc 9a44 ac3c
00000250: 9208 20bd 5ae9 c63b 3d63 d2bc 3da9 bb3c
00000260: bb47 013d da2b b2bb e8c5 3dbd 05fd 46bd
00000270: 75a2 123d c082 503c f305 e33c 0a78 e0bc
00000280: ab31 063d cd41 323c 979e ebbc d38a 2b3d
00000290: 9a21 86bc 2d90 303d faca 3d3c 07ac b13c
000002a0: 07a5 0cbc 5849 383d 6db6 553c 7712 0bbd
000002b0: b363 44bd 20da 05bc 3d2c a93c e707 413c
000002c0: 400b afbc f706 acbc 73bc 6fbc 9a8d b139
000002d0: d7bc e3bc ea83 a1bc b2c1 2b3d c3f6 d9bc
000002e0: 1a32 57bc 008a 36bc 0d3d ce3c d78d ddbc
000002f0: 3378 87ba 2705 3abd 55fa 143d d7a0 c6bc
00000300: b71f ffbc 8b6c 433d 7b17 363d 7322 893c
00000310: 808c 4e3c e77e a63b 0d20 f03c ed60 d9bc
00000320: 9b67 03bd 1a9e 3fbd 0d03 db3c 8746 523c
00000330: 50aa b4bc aa78 003d e3c3 ecbc 03f5 40bd
00000340: 8d76 b13b 2a94 45bd 670a 0bbb 87b3 21bc
00000350: b730 0cbd 13e1 01bc 80f8 aebb 0d1a ec3b
00000360: dd6b 0cbd 733c c9bc a0da df3c 6550 393d
00000370: 7a4f fdbc cd3c 14bd 2a5f 3d3d 43f4 23bd
00000380: fae6 6a3c 835f 803c d77b f73c 150a 1ebd
00000390: 80fb 313d 58fc 45bd 20c5 063d 2a58 ddbc
000003a0: 4d45 0c3d 2d6f 19bd 17dc adbc 4d48 1b3d
000003b0: 27cc 173c 2f43 24bd 6df0 1b3d d3a9 a83c
000003c0: 80bd 9dbc 9ad0 5b3b 13ec 2c3d c38f 9dbc
000003d0: cd80 60bb 3aaa 103d 60b8 f1bc c362 b63c
000003e0: 588a 16bd efc6 2f3d 5888 243d d581 3cbd
000003f0: adab 153c 33f1 7ebb dfbf 493d 1a16 ebbb

l3.weight f4 [2, 300]
0.046151925 0.034530938 -0.046182685 -0.008512526 -0.0008724735 -0.051870707 0.05319993 -0.057094496
0.03674769 -0.056670655 0.017615588 0.033095676 -0.057231933 -0.024128856 -0.057692073 0.013277914
0.042498536 -0.05704444 -0.03585973 -0.04597777 0.021050539 -0.0009194538 0.033080075 0.0039695874
0.052553516 0.029374076 -0.046984438 -0.040352784 -0.0046578976 -0.042210497 0.027421676 0.025250161
0.05168642 0.020051941 0.04542647 -0.040787976 0.0034286806 0.043619882 0.0075391126 0.041189805
-0.005836507 0.0014935274 0.057276946 -0.024186457 0.033672698 0.037573796 -0.026440436 0.020683601
0.051630203 0.03887505 -0.0029524837 0.025897162 -0.017974457 -0.05320542 0.05610038 -0.05421822
0.031019032 -0.05601236 -0.031948034 0.019044489 0.003473844 -0.0046390668 0.03992649 0.0054905624
0.029103508 0.028820697 0.010819089 -0.042642362 0.041289687 -0.009537715 -0.040189214 -0.008258435
0.027010987 0.053166814 0.05741856 0.038942695 0.026912613 0.0053274664 0.03618569 -0.03629305
-0.054064225 -0.009169403 0.031214414 0.012701239 0.028315973 0.046700932 -0.042732783 0.023998838
0.016010776 -0.05700957 -0.047705807 -0.027901754 0.0147813875 -0.035741977 -0.025309034 -0.031460103
-0.052182484 0.02070043 0.05191426 -0.057731934 -0.02425173 -0.008179162 -0.0020454116 0.04435783
-0.019145167 -0.005642068 -0.01660969 -0.010824828 0.05697246 0.000363791 -0.01613513 -0.03634149
-0.019138841 -0.019808946 0.05001718 -0.024688283 -0.0036139728 0.056603838 -0.027818592 -0.028647216
0.021119377 0.027522504 0.055777304 -0.045988604 0.028213967 0.041229513 0.031193038 -0.026599292
-0.00083965063 -0.032956555 -0.010302622 0.05459934 -0.051777013 0.004642914 -0.031443715 0.027848454
0.038957696 0.033771407 0.031062936 0.00082656 -0.057090048 -0.00090389926 0.043429166 -0.013856379
0.041177582 0.041043386 -0.03646014 0.005512511 -0.005542505 0.015797788 -0.03127507 -0.01868151
0.0071460432 -0.031991415 0.023976497 -0.04580963 -0.012529355 -0.041501697 -0.050219417 -0.041011453
0.056462325 0.013792275 0.0039661597 0.010416851 -0.043067627 0.034725934 -0.007527653 -0.0095819365
0.023334906 -0.018074593 -0.05298497 -0.04889034 0.0490253 -0.04928679 0.0075992728 0.054174062
0.03988806 0.006042123 0.03131726 -0.03590225 0.051171433 -0.05067193 -0.015857302 -0.029419942
-0.021735208 -0.018369881 -0.045622043 0.050848372 -0.05294011 -0.014473077 -0.024729641 0.026754845
0.056399252 0.013632909 0.02646745 0.004530529 0.016836565 -0.017940292 0.048303384 0.017975442
-0.04505568 0.02471092 -0.043663003 -0.006171274 0.0365948 -0.041617755 -0.034106262 -0.019517396
0.042206116 0.055520765 -0.02506606 0.049986314 -0.026436562 0.0050036013 0.006749794 -0.050453693
0.03803291 0.013025387 0.056721028 -0.015195565 0.055448607 -0.052896984 -0.03440332 -0.05307957
0.01348691 -0.027212575 -0.013098714 -0.048767507 -0.024727432 -0.008907212 -7.720158e-05 -0.045665488
-0.016956232 0.028787607 0.015493456 -0.019405387 0.011016942 -0.031106304 0.0147457495 0.025749765
-0.012525067 0.037625615 0.043273333 0.032256674 -0.002008067 -0.03746825 0.015229689 -0.04965909
-0.056829233 0.03317677 0.05539127 -0.011532741 0.02544016 -0.056963842 0.048518553 -0.05655625
00000000: cd09 3d3d 5070 0d3d 0e2a 3dbd 1f78 0bbc
00000010: b5b6 64ba 6176 54bd 2be8 593d ebdb 69bd
00000020: bf84 163d 7d1f 68bd 914e 903c 558f 073d
00000030: 086c 6abd e1a9 c5bc 864e 6cbd 9c8b 593c
00000040: f212 2e3d 6ea7 69bd a7e1 12bd 3053 3cbd
00000050: 2e72 ac3c 8007 71ba f97e 073d 5013 823b
00000060: 5b42 573d e7a1 f03c c172 40bd f648 25bd
00000070: 47a1 98bb eae4 2cbd 6ca3 e03c 6dd9 ce3c
00000080: 24b5 533d f843 a43c 1b11 3a3d 4b11 27bd
00000090: b7b3 603b c3aa 323d a90a f73b a4b6 283d
000000a0: 2b40 bfbb 77c2 c33a 3b9b 6a3d ad22 c6bc
000000b0: 62ec 093d fbe6 193d 9d99 d8bc a870 a93c
000000c0: 317a 533d 723b 1f3d 757e 41bb 4926 d43c
000000d0: 2b3f 93bc eded 59bd 83c9 653d ed13 5ebd
000000e0: a01b fe3c 376d 65bd f1db 02bd 3003 9c3c
000000f0: 6ea9 633b 5003 98bb f689 233d 2dea b33b
00000100: 7b6a ee3c 6219 ec3c 8c42 313c c2a9 2ebd
00000110: 601f 293d 1444 1cbc 729d 24bd 634e 07bc
00000120: 2546 dd3c 72c5 593d b92f 6b3d 6082 1f3d
00000130: d777 dc3c 0792 ae3b 7237 143d 05a8 14bd
00000140: 7372 5dbd 443b 16bc 5fb5 ff3c dc18 503c
00000150: e6f6 e73c 7a49 3f3d 9208 2fbd 3699 c43c
00000160: 0829 833c de82 69bd 2a67 43bd 3892 e4bc
00000170: a22d 723c 2e66 12bd e454 cfbc 4fdc 00bd
00000180: 4dbd 55bd f393 a93c 0ca4 543d 5278 6cbd
00000190: 90ab c6bc e401 06bc 500c 06bb 8eb0 353d
000001a0: 53d6 9cbc 19e1 b8bb 0b11 88bc 9f5a 31bc
000001b0: f45b 693d 34bb be39 d22d 84bc d0da 14bd
000001c0: 0fc9 9cbc 5f46 a2bc d1de 4c3d 153f cabc
000001d0: 67d8 6cbb 6dd9 673d d1e3 e3bc 91ad eabc
000001e0: 8b02 ad3c e076 e13c be76 643d 8c5e 3cbd
000001f0: fa20 e73c 47e0 283d 8b88 ff3c c2e6 d9bc
00000200: 001c 5cba 74fd 06bd 54cc 28bc 8fa3 5f3d
00000210: 2214 54bd 9623 983b 20cb 00bd 7122 e43c
00000220: 1b92 1f3d e353 0a3d b377 fe3c 81ad 583a
00000230: 41d7 69bd a7f3 6cba c8e2 313d de05 63bc
00000240: d3a9 283d 1c1d 283d 3a57 15bd 4ba2 b43b
00000250: e79d b5bb 5d6a 813c 4a1a 00bd f709 99bc
00000260: 5b29 ea3b 6e09 03bd 5c6a c43c e1a2 3bbd
00000270: ec47 4dbc affd 29bd e0b2 4dbd a0fb 27bd
00000280: 0a45 673d fff8 613c 8ff6 813b 71ab 2a3c
00000290: ae67 30bd c83c 0e3d 88aa f6bb 8efd 1cbc
000002a0: d828 bf3c 2b11 94bc c506 59bd 3d41 48bd
000002b0: c1ce 483d f2e0 49bd 5203 f93b 9fe5 5d3d
000002c0: aa61 233d 00fd c53b 8746 003d 3d0e 13bd
000002d0: 2399 513d 5f8d 4fbd 2ce7 81bc 1702 f1bc
000002e0: 090e b2bc 6f7c 96bc 2ede 3abd 6246 503d
000002f0: bbd7 58bd 7c20 6dbc d195 cabc fa2c db3c
00000300: e702 673d 915c 5f3c 44d2 d83c d574 943b
00000310: d6ec 893c 85f7 92bc c5d9 453d 3c41 933c
00000320: 4e8c 38bd 8e6e ca3c fad7 32bd 6638 cabb
00000330: 6ee4 153d 6177 2abd 02b3 0bbd f2e2 9fbc
00000340: 52e0 2c3d be69 633d 5657 cdbc 73be 4c3d
00000350: 7d91 d8bc 40f5 a33b 602d dd3b 88a8 4ebd
00000360: 66c8 1b3d 6f68 553c 4f54 683d d2f6 78bc
00000370: 141e 633d 82aa 58bd 7fea 0cbd f769 59bd
00000380: 33f8 5c3c e8ec debc fd9b 56bc 70c0 47bd
00000390: 2f91 cabc 8eef 11bc 48e7 a1b8 bc0b 3bbd
000003a0: cce7 8abc fdd3 eb3c 44d8 7d3c 0cf8 9ebc
000003b0: 6780 343c a6d2 febc 2898 713c 2cf1 d23c
000003c0: f035 4dbc 511d 1a3d 613f 313d 931f 043d
000003d0: c699 03bb 4f78 19bd f285 793c 5467 4bbd
000003e0: c5c5 68bd 5de4 073d f5e1 623d d2f3 3cbc
000003f0: e267 d03c eb52 69bd 64bb 463d 87a7 67bd

l3.bias f4 [2]
-0.054467335 0.028546566
00000000: 2419 5fbd 7dda e93c
