models/actor_140.pth (torch, 532909 bytes, 6 tensors)

l1.weight f4 [400, 28]
0.09829599 -0.17844212 0.18091887 -0.23084849 -0.06474135 0.16404018 -0.02061183 -0.02912316
0.20616454 -0.1360769 -0.0064843628 0.17901652 -0.020835478 0.029818308 -0.057849366 0.17130622
0.13999528 0.0083862655 0.13536456 -0.07962613 -0.181541 -0.1321867 -0.02483272 0.13363247
0.10284547 -0.07345201 -0.12419301 -0.07321702 0.17283167 0.045073096 -0.31949016 -0.13876355
0.08810475 0.08882992 0.11749348 0.046037856 -0.0017195133 0.0367892 -0.030863646 -0.09877641
0.06380501 -0.016825777 0.13450602 0.08623458 -0.15601417 0.10718575 -0.20924012 -0.13808353
-0.001141025 -0.19494565 0.09160582 0.015231848 0.034411408 0.060345467 0.075088985 0.23038213
-0.10851592 -0.181402 -0.1803953 0.07728665 -0.13902666 0.18667907 0.19443814 -0.056143235
-0.06850668 -0.10836663 0.1479162 -0.1794308 0.14122894 -0.04686739 0.09120138 0.110028744
-0.06344277 -0.13405868 -0.026275793 0.15591955 0.1749919 -0.15343729 0.035783254 -0.07622391
-0.34779972 0.11824581 -0.12881312 -0.09613969 0.08405657 -0.05745984 0.073169574 0.073568314
-0.017506352 -0.059982914 0.1183798 -0.119753964 0.07991144 0.1080341 -0.13954198 0.119178064
-0.20785722 -0.16414924 -0.2096871 0.084066026 0.19497138 -0.083061725 -0.11678694 0.09436502
0.045897715 0.10570561 0.08185631 -0.12926482 0.013072194 -0.04119779 0.05625582 0.03732454
0.06600062 -0.1397301 -0.12554604 0.22948597 0.12099022 0.01187237 -0.0394239 0.16053927
-0.16711329 -0.09983808 -0.0227835 -0.11550413 0.036282342 -0.034663394 -0.019748943 0.055482022
0.100820415 0.15302452 -0.015219204 0.17183596 0.1590846 -0.118430495 -0.13692921 0.109384485
-0.090162866 -0.1258085 -0.10735983 -0.0011901482 0.016501246 -0.047960192 -0.091238804 -0.065786935
0.089365296 -0.10733053 -0.07189022 -0.00029269743 0.11702572 -0.04050697 -0.12168259 0.1268278
0.17534265 -0.1329743 0.019325688 -0.112937376 -0.06448163 0.02831217 0.06999126 -0.10627837
0.10817931 0.013773831 0.10123657 0.15577303 0.05437774 0.0038113168 0.1812896 -0.18206958
-0.09759518 -0.27574894 0.075915 0.05011899 0.1666269 0.1429476 0.063999854 0.013745007
-0.18034664 0.06377163 0.107376866 -0.09678601 -0.18738417 0.11862305 0.12072926 -0.12609126
0.1738434 -0.07662191 -0.015641682 -0.0365207 -0.13055603 -0.11146657 -0.12688163 0.037574522
-0.12110174 -0.2382399 0.13978769 0.26572484 -0.043334253 -0.04929104 -0.1917056 0.1378619
-0.053349894 0.06104623 0.11047198 -0.021325678 -0.099057734 -0.10806638 -0.029792694 -0.011855482
0.14884752 0.11707014 -0.015117513 -0.20608358 -0.042437855 -0.153164 0.22505957 0.07218085
0.004538484 -0.16167161 0.0799484 0.057735756 -0.23626563 -0.18983707 0.15750867 -0.26850313
0.013505437 -0.12474255 -0.097690254 -0.08300998 0.050836314 0.12243609 0.044814426 -0.12406845
0.12156733 0.17002812 -0.1726785 0.19759391 0.048428025 -0.11780782 0.09770145 0.15652123
-0.049200226 -0.12210472 0.20693576 0.20932265 0.16724534 -0.1335809 0.11199719 -0.10540388
-0.20198382 0.10297611 -0.036850262 0.025453653 -0.026286773 0.0018062927 0.12407643 -0.15835576
00000000: 684f c93d 88b9 36be cc42 393e 8c63 6cbe
00000010: 1d97 84bd 26fa 273e 24da a8bc b193 eebc
00000020: cc1c 533e be57 0bbe c77a d4bb 1b50 373e
00000030: 2aaf aabc 8645 f43c 75f3 6cbd e66a 2f3e
00000040: ec5a 0f3e 8c66 093c 029d 0a3e 0613 a3bd
00000050: e2e5 39be f35b 07be fd6d cbbc f3d6 083e
00000060: a5a0 d23d 026e 96bd e858 febd cef2 95bd
00000070: c9fa 303e 919e 383d 3794 a3be 0818 0ebe
00000080: 4370 b43d 76ec b53d 6ca0 f03d 3192 3c3d
00000090: 4b61 e1ba 46b0 163d c2d5 fcbc 494b cabd
000000a0: 33ac 823d 36d6 89bc f2bb 093e c19b b03d
000000b0: 2ec2 1fbe 3484 db3d 0b43 56be c565 0dbe
000000c0: 728e 95ba d59f 47be d59b bb3d 008f 793c
000000d0: faf2 0c3d cf2c 773d 41c8 993d 4be9 6b3e
000000e0: 983d debd 72c1 39be 8cb9 38be 7748 9e3d
000000f0: 015d 0ebe cc28 3f3e cb1a 473e 73f6 65bd
00000100: 3b4d 8cbd 53ef ddbd 5877 173e b5bc 37be
00000110: 529e 103e 05f8 3fbd cac7 ba3d c056 e13d
00000120: 48ee 81bd ae46 09be 5540 d7bc 60a9 1f3e
00000130: 1431 333e aa1e 1dbe 7691 123d 481b 9cbd
00000140: ce12 b2be dc2a f23d 96e7 03be e3e4 c4bd
00000150: da25 ac3d 025b 6bbd eed9 953d fcaa 963d
00000160: 7b69 8fbc a5b0 75bd 1c71 f23d 9141 f5bd
00000170: 9ca8 a33d fb40 dd3d 18e4 0ebe a113 f43d
00000180: 86d8 54be bd16 28be 37b8 56be cf2a ac3d
00000190: 94a6 473e 441c aabd fe2d efbd 7342 c13d
000001a0: 3eff 3b3d 2f7c d83d 48a4 a73d ff5d 04be
000001b0: c12c 563c 04bf 28bd 816c 663d 9ee1 183d
000001c0: 552b 873d 6815 0fbe 248f 00be 5ffe 6a3e
000001d0: b8c9 f73d 5484 423c f57a 21bd 6864 243e
000001e0: bf1f 2bbe e877 ccbd 76a4 babc 6e8d ecbd
000001f0: cb9c 143d 34fb 0dbd 89c8 a1bc 1e41 633d
00000200: ef7a ce3d 76b2 1c3e f859 79bc c4f5 2f3e
00000210: 13e7 223e b08b f2bd 2c37 0cbe f904 e03d
00000220: 4fa7 b8bd f2d3 00be 78df dbbd bffe 9bba
00000230: 9f2d 873c e871 44bd 69db babd 4dbb 86bd
00000240: 2705 b73d 1cd0 dbbd 2e3b 93bd 2f75 99b9
00000250: 2eab ef3d a3ea 25bd b934 f9bd 26df 013e
00000260: 068d 333e 6a2a 08be e850 9e3c b64b e7bd
00000270: f20e 84bd edee e73c 9457 8f3d 79a8 d9bd
00000280: 1d8d dd3d a2ab 613c 1e55 cf3d f782 1f3e
00000290: 31bb 5e3d 49c7 793b fba3 393e 7370 3abe
000002a0: fbdf c7bd f72e 8dbe 5379 9b3d 9249 4d3d
000002b0: 3ea0 2a3e db60 123e 5b12 833d bd32 613c
000002c0: caac 38be b39a 823d 67e8 db3d be37 c6bd
000002d0: a3e1 3fbe a4f0 f23d e740 f73d 111e 01be
000002e0: 0104 323e f3eb 9cbd fc22 80bc bb96 15bd
000002f0: 7bb0 05be 9648 e4bd 42ed 01be bee7 193d
00000300: 3004 f8bd 29f5 73be 8124 0f3e 160d 883e
00000310: 427f 31bd 67e5 49bd 794e 44be ab2b 0d3e
00000320: 6b85 5abd 9d0b 7a3d 223f e23d 30b3 aebc
00000330: c8de cabd e851 ddbd cf0f f4bc 7f3d 42bc
00000340: 7c6b 183e 78c2 ef3d 72af 77bc 9307 53be
00000350: 51d3 2dbd 06d7 1cbe 0476 663e 8ed3 933d
00000360: 90b7 943b 3e8d 25be fdbb a33d 547c 6c3d
00000370: 9eef 71be a664 42be f449 213e 3e79 89be
00000380: e945 5d3c 0679 ffbd d411 c8bd 2301 aabd
00000390: bd39 503d c6bf fa3d 558f 373d 9917 febd
000003a0: 4bf8 f83d da1b 2e3e a2d2 30be 0f56 4a3e
000003b0: 775c 463d 3a45 f1bd b317 c83d 1a47 203e
000003c0: 2d86 49bd 0a12 fabd f8e6 533e ad58 563e
000003d0: 5d42 2b3e 6ec9 08be c85e e53d fddd d7bd
000003e0: d9d4 4ebe 24e5 d23d 4df0 16bd 2e84 d03c
000003f0: 5c57 d7bc 20c1 ec3a c91b fe3d 0328 22be

l1.bias f4 [400]
-0.1181884 -0.03592278 -0.13914707 0.11647142 -0.10801479 -0.17275964 -0.17826433 0.0153379915
-0.14181432 -0.06919719 -0.17512368 0.011623938 -0.124647714 -0.11746998 -0.06819204 0.14107057
-0.11586265 -0.17197053 -0.11378073 0.05297976 0.07810897 -0.08194185 -0.047473967 -0.18685484
-0.05719664 0.038362768 -0.16579075 0.14788508 0.04929204 0.116683036 0.11254908 -0.0118242055
0.08680254 0.093183935 -0.06854845 -0.1116547 -0.074186295 0.003464392 -0.06743084 0.08939984
-0.03287626 -0.116599694 -0.15228426 -0.057939246 0.062292606 -0.016750734 -0.17949365 0.100483224
0.041229364 0.09877611 -0.16036455 0.079674 0.11231781 -0.16697921 0.12667423 -0.119145624
0.09629179 -0.1525501 -0.13079168 -0.08924901 0.05141807 0.050466727 -0.111286856 -0.07246033
0.18565305 0.10869062 -0.032076575 -0.08806259 -0.20092309 -0.04847741 0.11941114 0.1065023
0.008162519 -0.14613152 -0.06429496 -0.013784498 -0.14571041 -0.021148587 -0.09350251 0.10601329
0.060906507 -0.16283374 -0.15307832 -0.016895425 0.09206492 0.18555301 0.0024159532 0.038455114
-0.14323886 0.1342643 0.024488186 -0.051257852 0.07337659 0.16256142 0.045546122 -0.1023527
0.073069535 0.14604698 0.10738748 -0.19212177 0.1052959 0.07040759 0.13725391 0.13744064
0.09886107 -0.12237481 -0.13975294 -0.12449359 0.010512297 -0.0755158 0.17552555 0.02931277
-0.12764254 0.08737904 0.09201949 0.13127305 0.010994408 0.04264673 -0.00018468502 -0.036001008
-0.14281164 -0.031746842 0.15081657 0.028852237 -0.016719928 -0.13976304 0.05075977 0.012215027
0.16668779 0.15622489 -0.14930339 -0.15605542 0.2013137 0.0003538971 0.10473705 0.053899333
-0.06190287 -0.12662356 -0.02297702 -0.0046847016 0.072190925 -0.050689936 0.086027324 -0.1517457
0.020983122 -0.18382904 0.04140728 -0.07890718 -0.12841207 0.20844108 -0.19645149 0.03734421
0.20488957 -0.061194208 -0.035459768 -0.058485262 -0.028449217 -0.034462404 -0.18611115 0.027315963
0.085506685 0.062480748 0.17153803 -0.15734568 -0.17260787 -0.027437085 -0.13654417 -0.04617845
-0.13409878 -0.113871 0.097283885 0.07092051 0.13315225 0.09460962 0.009151589 -0.073935434
0.12550505 -0.03228546 -0.17518432 -0.15896563 -0.09233985 -0.041846182 0.20097436 -0.09271943
0.089460716 0.18526135 0.047361117 0.15289131 -0.070923425 0.024421833 -0.15907313 0.13548829
-0.044175353 0.1963136 0.0674746 0.13452965 -0.1317564 -0.08381338 -0.03147572 -0.05546519
0.145935 0.03826245 -0.06923125 0.060181018 0.19309974 0.07157163 -0.12674522 -0.19912319
0.1571801 -0.08776018 0.19952251 -0.09948297 0.07604968 -0.20055893 -0.05898101 -0.062439032
-0.10695528 0.12776573 -0.016077977 0.09120818 -0.022305466 -0.07630849 -0.11742737 -0.19121732
-0.04387035 0.1900113 -0.03575664 -0.11229698 0.119797654 -0.21966383 0.04188812 -0.2097294
0.08906912 -0.08762617 -0.19474517 -0.15796939 0.12103809 -0.04694582 0.11851149 -0.20350431
-0.15121467 -0.14375094 -0.17853314 -0.15294293 -0.08819411 -0.16315345 -0.1268995 0.07785791
0.029658206 -0.07706744 -0.17015436 -0.13283324 -0.007341265 0.09591806 0.08684651 0.054020096
00000000: c30c f2bd c423 13bd 927c 0ebe 9188 ee3d
00000010: dc36 ddbd e7e7 30be ed8a 36be 334c 7b3c
00000020: c637 11be 42b7 8dbd 9f53 33be 5472 3e3c
00000030: 4d47 ffbd 1a94 f0bd 45a8 8bbd ce74 103e
00000040: 6649 edbd 0b19 30be df05 e9bd 4e01 593d
00000050: 98f7 9f3d 21d1 a7bd 1074 42bd e056 3fbe
00000060: 0647 6abd 4722 1d3d 0dc5 29be 306f 173e
00000070: 73e6 493d 84f7 ee3d 2280 e63d 50ba 41bc
00000080: 88c5 b13d 38d7 be3d 2163 8cbd 38ab e4bd
00000090: fcee 97bd da0a 633b 2e19 8abd 4317 b73d
000000a0: 42a9 06bd d2cb eebd 68f0 1bbe b451 6dbd
000000b0: 8826 7f3d d638 89bc 2fcd 37be 26ca cd3d
000000c0: 1fe0 283d 214b ca3d 9b36 24be 1f2c a33d
000000d0: e106 e63d 99fc 2abe e4b6 013e 9f02 f4bd
000000e0: a134 c53d 1836 1cbe 41ee 05be 2fc8 b6bd
000000f0: c19b 523d 33b6 4e3d 5dea e3bd 1566 94bd
00000100: d51b 3e3e 3099 de3d ba62 03bd 295a b4bd
00000110: c8be 4dbe 4090 46bd d48d f43d e11d da3d
00000120: 16bc 053c 80a3 15be 13ad 83bd 60d8 61bc
00000130: 1c35 15be cd3f adbc 3e7e bfbd 7f1d d93d
00000140: 1a79 793d e3bd 26be 90c0 1cbe 4668 8abc
00000150: 888c bc3d 9c01 3e3e f854 1e3b 1c83 1d3d
00000160: 35ad 12be 957c 093e 739b c83c c1f3 51bd
00000170: 7746 963d 8076 263e 928e 3a3d 4b9e d1bd
00000180: 7ba5 953d 578d 153e f8ed db3d 92bb 44be
00000190: 60a5 d73d db31 903d 4a8c 0c3e 3dbd 0c3e
000001a0: ac77 ca3d a59f fabd 651b 0fbe 7ff6 febd
000001b0: c53b 2c3c 07a8 9abd f8bc 333e 5621 f03c
000001c0: bab4 02be c8f3 b23d b774 bc3d 716c 063e
000001d0: e421 343c 56ae 2e3d 02a8 41b9 cb75 13bd
000001e0: 373d 12be fa08 02bd a96f 1a3e 875b ec3c
000001f0: 3bf8 88bc 0b1e 0fbe 7ae9 4f3d 8921 483c
00000200: 34b0 2a3e 6bf9 1f3e fde2 18be fecc 1fbe
00000210: 2e25 4e3e 448b b939 6180 d63d 8cc5 5c3d
00000220: dd8d 7dbd 9ba9 01be 4e3a bcbc 2082 99bb
00000230: d6d8 933d 40a0 4fbd 182f b03d 3a63 1bbe
00000240: cce4 ab3c ae3d 3cbe ae9a 293d 169a a1bd
00000250: 747e 03be 9471 553e 942a 49be 3ef6 183d
00000260: 92ce 513e c7a6 7abd 433e 11bd 3e8e 6fbd
00000270: 550e e9bc 7328 0dbd ec93 3ebe bac5 df3c
00000280: 211e af3d d0eb 7f3d aaa7 2f3e 3a1f 21be
00000290: 1ec0 30be bdc3 e0bc 3cd2 0bbe 9d25 3dbd
000002a0: 3151 09be 3335 e9bd c63c c73d c63e 913d
000002b0: 1059 083e b0c2 c13d 8cf0 153c 766b 97bd
000002c0: 6584 003e c23d 04bd 8563 33be e3c7 22be
000002d0: ad1c bdbd e766 2bbd 39cc 4d3e afe3 bdbd
000002e0: 2e37 b73d 27b5 3d3e bbfd 413d 8a8f 1c3e
000002f0: 4d40 91bd 4c10 c83c 11e4 22be 71bd 0a3e
00000300: 37f1 34bd 6f06 493e 2030 8a3d 24c2 093e
00000310: 26eb 06be 59a6 abbd afec 00bd 782f 63bd
00000320: fc6f 153e 16b9 1c3d 1dc9 8dbd 5f80 763d
00000330: f0bb 453e 2694 923d 80c9 01be f3e6 4bbe
00000340: d2f3 203e 9cbb b3bd a14f 4c3e babd cbbd
00000350: efbf 9b3d 525f 4dbe 1296 71bd 12c0 7fbd
00000360: 5f0b dbbd 05d5 023e f6b5 83bc 5bcb ba3d
00000370: f4b9 b6bc a047 9cbd c37d f0bd 79ce 43be
00000380: 65b1 33bd 5292 423e 8e75 12bd f6fb e5bd
00000390: 7958 f53d 8eef 60be e192 2b3d 4ec3 56be
000003a0: df69 b63d 5975 b3bd 476b 47be bac2 21be
000003b0: d1e2 f73d 434a 40bd 27b6 f23d 6f63 50be
000003c0: 05d8 1abe 7233 13be 64d1 36be 129d 1cbe
000003d0: 1d9f b4bd b311 27be f1f1 01be f873 9f3d
000003e0: c4f5 f23c 89d5 9dbd f23c 2ebe 7005 08be
000003f0: ff8e f0bb b070 c43d 95dc b13d 2d44 5d3d

l2.weight f4 [300, 400]
-0.01981667 -0.027780024 0.16371775 -0.16037497 0.0074856705 0.19797975 -0.040906653 0.08203086
0.084022656 -0.037811663 0.21679892 0.16831513 0.032176588 -0.023655193 0.05212932 0.12390815
0.04346198 -0.050177243 0.01490289 0.100768335 -0.04574054 -0.08092223 0.1165342 0.0959161
0.0042183176 -0.08831763 0.050654635 -0.11693544 0.0009048678 -0.01784754 0.022828637 -0.05929428
-0.01987226 0.088477746 0.19026046 0.053095743 0.055310547 -0.075390056 -0.19587328 -0.26876456
0.0256983 -0.0014986516 -0.042766664 -0.0034949721 -0.10042245 -0.02203179 0.16459069 -0.290689
0.0076954844 0.016397985 -0.056553524 0.008205148 0.11326472 0.033761404 -0.035330493 0.012539494
0.0170679 0.0061189174 -0.049558714 0.051531482 0.07308513 -0.075108625 0.16766855 0.103666686
-0.01780533 -0.018993242 0.005595651 0.15839466 0.052147016 0.20826645 0.03971794 -0.14004427
0.09420585 -0.035584457 -0.31221756 -0.088985205 0.01599551 0.23013513 -0.1634589 0.08283022
0.55453044 -0.012674326 -0.08133631 -0.118414775 0.14619622 -0.0485063 0.031231647 -0.040465668
-0.012293577 0.16974062 -0.022426434 0.033618838 -0.047632717 -0.053676736 -0.0069857654 -0.019199522
-0.23625712 0.23364152 -0.13664064 0.18912962 -0.017891144 -0.05354115 -0.009630983 -0.13249731
-0.3026548 -0.032975886 0.11837414 -0.03594114 -0.044814426 0.070979334 -0.036837656 0.0028515107
0.0028098763 -0.046472613 -0.04678826 -0.031331155 0.07822209 0.09079131 -0.07167982 0.022573328
0.25407514 0.042638823 0.05875864 -0.07738545 0.07885106 0.2157161 0.0064156572 0.05627011
0.113854855 -0.037917387 -0.06950935 0.08222165 -0.021242362 0.22662461 -0.061260022 -0.07639829
-0.11172617 -0.047798354 0.019844724 -0.1982104 -0.057373635 0.015904104 -0.08262735 -0.20195952
-0.26802045 -0.13920435 0.10898203 -0.004267081 0.03009212 -0.22461352 -0.04529847 -0.15953116
0.45576885 0.06318259 -0.060242068 0.36121374 -0.032659173 0.010789016 -0.018057976 -0.026759984
0.026694734 -0.04038826 0.1358769 0.049651213 -0.045599546 -0.06238259 0.009801507 -0.0305366
0.16933146 0.010394634 0.09037902 -0.030014057 -0.03794711 0.16506395 0.003836071 0.3653854
0.025603166 0.039819658 -0.09928651 -0.029046029 -0.21047787 0.047931828 -0.042294662 0.14645883
-0.010350453 -0.05517002 0.06886296 0.10562975 -0.054423347 0.026236817 -0.2579697 -0.07161336
-0.16558877 0.05944197 -0.075519234 0.20841463 -0.30415627 -0.0081657935 0.04127342 -0.13490261
0.15857524 -0.077264644 0.036045086 -0.03734862 -0.08499217 0.44949773 -0.045477923 -0.0060690637
-0.074076384 -0.039929736 0.08664442 -0.17724635 0.053484604 -0.08378698 -0.12082892 -0.031717893
-0.11137242 0.025006391 -0.013147107 0.026360787 0.037931044 -0.18329473 -0.004235646 -0.0028966074
0.062401477 -0.055506274 0.0032069683 -0.019222409 0.04069692 0.08096274 -0.1921961 -0.011313632
-0.20078956 0.04944384 0.17867145 -0.022459758 0.0035876734 0.0470307 -0.12769099 0.060375933
0.08951095 -0.049831606 0.04110489 0.029647514 -0.021748029 -0.19652714 0.15144056 -0.022574252
-0.042216454 0.015936248 0.029603297 -0.46931088 -0.12498489 0.16550286 0.13004212 0.091311105
00000000: 9256 a2bc ef92 e3bc a0a5 273e 5639 24be
00000010: 5b4a f53b 34bb 4a3e bc8d 27bd ccff a73d
00000020: 1214 ac3d 67e0 1abd 8900 5e3e cd5a 2c3e
00000030: 99cb 033d 89c8 c1bc 8e85 553d 8ec3 fd3d
00000040: 3005 323d a786 4dbd 402b 743c a15f ce3d
00000050: 6f5a 3bbd 8eba a5bd 7ca9 ee3d a96f c43d
00000060: d039 8a3b e0df b4bd 3c7b 4f3d d97b efbd
00000070: a634 6d3a 0135 92bc 1f03 bb3c 8fde 72bd
00000080: 26cb a2bc d233 b53d a3d3 423e ec7a 593d
00000090: 508d 623d 1a66 9abd 0193 48be 829b 89be
000000a0: 3e85 d23c 676e c4ba 192c 2fbd e70b 65bb
000000b0: 49aa cdbd 037c b4bc 768a 283e 30d5 94be
000000c0: 672a fc3b 1155 863c aba4 67bd e36e 063c
000000d0: 55f7 e73d 6649 0a3d b5b6 10bd 7372 4d3c
000000e0: fbd1 8b3c 3381 c83b 14fe 4abd ad12 533d
000000f0: a8ad 953d 8dd2 99bd 4eb1 2b3e 334f d43d
00000100: 7cdc 91bc b797 9bbc b95b b73b 3632 223e
00000110: 1c98 553d cd43 553e 47af 223d c467 0fbe
00000120: ffee c03d 02c1 11bd fbda 9fbe e03d b6bd
00000130: 0409 833c 8ba8 6b3e c561 27be e4a2 a93d
00000140: b5f5 0d3f faa7 4fbc a793 a6bd 7283 f2bd
00000150: 76b4 153e 8bae 46bd 83d9 ff3c 54bf 25bd
00000160: 006b 49bc 7cd0 2d3e a4b7 b7bc e8b3 093d
00000170: 861a 43bd 23dc 5bbd d9e8 e4bb 5148 9dbc
00000180: 63ed 71be b93f 6f3e 86eb 0bbe 32ab 413e
00000190: 7390 92bc f74d 5bbd 45cb 1dbc 60ad 07be
000001a0: 92f5 9abe b911 07bd 246e f23d 0437 13bd
000001b0: 558f 37bd 9d5d 913d 15e3 16bd 69e0 3a3b
000001c0: e725 383b 115a 3ebd 0ca5 3fbd 1955 00bd
000001d0: e732 a03d cbf0 b93d dfcc 92bd b3eb b83c
000001e0: 2316 823e 0ca6 2e3d e6ac 703d 437c 9ebd
000001f0: aa7c a13d aee4 5c3e 6f3a d23b 7d7b 663d
00000200: bc2c e93d 434f 1bbd eb5a 8ebd d363 a83d
00000210: 7604 aebc 4810 683e caeb 7abd b576 9cbd
00000220: b1d0 e4bd 35c8 43bd 6791 a23c abf7 4abe
00000230: 9e00 6bbd 5349 823c 8738 a9bd 7ace 4ebe
00000240: fa39 89be 968b 0ebe f831 df3d dfd2 8bbb
00000250: c083 f63c 1601 66be e38a 39bd 235c 23be
00000260: 895a e93e e065 813d 63c0 76bd 02f1 b83e
00000270: a0c5 05bd 6ac4 303c 52ee 93bc c137 dbbc
00000280: eaae da3c 296e 25bd 5023 0b3e 125f 4b3d
00000290: 97c6 3abd e384 7fbd 8096 203c e427 fabc
000002a0: 3a65 2d3e 414e 2a3c a318 b93d 0ae0 f5bc
000002b0: 6e6e 1bbd 8606 293e 9766 7b3b cc13 bb3e
000002c0: bbbd d13c f019 233d ba56 cbbd f0f1 edbc
000002d0: 8387 57be 2a54 443d 2b3d 2dbd 4ef9 153e
000002e0: f294 29bc f5f9 61bd 0608 8d3d 6954 d83d
000002f0: 04eb 5ebd 98ee d63c 9b14 84be 06aa 92bd
00000300: 1a90 29be 6c79 733d d4a9 9abd a56a 553e
00000310: 5fba 9bbe d2c9 05bc 510e 293d e923 0abe
00000320: 8c61 223e ed3c 9ebd 03a4 133d defa 18bd
00000330: 6010 aebd 9124 e63e 0f47 3abd ffde c6bb
00000340: 5cb5 97bd 5d8d 23bd a172 b13d 1180 35be
00000350: ac12 5b3d 8298 abbd 2775 f7bd 9fea 01bd
00000360: 3917 e4bd 34da cc3c f766 57bc 94f2 d73c
00000370: 955d 1b3d 9db1 3bbe 2dcb 8abb 02d5 3dbb
00000380: b198 7f3d 8c5a 63bd 002c 523b 5078 9dbc
00000390: d0b1 263d cbcf a53d 0ecf 44be d05c 39bc
000003a0: c79b 4dbe a085 4a3d a6f5 363e 87fd b7bc
000003b0: 2c1f 6b3b 43a3 403d 6dc1 02be c14c 773d
000003c0: 8451 b73d 3a1c 4cbd 9a5d 283d 58df f23c
000003d0: ec28 b2bc 693e 49be 3c13 1b3e a3ed b8bc
000003e0: 29eb 2cbd bc8c 823c 9d82 f23c 8449 f0be
000003f0: 14f8 ffbd 9579 293e c329 053e 5101 bb3d

l2.bias f4 [300]
0.018846283 -0.024309177 -0.01743408 -0.05285502 -0.010106727 -0.024175199 0.043889437 -0.04121573
0.0069651 -0.062386323 0.0017885208 0.009623784 0.039068878 -0.03218763 -0.035615705 -0.004917386
0.010922192 -0.017825784 0.01836441 -0.026750838 -0.017687902 -0.0059597525 -0.021773297 -0.011412252
-0.033244506 0.03779415 -0.02136541 0.0092745945 -0.00024909392 0.012892008 0.004460144 0.051597375
0.06514684 0.010188637 -0.030708028 0.017259698 0.0044205897 0.056794416 -0.05241736 -0.0005599188
0.0066739023 0.072567634 0.01159626 0.024689224 -0.00797141 -0.03214849 -0.04951391 -0.054126006
-0.032701053 -0.058277905 0.021143753 0.02649682 -0.009368262 -0.05049195 -0.031769317 -0.009174366
0.0054775947 -0.0001030145 -0.041008085 -0.0019190405 0.025432639 -0.029868383 -0.04994016 0.005964138
0.0071539935 0.039058704 -0.0151468655 0.02622016 0.027536731 0.007802702 0.049745753 0.008142348
0.0054586995 0.0015242571 -0.047208004 -0.0030234093 -0.049805623 -0.05304304 0.019691927 0.04701295
-0.022892771 0.02314469 0.008862724 -0.028145391 -0.021947332 0.024234416 -0.056973483 -0.034103174
0.044737376 -0.0015610651 -0.0019281859 0.012726535 -0.030319596 -0.017707495 -0.00501568 0.020967111
-0.05544556 -0.05081867 -0.048291206 0.0109127965 -7.1492366e-05 -0.060757205 0.07523098 -0.0449011
-0.028885094 -0.032903846 0.0063550384 -0.025990989 -0.0014798029 0.085773945 -0.036599953 -0.04075366
0.024608174 -0.004547886 -0.051281422 0.042165697 -0.046520658 0.037445497 -0.04402896 0.0067180493
-0.02284555 0.015826693 -0.023694625 -0.0154877845 -0.028303148 0.016342873 0.006326076 0.015659014
0.012588481 -0.0027410088 -0.029499438 -0.020487249 0.061491355 -0.010776515 0.04703047 0.011763273
-0.0015210607 -0.04978814 0.00056316506 -0.0022375814 -0.017729867 0.007891454 -0.012716992 0.012528855
0.023550903 0.030859387 0.004186683 0.048435323 -0.010283154 0.0039573507 -0.002283807 0.0038079075
0.067869194 -0.020348025 -0.09110137 -0.061662134 0.053349357 0.00054116733 0.013763005 -0.042381518
0.02834533 -0.0066064633 -0.057103995 0.018853797 0.0075484593 0.036075227 0.0034722956 0.036230743
0.039809704 0.0043875147 0.029296612 -0.045725938 -0.056507945 -0.028534668 0.0070991544 0.0004893528
-0.035626914 -0.035080902 -0.025156608 -0.006733268 -0.043531258 -0.026075238 0.05021197 -0.044597536
-0.028020948 -0.023471808 -0.0023011458 -0.0315146 0.017902724 -0.07675203 0.009685998 -0.028915126
-0.037183836 0.035687093 0.0631404 0.009892261 0.0013408187 -0.008240998 0.04814808 -0.031529024
-0.050755244 -0.06480216 0.029699218 0.007653676 -0.038520552 0.04611863 -0.039833147 -0.044642296
-0.008449683 -0.010201249 -0.019646294 -0.021851148 0.0077374303 -0.022860536 0.027727999 0.0032260285
0.0011618709 -0.00069152354 -0.019964505 0.030832823 -0.03578839 -0.04768181 0.036765788 -0.050666377
-0.007349878 -0.0069898986 0.034189828 -0.050313484 0.032837827 -0.03149694 0.04235719 -0.047810625
0.044927143 -0.051577624 0.0036530707 0.030342752 -0.0057709003 -0.04346335 0.030658824 -0.0045187427
0.007147201 -0.010136101 0.031348635 -0.023851816 -0.018496942 0.01376436 -0.032449137 0.04702126
-0.053337064 0.051445182 0.027684331 -0.058601618 -0.0018892785 0.014353435 0.009344313 0.025339745
00000000: 8563 9a3c 0a24 c7bc ead1 8ebc 817e 58bd
00000010: af96 25bc 110b c6bc 69c5 333d d3d1 28bd
00000020: 7e3b e43b cd88 7fbd cd6c ea3a 13ad 1d3c
00000030: b006 203d 2dd7 03bd c6e1 11bd 0622 a1bb
00000040: fef2 323c 6107 92bc f670 963c 9324 dbbc
00000050: 38e6 90bc 074a c3bb ea5d b2bc 74fa 3abc
00000060: 642b 08bd 0ace 1a3d 8306 afbc 78f4 173c
00000070: d298 82b9 0039 533c 6626 923b c557 533d
00000080: b56b 853d 3eee 263c 678f fbbc 3664 8d3c
00000090: 98da 903b 43a1 683d 96b3 56bd 84c7 12ba
000000a0: c0b0 da3b 579e 943d 3dfe 3d3c 0e41 ca3c
000000b0: 849a 02bc 23ae 03bd 19cf 4abd 3bb3 5dbd
000000c0: 8af1 05bd d0b4 6ebd aa35 ad3c dc0f d93c
000000d0: 577d 19bc a6d0 4ebd 8b20 02bd 1450 16bc
000000e0: 657d b33b 7d09 d8b8 18f8 27bd 5088 fbba
000000f0: 1c58 d03c 8aae f4bc 0e8e 4cbd d16e c33b
00000100: 0c6c ea3b 05fc 1f3d 8f2a 78bc a9cb d63c
00000110: b694 e13c cfad ff3b 34c2 4b3d 7c67 053c
00000120: e4de b23b 95c9 c73a 2e5d 41bd 6424 46bb
00000130: fb00 4cbd a943 59bd f750 a13c a790 403d
00000140: 9f89 bbbc ef99 bd3c f534 113c 2a91 e6bc
00000150: e4ca b3bc 4187 c63c 075d 69bd c5af 0bbd
00000160: 8a3e 373d a79c ccba 2fbb fcba f582 503c
00000170: cd60 f8bc 4f0f 91bc 935a a4bb 38c3 ab3c
00000180: e21a 63bd 3d27 50bd 00cd 45bd 96cb 323c
00000190: 2cee 95b8 8cdc 78bd b312 9a3d 37ea 37bd
000001a0: 6fa0 ecbc 2fc6 06bd ed3d d03b 0eeb d4bc
000001b0: f2f5 c1ba 40aa af3d d5e9 15bd 4fed 26bd
000001c0: 1597 c93c 6f06 95bb 780c 52bd f0b5 2c3d
000001d0: 728c 3ebd 7360 193d b657 34bd 1523 dc3b
000001e0: 9726 bbbc fba6 813c 3b1b c2bc 7ac0 7dbc
000001f0: 01dc e7bc 7de1 853c f94a cf3b 5547 803c
00000200: eb3f 4e3c 7fa2 33bb cea8 f1bc e0d4 a7bc
00000210: 5cde 7b3d fb8f 30bc 06a3 403d beba 403c
00000220: 545e c7ba a6ee 4bbd 5ea1 133a 63a4 12bb
00000230: 3a3e 91bc 284b 013c ee5a 50bc d445 4d3c
00000240: d3ed c03c d3cc fc3c 7130 893b 1e64 463d
00000250: ad7a 28bc aaac 813b ecab 15bb 168e 793b
00000260: 01ff 8a3d e7b0 a6bc 5b93 babd 6f91 7cbd
00000270: db84 5a3d 20dd 0d3a 3a7e 613c 3e98 2dbd
00000280: 7734 e83c 087b d8bb e1e5 69bd 4773 9a3c
00000290: 1159 f73b 9ec3 133d 748f 633b b066 143d
000002a0: 800f 233d 24c5 8f3b 73ff ef3c 1f4b 3bbd
000002b0: e074 67bd 89c1 e9bc 06a0 e83b e947 003a
000002c0: 87ed 11bd feb0 0fbd 3b15 cebc bfa2 dcbb
000002d0: d54d 32bd bd9b d5bc 11ab 4d3d e8ab 36bd
000002e0: 308c e5bc f347 c0bc d2ce 16bb 7415 01bd
000002f0: bca8 923c 2b30 9dbd 05b2 1e3c 6adf ecbc
00000300: 144e 18bd a12c 123d c14f 813d 2613 223c
00000310: 69be af3a 4005 07bc ec36 453d 9424 01bd
00000320: bbe4 4fbd ffb6 84bd c64b f33c b0cb fa3b
00000330: bac7 1dbd e3e6 3c3d 1528 23bd d7da 36bd
00000340: 8a70 0abc 2423 27bc 44f1 a0bc 2e01 b3bc
00000350: 458a fd3b 0546 bbbc d425 e33c c76b 533b
00000360: eb49 983a 5c47 35ba 9a8c a3bc 1e95 fc3c
00000370: d996 12bd 004e 43bd b997 163d 8c87 4fbd
00000380: 3fd7 f0bb 850b e5bb a20a 0c3d 8315 4ebd
00000390: f580 063d ef02 01bd bc7e 2d3d 13d5 43bd
000003a0: 8605 383d 0f43 53bd 5b68 6f3b 5d91 f83c
000003b0: d219 bdbb a006 32bd 3728 fb3c f611 94bb
000003c0: 1133 ea3b e411 26bc 6d67 003d e264 c3bc
000003d0: e686 97bc e983 613c 63e9 04bd 5d99 403d
000003e0: f777 5abd 2fb8 523d 40ca e23c 4008 70bd
000003f0: aba1 f7ba ab2a 6b3c e418 193c 4c95 cf3c

l3.weight f4 [2, 300]
0.6609634 0.025097717 -0.41225463 0.012198711 0.0049164826 -0.04581224 0.10381991 -0.049582377
0.030079916 -0.042537455 0.014501271 0.039057985 -0.31403828 -0.09956067 -0.052247945 0.005773521
0.035154857 -0.054014474 -0.031400103 -0.03449511 0.027391383 -0.2005444 0.03006814 0.05605222
0.035798997 0.07451385 -0.102482855 -0.09170236 0.023842188 -0.3128366 0.29738173 0.0934708
0.29640013 0.23141612 0.03809294 -0.121328786 0.0007726505 0.21664573 0.002216043 0.28650454
-0.09399045 0.09629388 0.04818018 -0.1254851 0.07094273 0.2467743 -0.021995379 -0.0027518526
0.04443701 0.10928047 -0.15085892 0.24701375 -0.16497158 -0.033139404 0.047204364 -0.03839369
0.023543153 -0.04979165 -0.39897272 0.02082678 0.0030981668 0.01048968 0.02497576 0.1120124
0.02565506 0.17474365 0.014905257 -0.018858247 0.034845885 -0.024404533 -0.19876428 0.32577342
0.026192669 0.047088012 0.041877113 0.04740256 0.59313774 0.0010889469 0.032631725 -0.23131183
-0.034264725 -0.0044248495 -0.010166451 0.49531072 -0.008445905 0.04571605 -0.03464532 0.03357591
0.07808911 -0.25952354 -0.21517274 0.046896044 0.020560142 -0.20118171 -0.15613885 -0.019842112
-0.06558798 0.08297042 0.045051698 -0.22758977 -0.15907523 -0.0059890267 -0.030396322 0.036744747
-0.001989218 0.040438633 -0.029706623 -0.09504038 0.048606507 -0.023431122 0.011954909 -0.028859
-0.026922785 -0.3179494 0.59256196 -0.16031659 -0.0022512078 0.05606073 -0.16425431 -0.014480956
0.004387519 0.41793087 0.010656546 -0.047255304 0.013272676 0.33270139 0.02304264 -0.021464996
-0.008919393 -0.2874138 0.06451966 0.0594232 -0.08394403 0.021177225 0.04848134 0.15517487
0.49313337 0.04196224 0.026658101 -0.053991288 -0.387932 -0.0033416522 0.032417048 -0.0692212
0.04411305 0.18022019 -0.2842838 -0.25754446 -0.1430227 0.0077300644 -0.088463195 -0.010756419
0.13325511 -0.024136536 0.14659794 -0.03740786 0.18687221 -0.028385775 -0.16734138 -0.037488777
0.052543186 0.015334495 0.0022381353 0.02631313 -0.15121438 0.029955678 -0.00781997 -0.06649229
0.41031468 -0.19462894 -0.2774288 -0.037224527 0.027764568 -0.037342202 0.040639352 0.046322275
0.049716495 -0.0056897597 0.24766858 -0.5091994 0.039618596 -0.046775214 -0.084457524 -0.02039205
-0.00079830614 -0.02632034 -0.32025966 0.092603326 -0.061830793 -0.38670763 -0.0073009324 0.0349845
0.054793272 0.006539408 0.12671496 0.008936 0.028082509 -0.012266844 0.14279224 0.011602226
-0.035649132 0.30977792 -0.30952674 0.040167946 0.052070413 -0.10092703 -0.02337764 -0.14882784
0.040089265 0.21516083 -0.013878237 0.040096488 -0.073406495 0.0044392147 -0.25907215 -0.057652015
0.092752516 -0.121649064 0.19875696 -0.0014624451 0.05075639 -0.048892766 -0.0472936 -0.0425755
0.012321438 -0.050963238 0.12391599 -0.043700375 -0.018960904 -0.086795814 0.019774357 -0.0146595845
-0.23008291 0.020905245 0.25222602 -0.07276499 0.0027961207 -0.21527521 0.060370848 0.39459282
-0.31786603 0.029933436 0.03970838 0.023753792 0.012656382 -0.020429589 0.047055293 -0.007555538
-0.043001316 0.09531706 0.04461495 0.14518563 0.2781807 -0.2159552 0.6150883 -0.09309236
00000000: e634 293f ba99 cd3c 0a13 d3be 1add 473c
00000010: 721a a13b 9ea5 3bbd 889f d43d e416 4bbd
00000020: 286a f63c c13b 2ebd bd96 6d3c 44fb 1f3d
00000030: a0c9 a0be 77e6 cbbd f101 56bd ce2f bd3b
00000040: 8afe 0f3d 483e 5dbd 659d 00bd bf4a 0dbd
00000050: e563 e03c 835b 4dbe 7651 f63c 0397 653d
00000060: f8a1 123d b89a 983d 88e2 d1bd 72ce bbbd
00000070: b150 c33c 1e2c a0be 6b42 983e 9e6d bf3d
00000080: c2c1 973e 59f8 6c3e 5807 1c3d 3a7b f8bd
00000090: b38b 4a3a 61d8 5d3e 083b 113b b9b0 923e
000000a0: 117e c0bd ba35 c53d 9558 453d 2b7f 00be
000000b0: 6c4a 913d 67b2 7c3e a72f b4bc 6d58 34bb
000000c0: 9503 363d 70ce df3d c37a 1abe 2cf1 7c3e
000000d0: 4fee 28be 2fbd 07bd 5d59 413d b442 1dbd
000000e0: 92dd c03c 54f2 4bbd 2746 ccbe ec9c aa3c
000000f0: 9d0a 4b3b e8dc 2b3c f799 cc3c c266 e53d
00000100: 8f2a d23c 00f0 323e 2e35 743c 9c7c 9abc
00000110: 8fba 0e3d 04ec c7bc dd88 4bbe c6cb a63e
00000120: 0292 d63c 5cdf 403d 5687 2b3d 3029 423d
00000130: e0d7 173f ffba 8e3a d8a8 053d 02dd 6cbe
00000140: 2b59 0cbd 54fe 90bb 3091 26bc 5e99 fd3e
00000150: b160 0abc c140 3b3d 40e8 0dbd e586 093d
00000160: 2fed 9f3d 45e0 84be 3e56 5cbe 1116 403d
00000170: be6d a83c 9402 4ebe dde2 1fbe ed8b a2bc
00000180: fe52 86bd 65ec a93d 2188 383d 4b0d 69be
00000190: 9ee4 22be 993f c4bb b501 f9bc a981 163d
000001a0: 8a5d 02bb fba2 253d 4e5b f3bc 88a4 c2bd
000001b0: 9e17 473d a0f2 bfbc 86de 433c b669 ecbc
000001c0: 2c8d dcbc 44ca a2be 24b2 173f 082a 24be
000001d0: 0089 13bb f09f 653d 4832 28be 8841 6dbc
000001e0: 2dc5 8f3b 09fb d53e cb98 2e3c c78e 41bd
000001f0: a375 593c d657 aa3e ebc3 bc3c 5cd7 afbc
00000200: a522 12bc e727 93be e222 843d be65 733d
00000210: d9ea abbd dc7b ad3c 5f94 463d 29e6 1e3e
00000220: fa7b fc3e 99e0 2b3d 1762 da3c f825 5dbd
00000230: 069f c6be 9fff 5abb bdc7 043d d8c3 8dbd
00000240: e3af 343d a48b 383e a58d 91be dedc 83be
00000250: 8b74 12be 7b4c fd3b 312c b5bd b13b 30bc
00000260: 0774 083e fcb9 c5bc c51d 163e fc38 19bd
00000270: 6e5b 3f3e 4989 e8bc 8a5b 2bbe d58d 19bd
00000280: 8637 573d 893d 7b3c aead 123b a28e d73c
00000290: f1d7 1abe 9c65 f53c 551f 00bc 1c2d 88bd
000002a0: c414 d23e cf4c 47be 260b 8ebe bf78 18bd
000002b0: 8572 e33c 23f4 18bd 7375 263d 6dbc 3d3d
000002c0: 86a3 4b3d 2a71 babb d59c 7d3e e45a 02bf
000002d0: 1c47 223d 5e97 3fbd 11f8 acbd 3a0d a7bc
000002e0: 6b45 51ba c19d d7bc 13f9 a3be d0a6 bd3d
000002f0: 4942 7dbd 8bfe c5be a93c efbb e84b 0f3d
00000300: e96e 603d 8848 d63b 91c1 013e 4d68 123c
00000310: 4a0d e63c dffa 48bc 2138 123e 4317 3e3c
00000320: d304 12bd 369b 9e3e 4a7a 9ebe 2587 243d
00000330: c947 553d d5b2 cebd 7782 bfbc 5366 18be
00000340: a434 243d 1f53 5c3e 8c61 63bc 373c 243d
00000350: 2556 96bd d576 913b 1ba5 84be 8524 6cbd
00000360: 08f5 bd3d 2523 f9bd f286 4b3e 84af bfba
00000370: efe5 4f3d c843 48bd efb6 41bd a663 2ebd
00000380: dbdf 493c d4be 50bd abc7 fd3d 2aff 32bd
00000390: e653 9bbc 01c2 b1bd d5fd a13c c12e 70bc
000003a0: db9a 6bbe 7a41 ab3c c523 813e d005 95bd
000003b0: 1f3f 373b 1b71 5cbe 6c47 773d 1208 ca3e
000003c0: 56bf a2be f736 f53c 41a5 223d 5097 c23c
000003d0: b75c 4f3c f45b a7bc 0dbd 403d 7294 f7bb
000003e0: 2622 30bd 9735 c33d 2abe 363d 8bab 143e
000003f0: b36d 8e3e 5c23 5dbe 6d76 1d3f 35a7 bebd

l3.bias f4 [2]
-0.03666311 0.0029009439
00000000: 0f2c 16bd c31d 3e3b
