models/actor_160.pth (torch, 532909 bytes, 6 tensors)

l1.weight f4 [400, 28]
0.09766113 -0.17187193 0.18299839 -0.24673133 -0.068887316 0.16496734 -0.01444223 -0.019601466
0.20802854 -0.13639213 -0.009117719 0.17078526 -0.028169356 0.021127624 -0.058170095 0.17954703
0.14546439 0.008407989 0.13881211 -0.07881612 -0.17687583 -0.1411803 -0.034992367 0.1276786
0.100232996 -0.0652692 -0.12441337 -0.07520926 0.17767435 0.047140747 -0.3311335 -0.139617
0.089754626 0.09067793 0.12058946 0.04917405 0.0053867954 0.043145932 -0.028155321 -0.09664935
0.06588066 -0.014682055 0.13735415 0.08612323 -0.15824711 0.1068544 -0.20798449 -0.13721062
-0.0067034555 -0.19803905 0.10088061 0.0246207 0.03937872 0.0012547914 0.07363225 0.22878325
-0.12102937 -0.18953569 -0.18913874 0.0652318 -0.15122682 0.17908844 0.19289748 -0.05109741
-0.063110374 -0.10301195 0.1586525 -0.16946049 0.14279453 -0.05086162 0.079152204 0.09312859
-0.073072 -0.14882728 -0.040035214 0.15828356 0.17589198 -0.16225906 0.030177243 -0.09352291
-0.3460496 0.09814436 -0.13951701 -0.08854312 0.0914038 -0.056738064 0.0859626 0.07725906
-0.03161533 -0.07996611 0.10440514 -0.14760229 0.07670237 0.099754445 -0.14096445 0.12351281
-0.21313663 -0.17300923 -0.21771307 0.08579812 0.20060942 -0.08766658 -0.123577185 0.12502821
0.043413557 0.10972328 0.08996481 -0.11417052 0.010055539 -0.047744356 0.051861677 0.044218615
0.07382003 -0.12505226 -0.11381825 0.2740008 0.13515568 0.010567339 -0.06244838 0.16026442
-0.18275988 -0.11341787 -0.032734234 -0.13645846 0.011084821 -0.054859538 -0.016599843 0.05542897
0.08984611 0.12830177 -0.019246358 0.16715033 0.15168862 -0.13299185 -0.15491407 0.09643929
-0.10024044 -0.15457438 -0.14810415 -0.0039237593 0.020805636 -0.04871846 -0.09582963 -0.072969176
0.08489999 -0.1139793 -0.086544685 -0.004720872 0.11663111 -0.037569 -0.13538612 0.124668784
0.17689738 -0.13279413 0.032841396 -0.10880077 -0.06415344 0.012071035 0.06255454 -0.14392483
0.11119019 0.0053361105 0.095375255 0.15585245 0.04645213 0.0025167437 0.18601078 -0.18352312
-0.08652674 -0.25686452 0.09605204 0.06999538 0.18803973 0.16950454 0.082918346 0.02812566
-0.16965555 0.07071329 0.10358613 -0.09559681 -0.18874107 0.11347044 0.110416725 -0.13568246
0.16771856 -0.08745576 -0.026867125 -0.04543481 -0.13483061 -0.11200943 -0.13161296 0.03544724
-0.121888 -0.2107506 0.16354312 0.29237422 -0.0411787 -0.04525699 -0.18948196 0.14485733
-0.04099596 0.075835645 0.11149896 -0.018114202 -0.10183704 -0.1180809 -0.038517907 -0.017847072
0.14749812 0.09767704 -0.021849347 -0.20606309 -0.055356614 -0.15271817 0.23486523 0.081994206
0.015244542 -0.14949107 0.09051264 0.060063716 -0.25537735 -0.20304744 0.16570103 -0.28858766
-0.0034067053 -0.12428447 -0.09454867 -0.07873517 0.053620286 0.123657 0.04156052 -0.13010502
0.10669108 0.16117229 -0.16820073 0.1953061 0.044230133 -0.12146131 0.11640897 0.17573917
-0.022639073 -0.11514559 0.20376138 0.20366359 0.16814907 -0.13243403 0.11603337 -0.11366253
-0.19880508 0.13702288 -0.02694367 0.049345665 -0.026286773 0.0018062927 0.12407643 -0.15835576
00000000: 8f02 c83d 32ff 2fbe ee63 3b3e 23a7 7cbe
00000010: cb14 8dbd 33ed 283e 1a9f 6cbc 4193 a0bc
00000020: 6f05 553e 61aa 0bbe 7c62 15bc 55e2 2e3e
00000030: 6cc3 e6bc d713 ad3c c443 6ebd 2ddb 373e
00000040: 9ef4 143e a9c1 093c c324 0e3e 596a a1bd
00000050: f01e 35be 9291 10be 2854 0fbd 2ebe 023e
00000060: f546 cd3d dcab 85bd 70cc febd 5007 9abd
00000070: 44f0 353e a816 413d 558a a9be c2f7 0ebe
00000080: 46d1 b73d 5ab5 b93d 9bf7 f63d bb6a 493d
00000090: b783 b03b cab9 303d fda5 e6bc 18f0 c5bd
000000a0: 71ec 863d 018d 70bc 91a6 0c3e 6061 b03d
000000b0: 880b 22be 7bd6 da3d e3f9 54be f180 0cbe
000000c0: a9a8 dbbb c0ca 4abe 7e9a ce3d 5ab1 c93c
000000d0: 954b 213d d077 a43a 81cc 963d 2846 6a3e
000000e0: 3fde f7bd a515 42be 96ad 41be 4098 853d
000000f0: 34db 1abe f662 373e eb86 453e 854b 51bd
00000100: 0340 81bd eef7 d2bd cd75 223e 0d87 2dbe
00000110: bb38 123e 4654 50bd 8d1a a23d 34ba be3d
00000120: c6a6 95bd 2e66 18be f7fb 23bd 1615 223e
00000130: 071d 343e 3d27 26be 4436 f73c f088 bfbd
00000140: 6a2d b1be e9ff c83d 8cdd 0ebe 1856 b5bd
00000150: ea31 bb3d 2c66 68bd 290d b03d 003a 9e3d
00000160: 147f 01bd 46c5 a3bd 5dd2 d53d 0e25 17be
00000170: 2216 9d3d 0f4c cc3d fc58 10be 49f4 fc3d
00000180: 7d40 5abe 5529 31be 2df0 5ebe edb6 af3d
00000190: 8e6c 4d3e 898a b3bd 0916 fdbd 6507 003e
000001a0: 6ad2 313d 99b6 e03d 783f b83d 3cd2 e9bd
000001b0: fdbf 243c 968f 43bd e96c 543d 941e 353d
000001c0: f52e 973d b30d 00be 8b19 e9bd d549 8c3e
000001d0: 4066 0a3e a222 2d3c dfc9 7fbd 5b1c 243e
000001e0: 6825 3bbe a147 e8bd 5514 06bd c4bb 0bbe
000001f0: 1c9d 353c 65b4 60bd 65fc 87bc 7d09 633d
00000200: 3d01 b83d 8a61 033e 8aaa 9dbc 7529 2b3e
00000210: 4354 1b3e 042f 08be cba1 1ebe f681 c53d
00000220: dc4a cdbd bf48 1ebe 9da8 17be e192 80bb
00000230: 9570 aa3c 028d 47bd 5342 c4bd dd70 95bd
00000240: 0ce0 ad3d fb6d e9bd 573e b1bd 8bb1 9abb
00000250: 4bdc ee3d f4e1 19bd a9a2 0abe 5952 ff3d
00000260: 9624 353e 2ffb 07be b384 063d f0d2 debd
00000270: e162 83bd 97c5 453c 981c 803d 0861 13be
00000280: afb7 e33d 8ada ae3b 1a54 c33d c997 1f3e
00000290: 9744 3e3d f4ef 243b 9c79 3e3e 7ced 3bbe
000002a0: ee34 b1bd bf83 83be efb6 c43d bd59 8f3d
000002b0: 7d8d 403e 9992 2d3e 18d1 a93d c967 e63c
000002c0: 2fba 2dbe 21d2 903d f724 d43d 43c8 c3bd
000002d0: 5745 41be 3163 e83d 2a22 e23d 58f0 0abe
000002e0: 6abe 2b3e 011c b3bd 7218 dcbc da19 3abd
000002f0: 0911 0abe 3365 e5bd 8cc5 06be 2031 113d
00000300: 6aa0 f9bd 01cf 57be d977 273e 13b2 953e
00000310: ffaa 28bd 655f 39bd 8f07 42be 7b55 143e
00000320: 61eb 27bd b84f 9b3d 9159 e43d 3c64 94bc
00000330: f08f d0bd 66d4 f1bd f4c4 1dbd 0634 92bc
00000340: bf09 173e e60a c83d 67fd b2bc 3402 53be
00000350: 9ebd 62bd 2762 1cbe 8380 703e 94ec a73d
00000360: 3ec4 793c 3014 19be b15e b93d 5f05 763d
00000370: d2c0 82be abeb 4fbe 88ad 293e c3c1 93be
00000380: 0843 5fbb db88 febd bca2 c1bd e83f a1bd
00000390: f2a0 5b3d e23f fd3d 5d3b 2a3d 403a 05be
000003a0: da80 da3d 590a 253e d03c 2cbe 53fe 473e
000003b0: a82a 353d b5c0 f8bd d367 ee3d f8f4 333e
000003c0: 9475 b9bc 73d1 ebbd d3a6 503e 308d 503e
000003d0: 452f 2c3e c99c 07be e7a2 ed3d e7c7 e8bd
000003e0: 8f93 4bbe ba4f 0c3e f9b8 dcbc ae1e 4a3d
000003f0: 5c57 d7bc 20c1 ec3a c91b fe3d 0328 22be

l1.bias f4 [400]
-0.11834951 -0.032650087 -0.14304031 0.11709069 -0.114575416 -0.1750216 -0.17508256 0.01626922
-0.14648138 -0.06919719 -0.18160357 0.012695164 -0.124647714 -0.1206482 -0.06638308 0.1354476
-0.11586265 -0.1726884 -0.11378073 0.045226492 0.074291065 -0.08278548 -0.0435243 -0.18227573
-0.05885245 0.04635792 -0.16579075 0.13824123 0.050939955 0.11447129 0.10712335 -0.0123736225
0.097320534 0.09605339 -0.06865309 -0.096116856 -0.0780192 -0.0056928922 -0.059626117 0.09547698
-0.03587183 -0.116599694 -0.15310407 -0.057939246 0.05794795 -0.016750734 -0.17950927 0.10010153
0.04452399 0.11232713 -0.16164382 0.07964927 0.112991504 -0.16697921 0.130172 -0.1264246
0.092219554 -0.1525501 -0.12906218 -0.09218016 0.05351642 0.058940057 -0.1091763 -0.07643561
0.1826246 0.106428236 -0.03288595 -0.09432179 -0.20351844 -0.046001803 0.11680557 0.10637388
0.00728182 -0.14613152 -0.06522834 -0.016935337 -0.13993385 -0.026175791 -0.091953486 0.102548935
0.05474374 -0.16053112 -0.15708506 -0.021255149 0.080148675 0.18902634 0.009245463 0.0402818
-0.14291053 0.12771386 0.018384507 -0.043866374 0.07536356 0.16955005 0.041990098 -0.10840603
0.0722302 0.14901854 0.10367348 -0.1951974 0.10065159 0.07921757 0.13707335 0.13564968
0.09573711 -0.12237481 -0.13169028 -0.12286616 0.011203567 -0.07109476 0.18347016 0.026893541
-0.12764254 0.08427444 0.08067721 0.14815316 0.018905133 0.05009573 -0.005328207 -0.036001008
-0.13864878 -0.031746842 0.14583701 0.021884868 -0.0241567 -0.14107907 0.036830895 0.006663583
0.16639256 0.1509306 -0.14342505 -0.15856346 0.19593087 -0.010964448 0.10661517 0.054429937
-0.05756304 -0.12662356 -0.015679127 -0.003197707 0.08126512 -0.050689936 0.089822836 -0.14114723
0.019612947 -0.18642955 0.041726176 -0.08864214 -0.12841207 0.2191048 -0.19645149 0.03513308
0.20454058 -0.06887261 -0.03369023 -0.055534802 -0.024296302 -0.034233578 -0.18611115 0.019718423
0.08438368 0.06152069 0.17146882 -0.15734568 -0.17260787 -0.017736707 -0.13654417 -0.042784866
-0.13697532 -0.116927885 0.095972754 0.07434882 0.13538311 0.093634374 0.021108694 -0.07951651
0.13044606 -0.03228546 -0.16834591 -0.15896563 -0.09595627 -0.043198142 0.22134157 -0.098507605
0.08338446 0.18431355 0.044009574 0.14922388 -0.07928042 0.025774308 -0.17369135 0.1369552
-0.05226605 0.18865371 0.06746285 0.12769349 -0.14143933 -0.08381338 -0.02814373 -0.05239378
0.14223914 0.037680157 -0.06778489 0.06366734 0.19764538 0.057518218 -0.12569603 -0.19912319
0.17347075 -0.08776018 0.19176345 -0.097257845 0.07729845 -0.20023996 -0.055307828 -0.062439032
-0.105480246 0.13018063 -0.0110480925 0.09196469 -0.024812153 -0.08198721 -0.12689184 -0.19035476
-0.04109753 0.18358947 -0.03575664 -0.110300004 0.1193127 -0.21924597 0.043235827 -0.2097294
0.09080744 -0.08762617 -0.19612552 -0.15796939 0.11543876 -0.04694582 0.1147511 -0.20273197
-0.15121467 -0.14375094 -0.18028778 -0.15089789 -0.092791975 -0.16730091 -0.13560559 0.07921577
0.02775315 -0.08097926 -0.17015436 -0.14106208 -0.010379089 0.09348841 0.078686446 0.05576709
00000000: 3a61 f2bd 19bc 05bd 2979 12be 3ecd ef3d
00000010: 84a6 eabd dd38 33be d848 33be 0747 853c
00000020: 37ff 15be 42b7 8dbd 49f6 39be 61ff 4f3c
00000030: 4d47 ffbd 6716 f7bd daf3 87bd c7b2 0a3e
00000040: 6649 edbd 3ad5 30be df05 e9bd 6a3f 393d
00000050: ea25 983d 6f8b a9bd 8946 32bd 7da6 3abe
00000060: 440f 71bd cde1 3d3d 0dc5 29be 1c8f 0d3e
00000070: 6aa6 503d ec6f ea3d 7d63 db3d bcba 4abc
00000080: fd4f c73d a4b7 c43d fe99 8cbd ead8 c4bd
00000090: 88c8 9fbd 718b babb 843a 74bd 6f89 c33d
000000a0: 57ee 12bd d2cb eebd 50c7 1cbe b451 6dbd
000000b0: d45a 6d3d d638 89bc 47d1 37be 0802 cd3d
000000c0: ca5e 363d c40b e63d f585 25be 281f a33d
000000d0: 1768 e73d 99fc 2abe cf4b 053e 7375 01be
000000e0: 9bdd bc3d 1836 1cbe e028 04be f4c8 bcbd
000000f0: 0934 5b3d 216b 713d d397 dfbd 468a 9cbd
00000100: f101 3b3e 0cf7 d93d 6bb3 06bd c82b c1bd
00000110: 2367 50be 636c 3cbd c237 ef3d 8cda d93d
00000120: 559c ee3b 80a3 15be 7096 85bd fabb 8abc
00000130: d24a 0fbe 9d6e d6bc 1c52 bcbd 2d05 d23d
00000140: f93a 603d 4562 24be e8da 20be 471f aebc
00000150: fd24 a43d 1f90 413e 487a 173c 87fe 243d
00000160: 2357 12be 6cc7 023e 1b9b 963c 3aad 33bd
00000170: 3658 9a3d 879e 2d3e cffd 2b3d fb03 debd
00000180: 6ded 933d 5198 183e c352 d43d d4e1 47be
00000190: 6c22 ce3d d23c a23d f55c 0c3e c0e7 0a3e
000001a0: d111 c43d a59f fabd d1d9 06be 41a1 fbbd
000001b0: 2a8f 373c 219a 91bd 9adf 3b3e d84f dc3c
000001c0: bab4 02be 1498 ac3d 183a a53d 76b5 173e
000001d0: f0de 9a3c 2e31 4d3d 3d98 aebb cb75 13bd
000001e0: f2f9 0dbe fa08 02bd 4c56 153e e547 b33c
000001f0: 46e4 c5bc 0877 10be fedb 163d 305a da3b
00000200: d062 2a3e 8d8d 1a3e 04de 12be 765e 22be
00000210: 1aa2 483e 3aa4 33bc 0e59 da3d edf1 5e3d
00000220: 39c7 6bbd 9ba9 01be 8371 80bc 9f90 51bb
00000230: 546e a63d 40a0 4fbd 09f5 b73d e688 10be
00000240: 55ab a03c 63e7 3ebe 11e9 2a3d 038a b5bd
00000250: 747e 03be 025d 603e 942a 49be b4e7 0f3d
00000260: 1673 513e 150d 8dbd c4fe 09bd 7678 63bd
00000270: 0a09 c7bc 8238 0cbd ec93 3ebe 8888 a13c
00000280: 5ad1 ac3d 1efd 7b3d 8695 2f3e 3a1f 21be
00000290: 1ec0 30be 924c 91bc 3cd2 0bbe 2f3f 2fbd
000002a0: 4243 0cbe e377 efbd 5d8d c43d 3244 983d
000002b0: dfa1 0a3e 61c3 bf3d 24ec ac3c 8dd9 a2bd
000002c0: a793 053e c23d 04bd df62 2cbe e3c7 22be
000002d0: b984 c4bd 89f0 30bd 5da7 623e 5bbe c9bd
000002e0: 79c5 aa3d b1bc 3c3e 6243 343d 25ce 183e
000002f0: c65d a2bd a424 d33c 25dc 31be fc3d 0c3e
00000300: ed14 56bd 702e 413e f629 8a3d 15c2 023e
00000310: 79d5 10be 59a6 abbd ae8d e6bc dc9a 56bd
00000320: 23a7 113e 8256 1a3d ced2 8abd 0664 823d
00000330: 8d63 4a3e 3998 6b3d 76b6 00be f3e6 4bbe
00000340: 51a2 313e 9cbb b3bd a35d 443e 1f2f c7bd
00000350: a64e 9e3d b40b 4dbe 768a 62bd 12c0 7fbd
00000360: 0706 d8bd 124e 053e 0f03 35bc fc57 bc3d
00000370: db42 cbbc e9e8 a7bd efef 01be 5cec 42be
00000380: e255 28bd e1fe 3b3e 8e75 12bd f8e4 e1bd
00000390: 385a f43d 0482 60be 0d18 313d 4ec3 56be
000003a0: 40f9 b93d 5975 b3bd 21d5 48be bac2 21be
000003b0: 286b ec3d 434a 40bd a002 eb3d f898 4fbe
000003c0: 05d8 1abe 7233 13be 5c9d 38be fa84 1abe
000003d0: b809 bebd ee50 2bbe 31dc 0abe e13b a23d
000003e0: 935a e33c 74d8 a5bd f23c 2ebe 9472 10be
000003f0: 0e0d 2abc da76 bf3d 5c26 a13d 086c 643d

l2.weight f4 [300, 400]
-0.017139534 -0.016463282 0.160248 -0.20594887 0.042134006 0.18700294 -0.020649103 0.059838273
0.05389615 -0.037811663 0.22000766 0.16786171 0.032176588 -0.05252017 0.07110173 0.11804458
0.04346198 -0.015303108 0.01490289 0.098486245 -0.055436227 -0.075656824 0.14426924 0.14732085
0.010241719 -0.13302603 0.050654635 -0.123820454 0.0040098643 0.0044737402 -0.00037154113 -0.05677211
-0.022324504 0.10874774 0.17797898 0.058563095 0.06813214 -0.07981866 -0.20618527 -0.2432939
0.034673322 -0.0014986516 -0.045411944 -0.0034949721 -0.1001532 -0.02203179 0.20516358 -0.3374992
-0.020001315 0.023581598 -0.04787361 -0.018707747 0.124872714 0.033761404 -0.020523343 0.018430226
0.025652967 0.0061189174 -0.03672579 0.06613202 0.09567576 -0.07787297 0.2171855 0.13973112
-0.019030508 -0.019574592 -0.03926877 0.15622123 0.052303176 0.23690881 0.105401754 -0.109002896
0.12672132 -0.035584457 -0.33318445 -0.07886378 0.003914149 0.22663616 -0.15826842 0.08996267
0.56303483 -0.034582578 -0.08157283 -0.14010166 0.10191891 0.0016363665 -0.017334532 -0.027869238
-0.023515698 0.20125121 -0.043711875 0.027239593 -0.042975713 -0.05733607 -0.00821962 -0.020267215
-0.26026222 0.23951402 -0.15751776 0.16006441 0.0043761325 -0.05330895 -0.0088471165 -0.121355265
-0.3256803 -0.032975886 0.11380875 -0.052064683 0.0046488107 0.04725946 -0.027761525 0.025872648
0.0028098763 -0.053341895 -0.04886538 -0.031331155 0.020740565 0.1071711 -0.083594665 0.022573328
0.2792028 0.042638823 0.05975844 -0.06699015 0.09117558 0.22283517 0.0017467414 0.07710804
0.08453836 -0.05507438 -0.07091454 0.011641194 -0.021389253 0.22737764 -0.08210348 -0.05769176
-0.12989216 -0.047798354 0.037051193 -0.1938221 -0.033090826 0.015904104 -0.07347328 -0.19661906
-0.23135594 -0.10387592 0.114513986 -0.010241125 0.03009212 -0.22076555 -0.04529847 -0.17165597
0.46392646 0.10094908 -0.05633317 0.38703027 -0.039401993 -0.027505001 -0.018057976 -0.020429267
0.030420514 -0.035561442 0.1773248 0.049651213 -0.045599546 -0.09479829 0.009801507 -0.03560764
0.16517045 0.022077372 0.044520322 -0.07763418 -0.07084563 0.11504596 0.0035154624 0.33844188
0.026850529 0.039819658 -0.08818016 -0.029046029 -0.24211608 0.06589298 -0.065319024 0.111568585
-0.018496541 -0.071477994 0.07755549 0.1132907 -0.04714443 0.07441558 -0.2537416 -0.17369533
-0.12529276 0.048078693 -0.07686755 0.19755775 -0.31135586 -0.0081657935 0.12484932 -0.17467546
0.15065902 -0.058811042 0.017899966 -0.019287186 -0.047504447 0.46077278 -0.061139878 -0.0060690637
-0.074076384 -0.039929736 0.094368815 -0.19072574 0.053484604 -0.10073569 -0.17826372 -0.031717893
-0.14073454 0.021320006 -0.0027685214 -0.005370548 0.019791184 -0.1575223 -0.0040329867 -0.0066263643
0.054949317 -0.121696815 0.0032069683 -0.05656209 0.03783854 0.14354299 -0.1961347 -0.011313632
-0.23348923 0.04944384 0.22742969 -0.022459758 -0.02271467 0.0470307 -0.14012541 0.08887975
0.08951095 -0.049831606 0.032855146 0.06579714 -0.037198387 -0.24226972 0.14991748 -0.04390138
-0.0737738 0.035167832 0.029603297 -0.45883343 -0.14692196 0.19018884 0.12683308 0.14330362
00000000: 3568 8cbc 01de 86bc 0d18 243e 43e4 52be
00000010: b594 2c3d b37d 3f3e 4f28 a9bc fa18 753d
00000020: 36c2 5c3d 67e0 1abd b049 613e f1e3 2b3e
00000030: 99cb 033d 641f 57bd c99d 913d 5bc1 f13d
00000040: 3005 323d e3b9 7abc 402b 743c 28b3 c93d
00000050: 1911 63bd f7f1 9abd 51bb 133e 47db 163e
00000060: e2cc 273c fa37 08be 3c7b 4f3d 9495 fdbd
00000070: 2e65 833b 7498 923b 68cb c2b9 df89 68bd
00000080: e1e1 b6bc 23b7 de3d 1f40 363e dbdf 6f3d
00000090: dd88 8b3d f777 a3bd 3b22 53be 0922 79be
000000a0: 9d05 0e3d 676e c4ba e001 3abd e70b 65bb
000000b0: 1f1d cdbd 037c b4bc 6716 523e b2cc acbe
000000c0: ccd9 a3bc 322e c13c 1e17 44bd fd40 99bc
000000d0: 44bd ff3d 6649 0a3d 9220 a8bc fcfa 963c
000000e0: 2c26 d23c 3381 c83b c86d 16bd 3970 873d
000000f0: a7f1 c33d dd7b 9fbd e065 5e3e ad15 0f3e
00000100: dee5 9bbc e55a a0bc 4ad8 20bd 75f8 1f3e
00000110: db3b 563d 3998 723e e0dc d73d e93c dfbd
00000120: 3cc3 013e 02c1 11bd 2797 aabe 5583 a1bd
00000130: 4342 803b 4f13 683e 1e11 22be 593e b83d
00000140: 0d23 103f 76a6 0dbd a80f a7bd cf76 0fbe
00000150: ddba d03d 597b d63a 2601 8ebc 074e e4bc
00000160: fea3 c0bc cc14 4e3e 390b 33bd 9125 df3c
00000170: 4d07 30bd 3ad9 6abd 96ab 06bc 6e07 a6bc
00000180: 1741 85be 2a43 753e 564c 21be ede7 233e
00000190: a965 8f3b 7c5a 5abd 7ff3 10bc 1c89 f8bd
000001a0: 91bf a6be b911 07bd 9014 e93d c741 55bd
000001b0: 0d55 983b 2393 413d 236c e3bc e0f2 d33c
000001c0: e725 383b 087d 5abd 1127 48bd 1955 00bd
000001d0: 1ee8 a93c 867c db3d ae33 abbd b3eb b83c
000001e0: abf3 8e3e 0ca6 2e3d 44c5 743d 2232 89bd
000001f0: 43ba ba3d e72e 643e eaf2 e43a d2ea 9d3d
00000200: 7322 ad3d ac95 61bd a43b 91bd b5ba 3e3c
00000210: 8438 afbc afd5 683e df25 a8bd 324e 6cbd
00000220: 7302 05be 35c8 43bd fec2 173d 4d79 46be
00000230: 3f8a 07bd 5349 823c 2979 96bd 8256 49be
00000240: 92e8 6cbe e6bc d4bd 4f86 ea3d 64ca 27bc
00000250: c083 f63c 5d10 62be e38a 39bd 95c6 2fbe
00000260: c587 ed3e 64be ce3d 9cbd 66bd d528 c63e
00000270: fc63 21bd 2b52 e1bc 52ee 93bc 475b a7bc
00000280: 7134 f93c e0a8 11bd a294 353e 125f 4b3d
00000290: 97c6 3abd 9b25 c2bd 8096 203c 51d9 11bd
000002a0: 7122 293e 9bdb b43c f15a 363d abfe 9ebd
000002b0: 8317 91bd 379d eb3d ac63 663b 4148 ad3e
000002c0: a4f5 db3c f019 233d cd97 b4bd f0f1 edbc
000002d0: 47ed 77be e6f2 863d fbc5 85bd 127e e43d
000002e0: 0f86 97bc 0e63 92bd 6ad5 9e3d f404 e83d
000002f0: 851a 41bd 3267 983d 6bea 81be 30dd 31be
00000300: bf4c 00be 2aee 443d bc6c 9dbd 944c 4a3e
00000310: 096a 9fbe d2c9 05bc 00b1 ff3d 20de 32be
00000320: 5c46 1a3e d9e3 70bd f3a2 923c 2900 9ebc
00000330: 0694 42bd 69ea eb3e cf6d 7abd ffde c6bb
00000340: 5cb5 97bd 5d8d 23bd 7044 c13d 9c4d 43be
00000350: ac12 5b3d 834e cebd c48a 36be 9fea 01bd
00000360: b71c 10be 4ba7 ae3c 1570 35bb 6cfb afbb
00000370: 1f21 a23c 874d 21be 2527 84bb f921 d9bb
00000380: 8912 613d 2e3c f9bd 002c 523b a6ad 67bd
00000390: 96fc 1a3d effc 123e 89d7 48be d05c 39bc
000003a0: cd17 6fbe a085 4a3d 54e3 683e 87fd b7bc
000003b0: 1e14 babc 43a3 403d 097d 0fbe 9606 b63d
000003c0: 8451 b73d 3a1c 4cbd 1e93 063d a7c0 863d
000003d0: 565d 18bd 8e15 78be f883 193e efd1 33bd
000003e0: b816 97bd 250c 103d 9d82 f23c 37ec eabe
000003f0: b672 16be ddc0 423e 88e0 013e 2fbe 123e

l2.bias f4 [300]
0.029953416 -0.024309177 -0.021664094 -0.05285502 -0.010106727 -0.024175199 0.043411303 -0.04121573
0.0069651 -0.062386323 0.0017885208 0.009623784 0.046635788 -0.030710962 -0.035615705 -0.004917386
0.0100315465 -0.017825784 0.01836441 -0.026750838 -0.017687902 -0.0059597525 -0.021773297 -0.0165734
-0.03324753 0.03972721 -0.024329701 0.012693539 -0.013557625 -0.0025764916 0.0057600923 0.049495388
0.067413606 0.011883821 -0.030708028 0.015596446 0.002503859 0.06794264 -0.049043324 0.006382058
0.013837786 0.07097908 0.01159626 0.025396748 -0.010961713 -0.023295255 -0.04951391 -0.054664724
-0.032701053 -0.053348105 0.02334638 0.02748384 -0.0077425735 -0.05049195 -0.031769317 -0.009174366
0.0054775947 -0.009626156 -0.0314926 0.0018554742 0.025432639 -0.029869765 -0.04994016 0.0036151127
0.0071539935 0.040699363 -0.024666822 0.02077072 0.027536731 0.014906674 0.04645521 0.022717338
0.0054586995 0.0015242571 -0.047208004 -0.0016346293 -0.057735045 -0.05304304 0.019691927 0.038511313
-0.022892771 0.02314469 0.0053527434 -0.0214166 -0.018439336 0.024234416 -0.056973483 -0.034103174
0.04997923 0.0037670357 -0.003325514 0.013559459 -0.030319596 -0.016944077 -0.0072496394 0.020967111
-0.05544556 -0.045890618 -0.048291206 0.017182281 -0.008285755 -0.060757205 0.072587974 -0.0449011
-0.020412117 -0.03235073 0.0063550384 -0.017996965 -0.0014798029 0.079790935 -0.036599953 -0.04075366
0.024608174 -0.008984321 -0.045298252 0.030415509 -0.046520658 0.037445497 -0.05627979 0.0067180493
-0.02284555 0.03725194 -0.016456097 -0.0223401 -0.028303148 0.017783677 0.006326076 0.015659014
0.012588481 -0.0038742218 -0.029624652 -0.020487249 0.06394015 -0.010776515 0.040707663 0.018030327
0.009183425 -0.052376024 0.00056316506 -0.0031956504 -0.022727052 0.007891454 -0.012716992 0.015571413
0.013351728 0.030356372 -0.0049402835 0.053525455 -0.0033584575 -0.0031865414 -0.0097985845 0.0038079075
0.06845243 -0.029871719 -0.10527666 -0.061662134 0.056615364 -0.0069233812 0.0073431823 -0.044247773
0.02834533 -0.0066064633 -0.057103995 0.018853797 0.00322777 0.029496234 0.0034722956 0.030530054
0.040951766 -0.005207978 0.023868676 -0.045725938 -0.060320266 -0.028534668 0.01584035 0.0004893528
-0.035626914 -0.04450749 -0.030854203 -0.0054484755 -0.043531258 -0.026075238 0.05338689 -0.044597536
-0.028020948 -0.023471808 -0.006950106 -0.0023829453 0.018010432 -0.08412792 0.009685998 -0.03353944
-0.037183836 0.035687093 0.064401 0.009892261 -5.247236e-05 -0.008240998 0.04511486 -0.031529024
-0.050755244 -0.065150656 0.021904558 0.017117517 -0.048342213 0.04946822 -0.039833147 -0.04300291
-0.008449683 -0.005545745 -0.019646294 -0.021851148 0.0074240426 -0.028849773 0.036530722 -0.005981564
-0.0014302939 -0.0034519492 -0.034303788 0.029839672 -0.03578839 -0.04768181 0.036765788 -0.050666377
-0.007349878 -0.0069898986 0.032886155 -0.050313484 0.032837827 -0.029418096 0.051228803 -0.047810625
0.041934628 -0.051577624 0.0032413949 0.035194978 -0.0057709003 -0.048382327 0.038253106 -0.0024160696
0.0093680555 -0.010136101 0.023645705 -0.023851816 -0.018496942 0.01376436 -0.030821655 0.040291738
-0.053337064 0.0463045 0.027684331 -0.05503608 -0.0010881112 -0.0006348634 0.0048351935 0.018062558
00000000: de60 f53c 0a24 c7bc e678 b1bc 817e 58bd
00000010: af96 25bc 110b c6bc 0dd0 313d d3d1 28bd
00000020: 7e3b e43b cd88 7fbd cd6c ea3a 13ad 1d3c
00000030: 2b05 3f3d 8e95 fbbc c6e1 11bd 0622 a1bb
00000040: 5b5b 243c 6107 92bc f670 963c 9324 dbbc
00000050: 38e6 90bc 074a c3bb ea5d b2bc f0c4 87bc
00000060: 902e 08bd 00b9 223d 154f c7bc 90f8 4f3c
00000070: cd20 5ebc 5bda 28bb 28bf bc3b adbb 4a3d
00000080: 2510 8a3d 5cb4 423c 678f fbbc 3c88 7f3c
00000090: c917 243b 8325 8b3d a7e1 48bd 9520 d13b
000000a0: e2b7 623c 7b5d 913d 3dfe 3d3c d70c d03c
000000b0: c298 33bc b1d5 bebc 19cf 4abd 1ee8 5fbd
000000c0: 8af1 05bd 8b83 5abd e840 bf3c ca25 e13c
000000d0: 6ab5 fdbb a6d0 4ebd 8b20 02bd 1450 16bc
000000e0: 657d b33b 06b7 1dbc 62fe 00bd 6233 f33a
000000f0: 1c58 d03c 70b1 f4bc 0e8e 4cbd 87eb 6c3b
00000100: 0c6c ea3b 60b4 263d 1312 cabc 5b27 aa3c
00000110: b694 e13c 1f3b 743c d147 3e3d b619 ba3c
00000120: e4de b23b 95c9 c73a 2e5d 41bd 0f41 d6ba
00000130: 957b 6cbd a943 59bd f750 a13c 0abe 1d3d
00000140: 9f89 bbbc ef99 bd3c 1166 af3b de71 afbc
00000150: 170e 97bc 4187 c63c 075d 69bd c5af 0bbd
00000160: 05b7 4c3d 5fe0 763b def0 59bb 7e28 5e3c
00000170: cd60 f8bc 4ece 8abc 628e edbb 38c3 ab3c
00000180: e21a 63bd cdf7 3bbd 00cd 45bd dbc1 8c3c
00000190: fac0 07bc 8cdc 78bd 01a9 943d 37ea 37bd
000001a0: 5037 a7bc 3382 04bd ed3d d03b 5f6e 93bc
000001b0: f2f5 c1ba 6e69 a33d d5e9 15bd 4fed 26bd
000001c0: 1597 c93c f932 13bc a98a 39bd f229 f93c
000001d0: 728c 3ebd 7360 193d a385 66bd 1523 dc3b
000001e0: 9726 bbbc 7e95 183d f0ce 86bc 9602 b7bc
000001f0: 01dc e7bc 13af 913c f94a cf3b 5547 803c
00000200: eb3f 4e3c a8e6 7dbb 66af f2bc e0d4 a7bc
00000210: 0ef3 823d fb8f 30bc 14bd 263d 56b4 933c
00000220: 1476 163c 3e88 56bd 5ea1 133a 1e6e 51bb
00000230: 152e babc 284b 013c ee5a 50bc 3d1f 7f3c
00000240: 35c1 5a3c edad f83c 1ae2 a1bb 823d 5b3d
00000250: 9119 5cbb 4bd5 50bb 3e8a 20bc 168e 793b
00000260: ca30 8c3d 89b5 f4bc 4a9b d7bd 6f91 7cbd
00000270: 83e5 673d 88dd e2bb 149f f03b 273d 35bd
00000280: 7734 e83c 087b d8bb e1e5 69bd 4773 9a3c
00000290: ff88 533b 16a2 f13c 748f 633b 2a1a fa3c
000002a0: 0abd 273d b0a7 aabb 3e88 c33c 1f4b 3bbd
000002b0: 6212 77bd 89c1 e9bc 9fc3 813c e947 003a
000002c0: 87ed 11bd 7c4d 36bd f4c1 fcbc 2089 b2bb
000002d0: d54d 32bd bd9b d5bc 36ac 5a3d e8ab 36bd
000002e0: 308c e5bc f347 c0bc b7bd e3bb 302b 1cbb
000002f0: 9d8a 933c 424b acbd 05b2 1e3c a760 09bd
00000300: 144e 18bd a12c 123d ace4 833d 2613 223c
00000310: c415 5cb8 4005 07bc 5cca 383d 9424 01bd
00000320: bbe4 4fbd b56d 85bd 3071 b33c 093a 8c3c
00000330: 7c02 46bd 309f 4a3d 1528 23bd d223 30bd
00000340: 8a70 0abc 15b9 b5bb 44f1 a0bc 2e01 b3bc
00000350: 6245 f33b 5c56 ecbc 3da1 153d ff00 c4bb
00000360: b378 bbba 193a 62bb 2182 0cbd 5472 f43c
00000370: d996 12bd 004e 43bd b997 163d 8c87 4fbd
00000380: 3fd7 f0bb 850b e5bb a2b3 063d 8315 4ebd
00000390: f580 063d 38fe f0bc 4bd5 513d 13d5 43bd
000003a0: a5c3 2b3d 0f43 53bd 956d 543b 9c28 103d
000003b0: d219 bdbb 8c2c 46bd 4aaf 1c3d ec56 1ebb
000003c0: 797c 193c e411 26bc a3b4 c13c e264 c3bc
000003d0: e686 97bc e983 613c b27d fcbc f308 253d
000003e0: f777 5abd caa9 3d3d 40ca e23c 836d 61bd
000003f0: f49e 8eba f66c 26ba 8b70 9e3b eef7 933c

l3.weight f4 [2, 300]
0.79925543 0.025097717 -0.5285749 0.012198711 0.0049164826 -0.04581224 0.1228466 -0.049582377
0.030079916 -0.042537455 0.014501271 0.039057985 -0.30535987 -0.09020546 -0.052247945 0.005773521
0.035147756 -0.054014474 -0.031400103 -0.03449511 0.027391383 -0.2005444 0.03006814 0.057555895
0.03579902 0.1048925 -0.093666494 -0.10059009 0.023556052 -0.3466177 0.3603233 0.09307149
0.32044578 0.25906357 0.03809294 -0.07283084 0.004688406 0.23620199 0.010009773 0.318691
-0.036647096 0.098828055 0.04818018 -0.14821318 0.071048126 0.25692007 -0.021995379 -0.0041908943
0.04443701 0.12209766 -0.17229953 0.24925421 -0.15891773 -0.033139404 0.047204364 -0.03839369
0.023543153 -0.04979165 -0.45503148 0.02362592 0.0030981668 0.01048953 0.02497576 0.09423638
0.02565506 0.19409716 0.00596482 -0.012137708 0.034845885 -0.04136873 -0.21055986 0.51802546
0.026192669 0.047088012 0.041877113 0.052662797 0.7138916 0.0010889469 0.032631725 -0.24618484
-0.034264725 -0.0044248495 -0.007272968 0.5309549 0.0025229831 0.04571605 -0.03464532 0.03357591
0.09264005 -0.25053853 -0.2151641 0.048453026 0.020560142 -0.18758115 -0.17228037 -0.019842112
-0.06558798 0.11074283 0.045051698 -0.22960399 -0.13837159 -0.0059890267 -0.021746382 0.036744747
-0.00699823 0.06043421 -0.029706623 -0.09530839 0.048606507 -0.015263421 0.011954909 -0.028859
-0.026922785 -0.35985443 0.6426588 -0.15200435 -0.0022512078 0.05606073 -0.16605097 -0.014480956
0.004387519 0.49458537 0.020230765 -0.046097 0.013272676 0.36294422 0.02304264 -0.021464996
-0.008919393 -0.260797 0.059370913 0.0594232 -0.07588989 0.021177225 0.048706077 0.15824921
0.5118822 0.033420026 0.026658101 -0.0657581 -0.40145996 -0.0033416522 0.032417048 -0.058085274
0.043840434 0.17812786 -0.2908989 -0.25339928 -0.14057581 0.0078638345 -0.08645032 -0.010756419
0.130733 -0.024297167 0.14687407 -0.03740786 0.21298228 -0.027325463 -0.15947923 -0.04788194
0.052543186 0.015334495 0.0022381353 0.02631313 -0.1394829 0.029542614 -0.00781997 -0.049060337
0.4620431 -0.21501856 -0.24061109 -0.037224527 0.02795214 -0.037342202 0.053855047 0.046322275
0.049716495 -0.0056897597 0.25530964 -0.50838387 0.039618596 -0.046775214 -0.08240076 -0.02039205
-0.00079830614 -0.02632034 -0.32190648 0.44243348 -0.02828641 -0.437885 -0.0073009324 0.037690427
0.054793272 0.006539408 0.13090557 0.008936 0.026730089 -0.012266844 0.1497373 0.011602226
-0.035649132 0.31042135 -0.34846556 0.069736205 0.028730037 -0.09063499 -0.02337764 -0.1470047
0.040089265 0.19961944 -0.013878237 0.040096488 -0.06430826 0.004436436 -0.25059468 -0.04303019
0.093708195 -0.1294788 0.22029935 -0.0007289183 0.05075639 -0.048892766 -0.0472936 -0.0425755
0.012321438 -0.050963238 0.13006692 -0.043700375 -0.018960904 -0.07193236 0.029014122 -0.0146595845
-0.25322258 0.020905245 0.3169777 -0.052901488 0.0027961207 -0.23029707 0.06146084 0.41891685
-0.3168293 0.029933436 0.03916491 0.023753792 0.012656382 -0.020429589 0.046263836 -0.002491666
-0.043001316 0.09583461 0.04461495 0.16510727 0.29057118 -0.27325064 0.6154038 -0.08570328
00000000: 019c 4c3f ba99 cd3c af50 07bf 1add 473c
00000010: 721a a13b 9ea5 3bbd 0097 fb3d e416 4bbd
00000020: 286a f63c c13b 2ebd bd96 6d3c 44fb 1f3d
00000030: 2158 9cbe a4bd b8bd f101 56bd ce2f bd3b
00000040: 18f7 0f3d 483e 5dbd 659d 00bd bf4a 0dbd
00000050: e563 e03c 835b 4dbe 7651 f63c bbbf 6b3d
00000060: fea1 123d e1d1 d63d 38d4 bfbd 2d02 cebd
00000070: 9ff8 c03c e077 b1be 4c7c b83e 449c be3d
00000080: 7811 a43e fba3 843e 5807 1c3d 5628 95bd
00000090: 33a1 993b efde 713e 0800 243c 772b a33e
000000a0: 441b 16bd 5d66 ca3d 9558 453d 32c5 17be
000000b0: ae81 913d 078b 833e a72f b4bc c553 89bb
000000c0: 9503 363d 570e fa3d 4a6f 30be 7f3c 7f3e
000000d0: 54bb 22be 2fbd 07bd 5d59 413d b442 1dbd
000000e0: 92dd c03c 54f2 4bbd e3f9 e8be 258b c13c
000000f0: 9d0a 4b3b 47dc 2b3c f799 cc3c 01ff c03d
00000100: 8f2a d23c 68c1 463e 8974 c33b 3ddd 46bc
00000110: 8fba 0e3d 4272 29bd 019d 57be 519d 043f
00000120: 0292 d63c 5cdf 403d 5687 2b3d f2b4 573d
00000130: 9ac1 363f ffba 8e3a d8a8 053d e117 7cbe
00000140: 2b59 0cbd 54fe 90bb 1452 eebb a9ec 073f
00000150: a258 253b c140 3b3d 40e8 0dbd e586 093d
00000160: 11ba bd3d 9646 80be fa53 5cbe ae76 463d
00000170: be6d a83c 4615 40be 446a 30be ed8b a2bc
00000180: fe52 86bd 23cd e23d 2188 383d 4f1d 6bbe
00000190: 48b1 0dbe 993f c4bb 7825 b2bc a981 163d
000001a0: 6851 e5bb dd89 773d 4e5b f3bc 0c31 c3bd
000001b0: 9e17 473d 6e13 7abc 86de 433c b669 ecbc
000001c0: 2c8d dcbc d73e b8be 4a85 243f 07a7 1bbe
000001d0: 0089 13bb f09f 653d 4409 2abe 8841 6dbc
000001e0: 2dc5 8f3b 4b3a fd3e fdba a53c 35d0 3cbd
000001f0: a375 593c d3d3 b93e ebc3 bc3c 5cd7 afbc
00000200: a522 12bc 2f87 85be ea2e 733d be65 733d
00000210: 296c 9bbd dc7b ad3c 0680 473d 150c 223e
00000220: b60a 033f 70e3 083d 1762 da3c 2fac 86bd
00000230: 298c cdbe 9fff 5abb bdc7 043d d3ea 6dbd
00000240: 0792 333d 2667 363e b3f0 94be 8dbd 81be
00000250: 1bf3 0fbe 50d7 003c de0c b1bd b13b 30bc
00000260: dfde 053e da0a c7bc 2866 163e fc38 19bd
00000270: 0718 5a3e a6d9 dfbc 864e 23be da1f 44bd
00000280: 8637 573d 893d 7b3c aead 123b a28e d73c
00000290: 9bd4 0ebe 5a03 f23c 551f 00bc 7ef3 48bd
000002a0: ea90 ec3e d32d 5cbe c162 76be bf78 18bd
000002b0: e3fb e43c 23f4 18bd 1c97 5c3d 6dbc 3d3d
000002c0: 86a3 4b3d 2a71 babb f2b7 823e 7225 02bf
000002d0: 1c47 223d 5e97 3fbd bbc1 a8bd 3a0d a7bc
000002e0: 6b45 51ba c19d d7bc edd0 a4be a486 e23e
000002f0: e7b8 e7bc 7632 e0be a93c efbb 4761 1a3d
00000300: e96e 603d 8848 d63b 1c0c 063e 4d68 123c
00000310: 0ff9 da3c dffa 48bc bc54 193e 4317 3e3c
00000320: d304 12bd 8cef 9e3e 146a b2be dbd1 8e3d
00000330: 415b eb3c d69e b9bd 7782 bfbc 6688 16be
00000340: a434 243d 0a69 4c3e 8c61 63bc 373c 243d
00000350: 0db4 83bd 865f 913b f24d 80be 6d40 30bd
00000360: 15ea bf3d 1796 04be 2796 613e e114 3fba
00000370: efe5 4f3d c843 48bd efb6 41bd a663 2ebd
00000380: dbdf 493c d4be 50bd 4330 053e 2aff 32bd
00000390: e653 9bbc 4651 93bd 06af ed3c c12e 70bc
000003a0: 64a6 81be 7a41 ab3c e74a a23e 3baf 58bd
000003b0: 1f3f 373b ffd2 6bbe 5dbe 7b3d 457c d63e
000003c0: 7337 a2be f736 f53c 626b 203d 5097 c23c
000003d0: b75c 4f3c f45b a7bc 267f 3d3d 384b 23bb
000003e0: 2622 30bd f044 c43d 2abe 363d e111 293e
000003f0: bfc5 943e 82e7 8bbe 1a8b 1d3f 3485 afbd

l3.bias f4 [2]
-0.03213432 0.0018060814
00000000: 479f 03bd 09ba ec3a
